mnist_mlp_weights.npz (npz, 505502 bytes, 8 tensors)

W1 (column-major) f4 [128, 784]
0	0x3d89893d	0.06715629
1	0xbc2fa666	-0.010720825
2	0xbd68f2d2	-0.056872196
3	0xbdaf12f9	-0.085485406
4	0xbdcf0cc6	-0.10109858
5	0xbcfb71e9	-0.030693965
6	0x3d088f09	0.033339534
7	0x3c80435f	0.015657125
8	0xbcbd3fb2	-0.023101661
9	0xbc5647c9	-0.013078638
10	0x3b900974	0.004395658
11	0x3b54af37	0.003245307
12	0x3dc1776c	0.09446606
13	0x3c78cb10	0.015185133
14	0x3d863c45	0.06554464
15	0xbdb1c636	-0.08680384
16	0xbd6512d4	-0.05592616
17	0x3c2e8f14	0.01065423
18	0x3c2f9079	0.010715597
19	0x3d8ca0e6	0.068666264
20	0xbdbcc7ff	-0.09217834
21	0xbdcc47cc	-0.09974632
22	0x3d010718	0.031500906
23	0x3ca60aac	0.02026876
24	0xbc88cfa1	-0.016700568
25	0xbd723841	-0.05913568
26	0xbc18e3d6	-0.009331664
27	0x3d0a538d	0.033771086
28	0x3c02d87e	0.007986186
29	0xbd7f76c8	-0.062369138
30	0x3de67812	0.1125337
31	0x3dace826	0.08442716
32	0x3c2c2ed2	0.01050921
33	0x3d82e05a	0.06390448
34	0xbd856ebf	-0.06515264
35	0xbd6a78ed	-0.05724423
36	0xbce428e6	-0.027851533
37	0x3cc529f5	0.024067858
38	0x3cc92599	0.02455406
39	0x3d9e18c7	0.0771957
40	0xbdc5df21	-0.09661699
41	0x3d9518aa	0.07280095
42	0x3d18192c	0.03713338
43	0xbcbe36cb	-0.023219487
44	0xbc14f443	-0.00909144
45	0xbdcade2b	-0.099056564
46	0x3d7a9204	0.061174408
47	0x3ddb3ef5	0.107053675
48	0xbde5793b	-0.112047635
49	0xbdda766e	-0.1066712
50	0xbde19674	-0.11015025
51	0x3cb7e28e	0.022446897
52	0x3cdaef3a	0.0267254
53	0xbdddcc5f	-0.10829996
54	0x3d33b8eb	0.043877523
55	0xbde3cf86	-0.11123566
56	0x3c9e25b1	0.019305082
57	0xbd549871	-0.051903192
58	0xbd347996	-0.044061266
59	0x3b5e1574	0.0033887299
60	0x3d315303	0.043292057
61	0xbc46b942	-0.01212913
62	0x3ca2297e	0.019795176
63	0xba8d1010	-0.0010762233
64	0x3d356e02	0.044294365
65	0xbc27967c	-0.010228749
66	0xbdcff8c0	-0.10154867
67	0x3d22cdbe	0.039746992
68	0xbd1eeedd	-0.038802017
69	0x3db32bd3	0.08748593
70	0xbc484cb0	-0.012225315
71	0xbcec78a1	-0.028866114
72	0xbbb8eb7b	-0.005643306
73	0x3bcfb12e	0.00633826
74	0x3c5a95a6	0.013341343
75	0xbd0544d1	-0.03253633
76	0x3d3d199d	0.046167005
77	0x3db78b8a	0.08962162
78	0x3b09a9e3	0.0021005801
79	0xbb007dd4	-0.001960625
80	0xbdd21a22	-0.10258891
81	0xbbc45f74	-0.005992824
82	0xbd61b8ad	-0.05510776
83	0x3d4f27ae	0.05057495
84	0x3d75afeb	0.05998222
85	0xbb1f4e8c	-0.0024308292
86	0xbbe8b726	-0.007101911
87	0xbd1703d8	-0.0368689
88	0x3cfd9956	0.030956905
89	0xbd4a938e	-0.049457125
90	0x3cc9509e	0.024574574
91	0x3db12e4c	0.086514086
92	0x3d81dbfd	0.063407876
93	0x3d65b469	0.056080256
94	0x3d29076f	0.041266855
95	0xbc717c40	-0.014739096
96	0x3caedad2	0.021344576
97	0xbdd1c952	-0.10243477
98	0xbc933f40	-0.017974496
99	0xbd3a0a39	-0.045419905
100	0xbcbc5617	-0.02299027
101	0xbd8dd4f3	-0.069253825
102	0x3cc763df	0.024339614
103	0x3c9506ee	0.01819178
104	0xbd6162ac	-0.05502574
105	0x3d8c1568	0.068400204
106	0xbc8c60d6	-0.017136019
107	0x3c628a3e	0.013826905
108	0x3cb262a5	0.021775553
109	0xb99e7407	-0.00030222556
110	0xb9c01c26	-0.00036642066
111	0xbd87e51e	-0.066354975
112	0xbd977c21	-0.073967226
113	0x3d8797e2	0.06620766
114	0xbd49315c	-0.04911934
115	0xbdb99634	-0.09061852
116	0xbc7c0659	-0.015382373
117	0x3d9ecb91	0.07753671
118	0xbab14e0d	-0.0013527289
119	0xbd7ff4c0	-0.06248927
120	0x3d018140	0.031617403
121	0xbc5bc93c	-0.013414677
122	0x3c79f859	0.015256965
123	0x3d21ad12	0.039471693
124	0x3b5e1e93	0.0033892735
125	0xbd88eb05	-0.066854514
126	0xbcc3ec04	-0.023916252
127	0xbd8ec739	-0.069715925
128	0xbdc12f5b	-0.094328605
129	0xbc6a39f2	-0.014296042
130	0x3cabd6dd	0.020976478
131	0xbb23c708	-0.0024990458
132	0x3d559a4c	0.052149102
133	0xbd61a7b7	-0.055091586
134	0xbd6150e5	-0.055008788
135	0x3d02aa78	0.031900853
136	0xbd451081	-0.048111442
137	0x3c68417c	0.014175769
138	0x3cdf354c	0.027247094
139	0xbd932a01	-0.07185746
140	0xbd004765	-0.031318087
141	0xbd83d58e	-0.06437217
142	0xbdb92a2b	-0.09041246
143	0x3aad451d	0.001321945
144	0xbda15dea	-0.07879241
145	0xbd83e862	-0.06440808
146	0xbdcc8d37	-0.09987872
147	0x3c8ee8cf	0.017444996
148	0x3dde2406	0.10846715
149	0x3d691552	0.0569051
150	0x3d8835a2	0.06650855
151	0x3d0e4fb4	0.03474398
152	0x3d9b5220	0.075840235
153	0xbd777512	-0.06041438
154	0x3c8be073	0.0170748
155	0x3d888e6d	0.066677906
156	0x3c8f2f68	0.01747866
157	0x3d94a79f	0.07258534
158	0xbc1650d7	-0.009174547
159	0x3c22af3f	0.009929477
160	0xb9a217e5	-0.0003091685
161	0x3d88158a	0.06644733
162	0xbc9aa153	-0.018875754
163	0xbc02923e	-0.007969437
164	0x3c69b0f6	0.014263382
165	0x3c424cf0	0.011859164
166	0xbc8d91a6	-0.017281365
167	0xbc8c029f	-0.017091094
168	0xbb8845e4	-0.0041587222
169	0x3d417917	0.04723462
170	0xbd8c2480	-0.06842899
171	0x3c8a1396	0.016855042
172	0x3d02f9bf	0.031976458
173	0xbd057e0d	-0.032590915
174	0x3d8c6488	0.06855112
175	0xbcce53f2	-0.025186513
176	0xbca14501	-0.019686224
177	0xbd4c7213	-0.049913477
178	0xbcb7d73b	-0.022441497
179	0xbd89da96	-0.06731145
180	0xbb33c68b	-0.0027431573
181	0x3d53886b	0.05164377
182	0xbd99ff58	-0.07519406
183	0xbd0e33a6	-0.034717225
184	0xbc8d89c9	-0.017277615
185	0x3d98f9e4	0.07469538
186	0xbc13a3c1	-0.00901121
187	0xbb3cb64c	-0.002879518
188	0xbd881681	-0.06644917
189	0xbd42856c	-0.047490522
190	0x3d668beb	0.05628578
191	0xbc9583ed	-0.018251384
192	0x3d0d0eb6	0.034437858
193	0x3cff3137	0.031151397
194	0x3d164aac	0.036692306
195	0x3db7f368	0.08981973
196	0xbbe213e0	-0.006899342
197	0x3dba924d	0.09109936
198	0xba9777a9	-0.0011556047
199	0xbd375c76	-0.044765912
200	0x3d0c4cd5	0.03425296
201	0x3d332e89	0.04374555
202	0xbcb96bd5	-0.022634426
203	0xbd49e28a	-0.04928831
204	0xbc867a8e	-0.01641586
205	0xbc29a67f	-0.010354637
206	0x3dd6da67	0.10490876
207	0x3d0125ed	0.03153031
208	0xbdaa0cf5	-0.083032526
209	0xbbfd1581	-0.0077235107
210	0x3d93afcd	0.07211266
211	0x3d658311	0.056033198
212	0x3dbd3e8f	0.09240448
213	0xbc469ac4	-0.01212186
214	0x3d48b2c7	0.04899862
215	0x3dd52038	0.10406536
216	0xbd2b5b57	-0.041835155
217	0x3cdbaffa	0.02681731
218	0xbd319950	-0.0433591
219	0xbd65fbd2	-0.056148358
220	0x3d3addad	0.045621563
221	0xbdc3f180	-0.09567547
222	0xbc2b006e	-0.010437114
223	0xbd5c02ed	-0.053713728
224	0x3cc0abca	0.023519415
225	0x3caeef8b	0.021354457
226	0x3d69fd28	0.057126194
227	0xbde33ed0	-0.11095965
228	0xbd4ed8ad	-0.050499607
229	0x3c383c05	0.0112447785
230	0x3c3ad41a	0.011403108
231	0xbd9dde5d	-0.07708428
232	0x3c05f468	0.008175947
233	0xbd342864	-0.043983832
234	0xbda8f6ff	-0.08250236
235	0xbd9140c1	-0.07092429
236	0x3ca3f82f	0.020015804
237	0x3dc8e971	0.098101504
238	0x3bae7944	0.0053245146
239	0xbceb27e4	-0.028705545
240	0xbcc39408	-0.023874298
241	0xbc8cebeb	-0.017202338
242	0x3bbb4689	0.0057151956
243	0xbd9901d6	-0.07471053
244	0x3da9626c	0.082707256
245	0x3ca7d99e	0.02048951
246	0x3d1baea4	0.038008347
247	0xbd28b825	-0.04119124
248	0xbcb690ef	-0.022285907
249	0x3cf3d523	0.029764717
250	0xbd90d265	-0.070713796
251	0xbd697316	-0.05699452
252	0xbdb7ee1e	-0.08980964
253	0x3b89f8af	0.0042105536
254	0x3d35c119	0.044373605
255	0xbd109767	-0.03530064

b1 f4 [128]
0	0x3db36dda	0.08761187
1	0x3c99d85b	0.018779924
2	0x3d81826b	0.063237034
3	0x3c9e0d14	0.019293346
4	0x3d3eb718	0.04656133
5	0x3c128d8e	0.008944882
6	0x3bcf85d1	0.006333091
7	0xbd9ee672	-0.07758798
8	0xbda72f43	-0.08163311
9	0xbcd76dc5	-0.02629746
10	0xbdcfd314	-0.10147682
11	0x3e11e25a	0.14246503
12	0x3d5cb913	0.053887438
13	0x3d8902f4	0.066900164
14	0x3d232a6f	0.03983539
15	0x3cef5752	0.029216442
16	0xbcf75186	-0.03019024
17	0xbdcd0f02	-0.10012628
18	0x3da1aa82	0.0789385
19	0xbd98722a	-0.0744365
20	0xbdb7b522	-0.08970095
21	0x3dee14f1	0.11625088
22	0x3be850ae	0.007089696
23	0xbe64842a	-0.22316042
24	0x3c6a607e	0.014305232
25	0xbda00665	-0.0781372
26	0xbd414f78	-0.047194928
27	0x3c06038b	0.008179556
28	0xbd1cf439	-0.038318846
29	0x3d5ea280	0.05435419
30	0x3dbc3bab	0.09191068
31	0x3d80b715	0.0628492
32	0xbcde6196	-0.027146142
33	0xbe68fde6	-0.22753105
34	0xbd9422f7	-0.072332315
35	0xbe4bb92c	-0.19894856
36	0x3e004db4	0.12529641
37	0x3c894fc8	0.016761675
38	0x3cb0589e	0.021526631
39	0xbd757069	-0.059921656
40	0xbd845923	-0.06462314
41	0xbcbeb240	-0.023278356
42	0xbdb30311	-0.08740819
43	0x3cf35ed7	0.02970831
44	0x3d01b854	0.03166993
45	0xbd9597f9	-0.07304377
46	0x3ccf12a5	0.025277445
47	0x3e17bb32	0.14817503
48	0xbd93e7fa	-0.072219804
49	0xbdb49b80	-0.08818722
50	0x3def0a8f	0.11671936
51	0x3db34e99	0.08755226
52	0xbbeb4cbd	-0.007180779
53	0x3e8064d2	0.2507692
54	0xbd478fc8	-0.048721105
55	0x3dedbac7	0.116078906
56	0x3dfcf0b6	0.123505995
57	0x3de994a1	0.11405302
58	0xbc198f90	-0.009372607
59	0x3d146c7b	0.036236268
60	0x3dec9236	0.11551325
61	0xbdb2d4de	-0.087320074
62	0x3e1f21eb	0.15540282
63	0x3cfadac8	0.030621901
64	0xbb0f171d	-0.0021833845
65	0xbc84173c	-0.01612436
66	0x3e0bd116	0.13653979
67	0x3d0e5422	0.034748204
68	0x3dffbe0e	0.12487422
69	0xbdbe1db7	-0.092830114
70	0x3d641f90	0.055694163
71	0x3d5a927b	0.05336235
72	0xbe57bc6d	-0.21067972
73	0x3d230ada	0.03980527
74	0x3cf5452b	0.029940208
75	0xbcfdac5f	-0.030965982
76	0x3d57a526	0.052647732
77	0x3d3faa3e	0.046793215
78	0xbdb1d876	-0.08683865
79	0x3e2ce7ea	0.16885343
80	0xbe61d37a	-0.22053328
81	0xbe2b0ff6	-0.16705307
82	0x3a086c00	0.00052040815
83	0x3d29d7fa	0.041465737
84	0xbd04ab27	-0.032389786
85	0xbc16eded	-0.009211999
86	0x3d4deca7	0.050274517
87	0x3d245b41	0.04012609
88	0x3d43b47a	0.047779538
89	0x3cbc8289	0.023011463
90	0xbe2824f6	-0.1642035
91	0x3d819a5a	0.06328268
92	0xbd9d9249	-0.07693917
93	0xbbdd7f50	-0.0067595616
94	0xbcd64da8	-0.026160076
95	0xbe423171	-0.18964173
96	0xbdc0812b	-0.09399637
97	0xbbeeeb5c	-0.0072912406
98	0x3dfe337c	0.124121636
99	0x3d9798f0	0.074022174
100	0xbded829a	-0.11597176
101	0x3cfa08db	0.0305218
102	0x3d046740	0.03232503
103	0xbd1b849b	-0.03796826
104	0x3e0eb595	0.13936456
105	0xbd32d145	-0.043656606
106	0x3db48031	0.08813513
107	0x3d49ad68	0.04923764
108	0x3d2d330c	0.04228501
109	0x3e47bd0d	0.19505711
110	0x3d06d966	0.03292217
111	0xbc7c465f	-0.015397637
112	0x3d65f8cf	0.056145485
113	0x3e0c723c	0.13715452
114	0xbd16ecf8	-0.036847085
115	0xbd2954e4	-0.041340724
116	0x3b196d72	0.0023411182
117	0x3daa4f05	0.08315853
118	0x3e0836f7	0.13302217
119	0x3d22dc60	0.039760947
120	0xbd775cd0	-0.060391247
121	0xbdcfd245	-0.101475276
122	0xbe04d633	-0.12972336
123	0xbd5b9cf2	-0.05361647
124	0x3c2e0f15	0.010623713
125	0x3dd9571e	0.106123194
126	0xbdd01eb3	-0.101621054
127	0xbe86eacc	-0.2635101

W2 (column-major) f4 [128, 128]
0	0xbed4d078	-0.415653
1	0xbe1f579e	-0.15560767
2	0xbdfcc028	-0.123413384
3	0xbea9da36	-0.33174294
4	0x3e4fa7c4	0.20278841
5	0x3d712583	0.058873665
6	0x3e0a74ec	0.13521165
7	0xbeed8999	-0.4639404
8	0xbe893d08	-0.26804376
9	0xbdca48ce	-0.09877168
10	0x3d7659e7	0.06014433
11	0xbe3c9498	-0.18416059
12	0xbe002733	-0.12514953
13	0xbcfb91c7	-0.03070916
14	0x3e5a73cc	0.21333236
15	0xbe83ae8a	-0.257191
16	0xbe543d3f	-0.20726489
17	0xbeaa87ae	-0.3330664
18	0xbd1cb636	-0.038259707
19	0x3c8801b2	0.01660237
20	0x3e568654	0.2094968
21	0xba0fff2a	-0.00054930395
22	0x3e251c32	0.16124037
23	0x3db5f39a	0.08884354
24	0xbe9ee704	-0.31035626
25	0x3e8235fc	0.25431812
26	0x3d0dbde0	0.034604907
27	0xbd4f917a	-0.050675847
28	0xbcc9f06e	-0.024650779
29	0x3cfa0b5f	0.030523
30	0x3d4e3a46	0.050348543
31	0xbe3f0bb2	-0.18656805
32	0x3e3f7191	0.18695666
33	0xbd31210b	-0.043244403
34	0xbdf0652e	-0.117380485
35	0xbe0bb7a1	-0.13644268
36	0xbe0ed54e	-0.13948557
37	0x3d3ae916	0.045632444
38	0xbcf2b24d	-0.029626036
39	0x3db45ab1	0.088063605
40	0x3e364b44	0.17802149
41	0x3cd59ac7	0.02607478
42	0x3e7144a6	0.23561344
43	0xbd981746	-0.07426314
44	0x3d8cb1ab	0.06869825
45	0x3c34c53a	0.011033351
46	0xbca86579	-0.020556198
47	0x3b393805	0.002826215
48	0xbdf90c39	-0.121605344
49	0xbe40373b	-0.18771069
50	0xbe919011	-0.28430226
51	0x3d5d84b2	0.054081626
52	0x3d804358	0.06262845
53	0x3dc3dc81	0.09563542
54	0xbdc19cf5	-0.09453765
55	0x3e0ad1e7	0.13556634
56	0x3dd71d49	0.105036326
57	0xbd87c50e	-0.06629382
58	0x3d9529ab	0.07283338
59	0xbdeab1c9	-0.11459691
60	0xbebce16d	-0.36890736
61	0xbc3f7239	-0.011684948
62	0xbd2a9190	-0.041642725
63	0xbe549b83	-0.20762448
64	0xbd65a167	-0.05606213
65	0xbd11f8fd	-0.035637844
66	0xbcffd751	-0.0312306
67	0x3e1a3d20	0.1506238
68	0xbe475367	-0.19465409
69	0x3d69b824	0.057060376
70	0x3e047a44	0.12937266
71	0x3d9d6e56	0.076870605
72	0x3de83a4c	0.11339244
73	0x3e45893a	0.19290629
74	0xbd0240a6	-0.031799935
75	0xbe69110a	-0.22760406
76	0xbcdb9899	-0.026806163
77	0x3e90b584	0.28263485
78	0xba370d90	-0.0006982917
79	0x3db2eec6	0.08736949
80	0x3dcf937b	0.101355515
81	0xbe3474de	-0.17622706
82	0xbc83f9a5	-0.01611025
83	0x3d03b5be	0.032155745
84	0xbe66c6bc	-0.22536749
85	0x3c09ac76	0.008402934
86	0xbcdc8239	-0.026917564
87	0xbe8e95c4	-0.27848637
88	0x3d8bae5d	0.068203665
89	0x3e312ba0	0.17301798
90	0x3c9f9160	0.0194785
91	0xbdfd332a	-0.123632744
92	0x3c957ab1	0.01824698
93	0x3dbb9ddd	0.091609694
94	0x3e82f4b2	0.25577313
95	0x3c6bd3b1	0.014393733
96	0x3d995d80	0.07488537
97	0x3bc26c30	0.005933307
98	0xbe332d05	-0.17497642
99	0x3daeecf8	0.08541292
100	0xbebe034a	-0.37111884
101	0x3ca3ee5c	0.02001112
102	0x3e06ac7d	0.13151737
103	0x3d0a100d	0.033706713
104	0x3d10103e	0.03517174
105	0x3d31673e	0.04331135
106	0x3e01e165	0.12683637
107	0xbdbd7716	-0.092512295
108	0x3d5df649	0.054189954
109	0xbd3babba	-0.045818068
110	0xbe3b366d	-0.1828248
111	0xbde08fe4	-0.10964945
112	0xbea14d88	-0.31504464
113	0xbd5b0413	-0.053470682
114	0xbcc2a426	-0.023759913
115	0xbe893c08	-0.26803613
116	0xbe24faa8	-0.16111243
117	0xbe7e357b	-0.24825089
118	0xbe1ae770	-0.15127349
119	0xbc96dba2	-0.018415276
120	0xbeccd620	-0.40007114
121	0xbea7f125	-0.32801166
122	0xbe3c317c	-0.18378252
123	0x3da42aae	0.08015953
124	0x3c10421e	0.008804826
125	0xbd01f26b	-0.03172533
126	0x3e456141	0.1927538
127	0x3da2114e	0.07913457
128	0x3e0f946f	0.14021467
129	0x3d0e9816	0.03481301
130	0xbdbcfc40	-0.092278
131	0x3e46334c	0.19355506
132	0x3d472305	0.04861738
133	0xbdc7b4b3	-0.097512625
134	0xbc091864	-0.008367632
135	0x3d29adaf	0.041425403
136	0xbb4e684e	-0.0031495276
137	0xbd6b8202	-0.057497032
138	0x3e442ebd	0.19158454
139	0x3e13c6e3	0.14431338
140	0x3e90e377	0.28298542
141	0xbdea5cf2	-0.11443509
142	0x3d8b5dde	0.06805013
143	0x3d5ad50f	0.053425845
144	0xbd0ef61e	-0.034902684
145	0x3da0feb5	0.078610815
146	0x3e9c97b9	0.30584505
147	0xbdc52ff2	-0.096282855
148	0x3e141569	0.14461292
149	0xbeaac79f	-0.33355424
150	0x3e76bf9c	0.2409653
151	0x3b1a260f	0.002352122
152	0x3e570d4b	0.21001165
153	0xbefc3340	-0.4925785
154	0x3e7eda31	0.24887921
155	0xbb3e1a5f	-0.0029007418
156	0x3df3589f	0.118821375
157	0xbda82401	-0.08209992
158	0xbe2ec57d	-0.17067523
159	0xbe032939	-0.12808694
160	0xbed4b9f8	-0.41548133
161	0xbd961e11	-0.073299535
162	0xbe8cb2d9	-0.274802
163	0xbc878c86	-0.016546499
164	0xbc4c50d3	-0.012470442
165	0x3d136740	0.03598714
166	0xbea04601	-0.3130341
167	0x3deb86a1	0.11500288
168	0x3dd3cd45	0.103418864
169	0x3df53d0f	0.11974537
170	0x3dd8629e	0.10565685
171	0x3e101b9a	0.14073029
172	0x3dd95ec4	0.10613778
173	0x3d10cdbf	0.035352465
174	0xbd1c7d3d	-0.038205374
175	0xbe4e096f	-0.20120786
176	0x3d5f2483	0.05447818
177	0x3d38dc3c	0.045131907
178	0x3e297197	0.16547237
179	0xbcbfd39c	-0.023416333
180	0x3e165f61	0.14684822
181	0xbc811716	-0.015758079
182	0x3d43951f	0.047749635
183	0xbe12de9a	-0.14342728
184	0x3dce388c	0.10069379
185	0xbe92cfb7	-0.286741
186	0x3e198ac2	0.14994338
187	0xbd286b1f	-0.041117784
188	0x3ddb7b97	0.10716932
189	0xbede4a24	-0.4341594
190	0xbd77a4d3	-0.060459923
191	0x3e5db68a	0.21651664
192	0x3e1aefb9	0.1513051
193	0xbeaa84c1	-0.33304408
194	0x3e0d8c87	0.13823138
195	0x3d1edb7a	0.038783528
196	0xbc7104b3	-0.014710593
197	0x3df1c5f5	0.118053354
198	0xbe6bcb59	-0.2302679
199	0xbe832a67	-0.25618288
200	0xbd881d88	-0.06646258
201	0x3e54d30e	0.20783636
202	0xbead56b8	-0.33855224
203	0x3e140465	0.14454801
204	0xbe12fbab	-0.14353816
205	0xbdd3ff7d	-0.10351465
206	0xbe0b35e2	-0.13594773
207	0x3dbbed04	0.091760665
208	0xbe478a16	-0.1948627
209	0xbd454cc8	-0.048168927
210	0xbdc48351	-0.09595359
211	0xbe4b8f86	-0.19878969
212	0x3c0a60f7	0.00844597
213	0x3e08fc0e	0.13377401
214	0x3cddc05e	0.027069267
215	0x3d048324	0.032351628
216	0xbe00c7ca	-0.12576213
217	0x3da6204a	0.081116274
218	0xbe60eaa4	-0.21964508
219	0x3d96dc1f	0.073662035
220	0xbd8e7587	-0.0695601
221	0xbd4d31f6	-0.050096475
222	0xbe41ce80	-0.1892643
223	0x3dac90ca	0.08426054
224	0xbdcf7339	-0.10129399
225	0xbd433f30	-0.047667682
226	0x3d5af174	0.053452924
227	0x3bb44d3b	0.0055023707
228	0x3d5c4cd8	0.05378422
229	0xbe0997ec	-0.1343686
230	0x3dfbd9ca	0.12297399
231	0xbe31aa72	-0.17350176
232	0x3d438132	0.047730632
233	0x3cadd0f7	0.021217806
234	0x3d620ba3	0.05518688
235	0x3da1dc3f	0.07903337
236	0x3d73f903	0.059563648
237	0xbd281568	-0.04103604
238	0x3b5729e1	0.0032831358
239	0x3c0dd73b	0.008657272
240	0xbde7b4ec	-0.11313805
241	0xbd2567c1	-0.04038215
242	0x3ca2629f	0.019822417
243	0x3e4347a6	0.190703
244	0x3dbebc85	0.09313301
245	0x3d9bef72	0.0761403
246	0xbe66dc1d	-0.22544904
247	0xbe9de2f5	-0.30837217
248	0x3e0d2c6a	0.13786474
249	0x3d9efbce	0.07762872
250	0x3e42cc07	0.19023143
251	0xbc8da0bb	-0.017288556
252	0x3dba42e8	0.090947926
253	0x3d0ab457	0.03386339
254	0x3dc00194	0.09375301
255	0x3e4e5617	0.20150028

b2 f4 [128]
0	0xbe7e4e39	-0.24834527
1	0xbdaacd71	-0.08339966
2	0xbdce5a5a	-0.10075827
3	0x3d587b7a	0.05285213
4	0x3dca0382	0.0986395
5	0xbe122318	-0.142712
6	0x3ceb0b30	0.028691858
7	0x3c9a6041	0.018844726
8	0xbe19c429	-0.15016235
9	0xbe75229d	-0.23938985
10	0xbd403722	-0.04692758
11	0xbe1773d2	-0.14790276
12	0xbe1e3455	-0.1544965
13	0xbbe74519	-0.0070577976
14	0xbe171aa3	-0.14756255
15	0x3db4a754	0.08820978
16	0xbd7a3acd	-0.061091233
17	0x3ce9a076	0.028518897
18	0x3ddbb80e	0.10728465
19	0x3e370b17	0.17875324
20	0xbdc152c4	-0.094396144
21	0x3da122b1	0.07867945
22	0x3d605294	0.054766253
23	0x3dddb23c	0.10825011
24	0xbe0011ce	-0.12506792
25	0xbe19e521	-0.15028812
26	0xbd97d077	-0.074128084
27	0xbda47798	-0.08030623
28	0xbddad9bf	-0.10686063
29	0xbe3869fa	-0.18009177
30	0xbec7b4b0	-0.3900504
31	0xbdf1cb40	-0.11806345
32	0xbe054221	-0.13013507
33	0xbe3b507f	-0.18292426
34	0x3e780b9b	0.24223177
35	0xbcc5d489	-0.024149196
36	0x3df5423e	0.11975525
37	0xbe636ebb	-0.22210209
38	0x3d25befc	0.04046534
39	0xbda7a7e5	-0.0818632
40	0xbe26c70d	-0.1628687
41	0x3d7c9692	0.061667033
42	0xbe32665b	-0.17421858
43	0x3b43fd0c	0.0029905466
44	0xbd6809bc	-0.05664991
45	0xbe939204	-0.2882234
46	0xbd7686a8	-0.060187012
47	0x3d0840e3	0.033265006
48	0xbd428261	-0.04748762
49	0x3dd34ac7	0.10316997
50	0xbe10a867	-0.1412674
51	0xbdecd100	-0.11563301
52	0x3da35987	0.0797606
53	0x3daeaa71	0.08528603
54	0xbd0c9726	-0.034323834
55	0xbddd84a6	-0.10816316
56	0x391f2082	0.00015175532
57	0x3b84a629	0.004048128
58	0x3d9cc2c4	0.07654336
59	0xbd3c7667	-0.046011355
60	0x3cc220b1	0.02369723
61	0xbd92d3ee	-0.07169329
62	0xbc4716e0	-0.01215145
63	0x3decf547	0.115702204
64	0x3e42c1fe	0.19019315
65	0xbdc74c98	-0.09731406
66	0x3d532999	0.051553342
67	0xbdab9e04	-0.083797485
68	0xbc2a14c0	-0.010380924
69	0x3bbeabf6	0.005818839
70	0x3c07f71b	0.008298661
71	0xbc71fea6	-0.014770186
72	0x3ba2f1a2	0.0049726525
73	0x3ceb7d2b	0.028746208
74	0x3dbf36c3	0.09336617
75	0xbdc52b8f	-0.09627449
76	0x3e421f46	0.18957242
77	0x3d075554	0.03304036
78	0x3d02ac81	0.031902794
79	0xbe13c417	-0.14430271
80	0x3d800572	0.062510386
81	0xbda97330	-0.082739234
82	0xbd83266b	-0.06403812
83	0x3e8af335	0.27138677
84	0xbe717c2d	-0.23582526
85	0x3d00d323	0.031451356
86	0x3bfb8d10	0.007676728
87	0x3d4bd4c5	0.04976346
88	0xbdd18031	-0.10229529
89	0xbe45ac02	-0.19303897
90	0x3d6962d6	0.056979023
91	0xbe633724	-0.22189003
92	0x3d4a7575	0.049428422
93	0xbd75b7d5	-0.05998977
94	0xbe1c2d5f	-0.15251683
95	0x3dd58b81	0.10426999
96	0x3dfadb9d	0.12248919
97	0xbc995533	-0.018717384
98	0xbc62fca1	-0.013854177
99	0x3d0a425a	0.033754684
100	0xbd95e3af	-0.07318818
101	0xbdb606fb	-0.0888805
102	0xbe1959eb	-0.14975707
103	0xbdc4139b	-0.09574052
104	0xbe307890	-0.17233491
105	0x3c63e74c	0.013910126
106	0x3b8d2a63	0.0043080314
107	0x3de7284d	0.11286984
108	0xbdcab8e9	-0.0989855
109	0xbd8c2d5c	-0.06844589
110	0x3d4f350c	0.0505877
111	0xbd801605	-0.062542
112	0x3bbb1897	0.0057097184
113	0x3de09893	0.10966601
114	0xbd94ccb6	-0.07265608
115	0xbe1dde48	-0.15416825
116	0xbe339a33	-0.17539291
117	0x3defd424	0.117103845
118	0x3e01ac7d	0.12663455
119	0xbd851565	-0.06498221
120	0x3de4d03e	0.111725315
121	0xbd638326	-0.055544995
122	0x3e0b681f	0.13613938
123	0x3e40f04d	0.18841667
124	0x3d01be1e	0.03167545
125	0xbe2d70da	-0.1693758
126	0x3d9349fe	0.07191847
127	0x3cc89563	0.024485296

W3 (column-major) f4 [64, 128]
0	0xbe5ad540	-0.21370411
1	0x3d31376a	0.043265738
2	0xbd904e8a	-0.0704623
3	0xbdf0e8aa	-0.11763127
4	0xbe2b7df4	-0.16747266
5	0xbe11ca1c	-0.14237255
6	0xbd849613	-0.06473937
7	0xbe34660c	-0.17617053
8	0x3d337407	0.043811824
9	0x3d2aa6ae	0.041662864
10	0xbd5b1454	-0.053486183
11	0xbd80d8fd	-0.06291387
12	0xbd023581	-0.031789307
13	0xbe270349	-0.16309847
14	0xbdd2aea6	-0.10287218
15	0xbea13983	-0.3148919
16	0x3c7f437e	0.015580056
17	0xbe9ccadf	-0.30623528
18	0x3e43b5ba	0.19112292
19	0xbe294963	-0.16531901
20	0x3dfb7991	0.12279046
21	0xbcdb9069	-0.026802259
22	0xbe95db44	-0.2926885
23	0xbe096233	-0.13416366
24	0xbdf7a78c	-0.12092504
25	0xbd45bda2	-0.04827655
26	0xbcd1602d	-0.025558555
27	0xbc68b252	-0.014202671
28	0xbd933ad8	-0.07188958
29	0xbe2016c7	-0.15633689
30	0x3d2538f2	0.04033751
31	0x3d78f88d	0.06078391
32	0xbe131432	-0.14363173
33	0xbe489562	-0.19588235
34	0xbdfebd4d	-0.1243845
35	0x3e82cdd0	0.25547647
36	0x3d3b8404	0.045780197
37	0xbda65238	-0.08121151
38	0x3e09097e	0.13382527
39	0xbcd98d8f	-0.026556758
40	0xbd4328c8	-0.047646314
41	0x3d84745b	0.064675055
42	0x3c74e1e9	0.014946439
43	0xbdffef4a	-0.12496813
44	0xbbc98351	-0.0061496873
45	0x3e3631e6	0.17792472
46	0x3ea62873	0.32452735
47	0xbe593352	-0.21210983
48	0x3ddd6ecd	0.10812149
49	0xbe71c716	-0.23611102
50	0xbc3f58f2	-0.011678921
51	0x3d86c6e6	0.065809056
52	0xbe3040b5	-0.17212184
53	0x3d50fe58	0.05102381
54	0xbd34bda2	-0.04412616
55	0xbe5b6ac6	-0.2142745
56	0x3dc4d468	0.09610826
57	0x3ec30096	0.38086385
58	0x3cb9d419	0.022684144
59	0x3e11f192	0.14252308
60	0x3d81468a	0.063122824
61	0xbe64c156	-0.22339377
62	0xbc117016	-0.008876821
63	0xbd967718	-0.07346934
64	0x3c0849f5	0.008318414
65	0xbd519ce3	-0.05117501
66	0xbd28cf2d	-0.041213203
67	0xbd0d4d32	-0.034497447
68	0x3d8a2f00	0.06747246
69	0x3e028ccf	0.12749027
70	0xbdd09327	-0.10184317
71	0x3c739a42	0.014868321
72	0xbdc73e08	-0.097286284
73	0x3bf64ba5	0.0075163417
74	0xbd0112f9	-0.031512234
75	0xbd9ed83b	-0.077560864
76	0x3e1b1e33	0.15148239
77	0xbcf80382	-0.03027511
78	0xbe8b0eff	-0.2715988
79	0xbdeaff6d	-0.114745
80	0x3cee9235	0.029122451
81	0xbe9ab66b	-0.302173
82	0xbe4ff4a1	-0.20308162
83	0xbcd5c62c	-0.026095472
84	0x3d9ed70e	0.07755862
85	0xbe211ffa	-0.15734854
86	0xbe1aefa1	-0.15130474
87	0xbe48a765	-0.19595106
88	0xbe00833f	-0.12550066
89	0x3cf1572b	0.02946051
90	0x3da77aaa	0.08177693
91	0x3ce6e0e6	0.028183412
92	0xbe168d75	-0.14702399
93	0xbe21e92b	-0.15811603
94	0xbe37f078	-0.17962825
95	0xbbc9ba41	-0.0061562364
96	0xbe091c85	-0.13389786
97	0xbe83aa1d	-0.25715724
98	0x3cd137c4	0.025539286
99	0x3dd9b39f	0.10629963
100	0xbcea41d1	-0.028595837
101	0xbd9a0fe1	-0.0752256
102	0x3d900d6a	0.070338085
103	0xbe5e6296	-0.21717295
104	0x3db00592	0.085948125
105	0xbe27d3a5	-0.1638933
106	0xbd40d991	-0.047082487
107	0x3cfe2eda	0.0310282
108	0xbd872441	-0.06598712
109	0xbd4e4256	-0.05035623
110	0x3e6b1d44	0.22960383
111	0xbe16a306	-0.14710626
112	0x3be0b333	0.0068572997
113	0x3dd29f28	0.10284263
114	0xbe35e801	-0.17764284
115	0xbe33eb49	-0.17570223
116	0xbd55b798	-0.05217704
117	0x3e0b46ad	0.1360118
118	0xbe6d17c0	-0.23153591
119	0x3ddb1d1c	0.106989115
120	0x3e33b3b3	0.17549019
121	0xbe2428a0	-0.16031122
122	0x3e80bd08	0.2514422
123	0x3d1007eb	0.0351638
124	0xbd1b203f	-0.03787255
125	0xbe01852b	-0.12648456
126	0x3c9357e8	0.017986253
127	0xbdd25633	-0.102703474
128	0xbce124af	-0.027483312
129	0x3e14f3f5	0.14546187
130	0xbc697d57	-0.014251075
131	0xbccb416e	-0.024811473
132	0x3e86c460	0.26321697
133	0xbdd5ae6d	-0.1043366
134	0xbc6921e2	-0.01422927
135	0xbeb8d939	-0.36103228
136	0xbda0aa0e	-0.07844935
137	0x3dfb9859	0.122849174
138	0xbe5c91ef	-0.21540044
139	0xbdc76126	-0.097353265
140	0x3df44eba	0.119290784
141	0x3dd0b5e7	0.10190945
142	0xbe0806e8	-0.13283885
143	0x3b9ba738	0.0047501586
144	0x3d962d25	0.073328294
145	0x3decfebf	0.115720265
146	0x3c445d18	0.011985086
147	0xbe25393d	-0.16135116
148	0xbd1e5406	-0.03865435
149	0x3d2ab664	0.041677848
150	0x3e2c6f16	0.16839251
151	0x3d92882d	0.0715488
152	0xbe9be79b	-0.30450138
153	0xbdb63c35	-0.08898202
154	0xbe28aa9c	-0.16471332
155	0xbe54a642	-0.20766547
156	0xbd31a31d	-0.043368448
157	0x3dabc63e	0.08387421
158	0x3dbd6203	0.0924721
159	0xbdc39727	-0.095503144
160	0xbe0b7977	-0.13620554
161	0xbc9675a4	-0.018366642
162	0x3e0473f5	0.12934859
163	0x3d8d43cb	0.06897696
164	0x3d86bd49	0.06579072
165	0xbd3ab50a	-0.04558281
166	0xbd9dd57a	-0.07706733
167	0xbe3d60b6	-0.18493924
168	0x3b753253	0.0037414029
169	0x3dfa89e9	0.122333355
170	0x3c91c8f5	0.01779602
171	0xbca2c1cb	-0.019867798
172	0x3ce7e008	0.028305069
173	0xbe480862	-0.19534448
174	0xbe29a51f	-0.16566895
175	0xbdfea305	-0.12433437
176	0x3d5283e8	0.051395327
177	0xbe99caea	-0.30037624
178	0xbdfd24d6	-0.123605415
179	0xbdf45d05	-0.119318046
180	0xbbaddd97	-0.0053059566
181	0xbdaf865e	-0.085705504
182	0xbc8a3831	-0.016872497
183	0xbd12a917	-0.035805788
184	0xbe329be4	-0.1744228
185	0x3dcaa92d	0.09895549
186	0xbe9b8aa9	-0.30379227
187	0xbe814e97	-0.25255272
188	0xbe1bc652	-0.15212372
189	0x3e8ad334	0.2711426
190	0x3d775bac	0.06039016
191	0x3de8e0ed	0.11371026
192	0x3e0658cb	0.1311981
193	0x3be94d23	0.007119791
194	0xbdce1e36	-0.10064356
195	0xbd89fb79	-0.06737418
196	0x3cd5b0d9	0.026085304
197	0xbcb34dcf	-0.021887688
198	0xbe0b37e8	-0.13595545
199	0xbe409023	-0.18804984
200	0xbe520e7e	-0.20513341
201	0xbce658fa	-0.0281186
202	0xbcfa2765	-0.030536363
203	0xbd611d83	-0.054959785
204	0xbde1e984	-0.11030868
205	0xbdf8493f	-0.121233456
206	0x3d2c84fa	0.042119004
207	0x3e042a8a	0.12906852
208	0xbcdc5ee7	-0.026900722
209	0x3e796266	0.24353942
210	0x3ce8c007	0.028411878
211	0xbd0049c5	-0.031320352
212	0xbe32a8ad	-0.17447157
213	0x3d9f14bd	0.077676274
214	0xbdc0f489	-0.094216414
215	0x3d026c8b	0.031841796
216	0xbd526bc7	-0.051372316
217	0x3e0e8262	0.13916925
218	0xbe77d13d	-0.24200912
219	0xbe61a52c	-0.22035664
220	0x3e18f401	0.1493683
221	0xbdfcb124	-0.123384744
222	0xbdae7f68	-0.085203946
223	0xbc6b946e	-0.01437865
224	0xbe04148b	-0.12898462
225	0x3b89ed0f	0.004209168
226	0xbde9d83f	-0.11418199
227	0x3e56ffc3	0.20996003
228	0xbe7ecb98	-0.24882352
229	0x3e1528d8	0.14566362
230	0x3ddb8c30	0.10720098
231	0xbe6a9ec6	-0.2291213
232	0xbe8ed748	-0.27898622
233	0xbe733f1d	-0.23754545
234	0xbe831acc	-0.25606382
235	0xbe25aec2	-0.16179946
236	0xbeb7d0f6	-0.35901612
237	0x3d90400c	0.07043466
238	0x3e3aba04	0.18235022
239	0xbe093461	-0.13398887
240	0xbd9b0c93	-0.07570758
241	0xbd74b0cf	-0.05973893
242	0x3ccb4c67	0.024816705
243	0xbe8a93c1	-0.27065852
244	0xbdf6a1fc	-0.12042615
245	0x3e87f543	0.26554307
246	0x3e5f00c2	0.21777633
247	0x3e3eb55e	0.18623874
248	0x3d87196c	0.06596646
249	0x3e004094	0.12524635
250	0xbd8c53d0	-0.068519235
251	0x3dc64eca	0.096829966
252	0x3e364824	0.17800957
253	0x3c74778c	0.01492108
254	0xbd870356	-0.06592433
255	0x3d47a6ee	0.04874318

b3 f4 [64]
0	0x3e99c091	0.3002973
1	0xbe2fa25b	-0.17151777
2	0x3e100356	0.14063773
3	0x3d0ede75	0.03488012
4	0x3e1e41f9	0.15454854
5	0x3ef68c72	0.48154026
6	0x3ee9f3c4	0.4569379
7	0x3ea961a4	0.33082306
8	0x3e4ad14a	0.198064
9	0x3eea8195	0.45801988
10	0x3e585bcf	0.21128772
11	0x3e1ea31a	0.15491906
12	0x3eab26a2	0.33427912
13	0x3e26fa75	0.1630648
14	0x3e9cbb4d	0.3061165
15	0x3e51c20b	0.20484178
16	0x3e410550	0.18849683
17	0x3eb9ba41	0.36274913
18	0x3e884f25	0.26622882
19	0x3df84763	0.12122991
20	0x3e56c7c0	0.20974636
21	0x3e51c596	0.2048553
22	0x3ed15fb1	0.4089332
23	0x3e4563b1	0.1927631
24	0x3ea0548f	0.31314513
25	0x3ea99f95	0.33129564
26	0x3e990e22	0.29893595
27	0x3e4ed164	0.20197064
28	0x3e5f501c	0.21807903
29	0x3df1e80c	0.118118376
30	0x3e78993b	0.24277203
31	0x3e88572c	0.26629007
32	0x3e1c471d	0.15261503
33	0x3e770a2f	0.24124978
34	0x3e493cc6	0.1965209
35	0x3e4cf61e	0.20015761
36	0x3ed2df85	0.41186157
37	0x3e645aaa	0.2230021
38	0x3e360d97	0.17778622
39	0x3e1b863b	0.15187924
40	0x3f1654b3	0.5872299
41	0x3e0d4315	0.13795121
42	0x3e423a74	0.1896761
43	0x3e376cfc	0.17912668
44	0x3eaacdbb	0.33360085
45	0x3e1299f0	0.14316535
46	0x3e72121b	0.23639719
47	0x3ce432ff	0.027856348
48	0x3e18783f	0.1488962
49	0x3e434823	0.19070487
50	0x3ed25333	0.410791
51	0x3e823916	0.25434178
52	0x3e867532	0.26261288
53	0x3e1d0693	0.15334539
54	0x3ed149c5	0.40876594
55	0x3e723407	0.2365266
56	0x3e498aa9	0.19681801
57	0x3e5de430	0.21669078
58	0x3e8f2e41	0.27964976
59	0x3e82b08c	0.2552532
60	0x3e865315	0.26235262
61	0x3ebd2506	0.3694231
62	0x3e417373	0.18891697
63	0x3e41fa21	0.18943073

W4 (column-major) f4 [10, 64]
0	0x3d80296b	0.062579
1	0x3e56b268	0.20966494
2	0x3e65f9ed	0.2245862
3	0x3e6eb865	0.23312528
4	0xbde152db	-0.110021316
5	0xbeac285e	-0.33624548
6	0xbe721bd7	-0.23643433
7	0xbe3188d8	-0.17337358
8	0x3de8941c	0.113563746
9	0xbe3bc6da	-0.18337575
10	0xbe815e1d	-0.25267115
11	0xbe8077bd	-0.25091353
12	0xbcb5915a	-0.022164036
13	0x3db7a5bd	0.08967159
14	0xbeabed2a	-0.3357938
15	0xbe81e671	-0.25371125
16	0xbe345bdb	-0.17613165
17	0x3e319242	0.17340949
18	0x3e65596a	0.2239739
19	0x3e0bb3cd	0.13642807
20	0x3d01e71f	0.031714555
21	0xbe9f53a8	-0.31118512
22	0xbdbcd84e	-0.09220944
23	0xbe4d3954	-0.200414
24	0x3ea343ba	0.3188761
25	0xbe5e98ce	-0.21737978
26	0x3e91b8d9	0.2846134
27	0xbe9e51d2	-0.309218
28	0xbe298b76	-0.16557106
29	0x3e9b75fd	0.30363455
30	0xbd8b5f5a	-0.06805296
31	0xbe411d9b	-0.1885895
32	0xbdeac1b8	-0.1146273
33	0xbe18b59c	-0.14913028
34	0x3e9f1bb9	0.31075838
35	0xbe247022	-0.160584
36	0x3e9f707a	0.311405
37	0xbe2fd6ea	-0.17171827
38	0xbe7cfa64	-0.24704891
39	0x3ea55e6c	0.322986
40	0xbe380109	-0.17969145
41	0xbd5d7e7b	-0.0540757
42	0xbe3bf41d	-0.1835484
43	0x3e969f8e	0.29418606
44	0xbdb6909e	-0.08914302
45	0x3e85f649	0.26164463
46	0xbd43e5f9	-0.04782674
47	0xbe9ddd7d	-0.30833045
48	0x3e896078	0.26831412
49	0x3e838fbb	0.25695595
50	0xbea6bfdb	-0.3256825
51	0xbe634992	-0.22196034
52	0x3e4d7e39	0.20067681
53	0x3df81734	0.12113801
54	0xbe74f207	-0.23920451
55	0xbd707bbc	-0.058711752
56	0xbe3dd639	-0.1853875
57	0x3dfc3f2b	0.12316736
58	0xbec58438	-0.38577437
59	0x3e299d3d	0.16563888
60	0x3e894646	0.26811427
61	0xbea95c7e	-0.33078378
62	0x3e5e6f30	0.21722102
63	0xbea6b310	-0.3255849
64	0xbb45b654	-0.003016849
65	0xbe9ba941	-0.30402568
66	0x3d08293b	0.033242445
67	0x3e9e5392	0.30923134
68	0xbe77741a	-0.24165383
69	0xbe2ab870	-0.1667192
70	0xbe825c1f	-0.25460908
71	0xbe590068	-0.21191561
72	0x3e66a75c	0.2252478
73	0xbe1cbc9b	-0.15306322
74	0x3e818526	0.25296897
75	0xbd0b71b1	-0.03404397
76	0x3eb0903b	0.3448504
77	0xbdb642bb	-0.088994466
78	0x3ebb0295	0.36525407
79	0xbe42f51c	-0.19038814
80	0x3eb3c46d	0.35110798
81	0x3e725dc1	0.23668577
82	0xbdca4996	-0.09877317
83	0xbe84b057	-0.25915787
84	0xbead1712	-0.33806664
85	0xbe359921	-0.17734195
86	0xbe7774c9	-0.24165644
87	0x3e4f079b	0.20217745
88	0x3e97d892	0.29657418
89	0xbe501e02	-0.20323947
90	0xbe6cb3fe	-0.23115537
91	0xbe952f64	-0.2913772
92	0x3e771c4f	0.24131893
93	0x3e83cd55	0.25742593
94	0xbe748e1c	-0.23882335
95	0xbe3c821a	-0.18409005
96	0xbe480039	-0.19531335
97	0x3e882e6a	0.2659791
98	0xbe39f900	-0.18161392
99	0xbd9f39de	-0.07774709
100	0xbe110622	-0.14162496
101	0xbd73c8d9	-0.059517715
102	0xbe3bd8c1	-0.18344404
103	0xbd6c55de	-0.057699077
104	0x3ea74a5d	0.32673922
105	0x3e685a31	0.22690655
106	0x3eb10fe5	0.3458244
107	0xbdf00d7e	-0.117213234
108	0x3eb8fb7a	0.3612936
109	0xbe238174	-0.15967351
110	0x3d0eff1f	0.03491127
111	0x3ee47ee8	0.44628072
112	0xbe5b03d0	-0.21388173
113	0xbdc7d6ad	-0.09757743
114	0x3ebfc9ed	0.37458745
115	0x3def1d4c	0.1167551
116	0x3d5fb4e0	0.054615855
117	0xbe23cbe3	-0.15995745
118	0xbd336ee6	-0.043806933
119	0xbe298984	-0.16556364
120	0xbe8d1106	-0.2755205
121	0x3e6d9744	0.23202235
122	0x3eb69a6c	0.3566469
123	0x3eacf14b	0.33777842
124	0xbe24b954	-0.16086322
125	0xbe6900ff	-0.22754286
126	0xbe02eb00	-0.12784958
127	0x3ea78dc4	0.32725346
128	0x3e907933	0.28217468
129	0xbe8730b1	-0.26404336
130	0x3ed326ed	0.41240636
131	0xbe19ff6f	-0.15038846
132	0xbdc9aca8	-0.09847385
133	0xbdc6700b	-0.09689339
134	0x3e5801f6	0.21094498
135	0xbe1772cb	-0.14789884
136	0x3ea45757	0.32097885
137	0xbdf59db9	-0.11992974
138	0xbe0c68f1	-0.13711907
139	0x3ebd234b	0.3694099
140	0x3e8e7fd5	0.27831903
141	0xbe9e1c68	-0.30881047
142	0x3d7205da	0.05908761
143	0xbcbc40be	-0.02298009
144	0x3d880a2a	0.06642564
145	0x3e576b79	0.21037091
146	0x3e8fd2cb	0.2809051
147	0xbea3706e	-0.31921715
148	0xbc572e1f	-0.013133555
149	0xbe865e73	-0.26243934
150	0xbe5e5370	-0.21711516
151	0x3e8c49ff	0.27400205
152	0xbd21ed85	-0.039533157
153	0xbe65718a	-0.22406593
154	0x3e00a741	0.12563802
155	0xbe560b18	-0.2090267
156	0xbea9fb0f	-0.33199355
157	0xbea74bbe	-0.32674974
158	0x3e853aa1	0.26021293
159	0x3e44ecad	0.1923091
160	0x3e9f3ec2	0.31102568
161	0x3e6d5089	0.23175253
162	0xbe60651c	-0.2191357
163	0xbdd78632	-0.105236426
164	0xbe2b2c24	-0.16716057
165	0x3e1bfbcb	0.1523277
166	0x3e950dfc	0.29112232
167	0xbe274d5f	-0.16338108
168	0x3e63bf16	0.22240862
169	0xbdf68b69	-0.12038309
170	0x3df69806	0.12040715
171	0x3edf89b7	0.43659756
172	0x3e992fdb	0.29919323
173	0x3e9057f9	0.28192118
174	0x3d268339	0.040652487
175	0xbe7f7f79	-0.2495097
176	0xbd98e890	-0.07466233
177	0xbe82c71c	-0.25542533
178	0xbe44d032	-0.19220045
179	0xbdf18709	-0.11793334
180	0xbdefb6ba	-0.11704774
181	0x3eabad80	0.33530807
182	0xbe6b486c	-0.22976846
183	0xbdfd64d0	-0.12372744
184	0xbe3b4016	-0.18286166
185	0x3e821537	0.2540681
186	0xbde12f10	-0.109953046
187	0x3e8ea6b3	0.27861556
188	0xbe06930c	-0.13142031
189	0x3e08977a	0.13339034
190	0x3ed509dd	0.41609088
191	0xbe35f845	-0.17770489
192	0x3e72adc1	0.23699094
193	0x3d86d349	0.06583268
194	0xbdfc0c36	-0.123070166
195	0xbe42a008	-0.1900636
196	0x3c5febb7	0.013667039
197	0xbe2c4302	-0.16822436
198	0x3e9c8e7f	0.30577466
199	0xbda60074	-0.08105555
200	0xbe1383e1	-0.14405777
201	0xbe231785	-0.1592694
202	0x3dd0748e	0.10178481
203	0x3d725c14	0.059169844
204	0x3e964d8e	0.29356045
205	0x3e8a7b77	0.2704732
206	0xbe1081bd	-0.14111991
207	0x3e9e752c	0.3094877
208	0xbe7c3cac	-0.2463252
209	0x3e89c1ee	0.2690577
210	0xbe9b60f8	-0.3034742
211	0x3e9dc962	0.30817705
212	0x3e9fda5c	0.31221282
213	0xbe4f9a17	-0.20273624
214	0xbe617654	-0.22017795
215	0x3e7ae79a	0.24502411
216	0xbe2a05bd	-0.16603751
217	0xbdb78197	-0.08960264
218	0x3d66dbeb	0.056362074
219	0xbe83d9b5	-0.25752035
220	0x3ce4e427	0.027940823
221	0x3d8e75b0	0.06956041
222	0x3e824832	0.25445706
223	0xbe7ca77a	-0.24673262
224	0x3dabce9a	0.083890155
225	0xbe4f6b85	-0.20255859
226	0xbdeaf9ae	-0.11473404
227	0xbe8f964b	-0.28044352
228	0x3e575f39	0.21032418
229	0x3e51084e	0.20413324
230	0x3d944266	0.07239227
231	0xbe9a6d83	-0.30161676
232	0xbd5b9418	-0.05360803
233	0x3e5ca271	0.21546341
234	0xbe98971f	-0.29802796
235	0x3e78e447	0.24305831
236	0xbe1ad7d1	-0.1512139
237	0xbe067c2e	-0.13133308
238	0xbe171c8e	-0.14756986
239	0x3e902bb4	0.28158343
240	0x3e8ab177	0.2708852
241	0xbe37b71e	-0.17940947
242	0xbdd1f689	-0.10252101
243	0xbe827b7b	-0.25484833
244	0x3e8fbae1	0.28072265
245	0xbea22056	-0.31665295
246	0x3eb81826	0.35955924
247	0xbe371526	-0.17879161
248	0xbe887a28	-0.26655698
249	0xbe101d8f	-0.14073776
250	0xbeb74970	-0.35798216
251	0xbddd1ddb	-0.1079671
252	0xbe7f1ea6	-0.24914035
253	0x3e3ec7ac	0.18630856
254	0xbe817e76	-0.25291795
255	0x3e385009	0.17999281

b4 f4 [10]
0	0xbe551914	-0.20810348
1	0xbde640d0	-0.11242831
2	0x3e14f62d	0.14547034
3	0x3d55f6b2	0.05223722
4	0xbd3c5aee	-0.045985155
5	0x3de727b3	0.11286869
6	0xbe67fb71	-0.22654511
7	0xbbc03df8	-0.0058667623
8	0x3dcf1257	0.1011092
9	0x3d8cbe35	0.068722166
