neural_net/mnist_mlp_weights.npz (npz, 65766 bytes, 6 tensors)

W1 (column-major) f4 [20, 784]
000000 21 25 bb 3d 9d 48 41 3c e8 39 bb bc 3a 00 f5 bc
       0.09137941 0.0117970975 -0.02285476 -0.029907335
000010 8e 01 b6 3d 38 04 2d 3d b4 30 1f bd 71 41 26 3d
       0.08887015 0.04224035 -0.038864806 0.040589754
000020 71 4f 71 bd 94 7e a5 3c 61 2b 68 3d 5d 12 8b 3d
       -0.05891365 0.020201959 0.056681994 0.06790612
000030 a1 68 99 bd c3 42 06 3d 76 ab a0 bc bd 20 ee bc
       -0.074906595 0.032778513 -0.019613009 -0.029068345
000040 8e 0e 26 bd 0c db 2d 3d bd fd 74 3b 40 36 28 bd
       -0.040541224 0.042445228 0.0037382685 -0.04106736
000050 3b b9 4c bb 65 0c 71 bd 60 a2 3d 3c c1 96 2c bc
       -0.0031238336 -0.05884971 0.011574358 -0.010533989
000060 96 34 62 bb 48 c6 a3 bd bc 4e 05 bd 49 11 05 bd
       -0.0034516207 -0.079968035 -0.03254579 -0.032487188
000070 da 82 52 3b 1d 89 21 bb 74 09 6a 3c c5 e0 52 3c
       0.003212145 -0.0024648376 0.01428448 0.012870972
000080 88 cd 4f 3d 40 98 0a 3c f4 59 26 3d e7 6a 49 3d
       0.05073312 0.008459151 0.04061313 0.049174216
000090 b0 8e ca 3c e2 ef ac bc c0 80 55 bd 81 7a 62 bd
       0.024726242 -0.021110479 -0.05212474 -0.05529261
0000a0 bb de 83 3c 5a 39 c0 3d 05 93 85 bd 35 2d 76 3c
       0.016097417 0.09385939 -0.065221824 0.015025427
0000b0 94 63 2d bd 7f 8f 33 bc 1d 29 ba 3d 26 02 8b bd
       -0.042331293 -0.010959505 0.09089873 -0.06787519
0000c0 76 e3 f3 bc 3a 44 b7 bd 38 54 95 ba 29 d5 dc 3b
       -0.029771548 -0.0894856 -0.0011392897 0.006739278
0000d0 b0 d3 a6 bc b5 d4 40 3c e2 eb 41 3d 51 9b 9c bc
       -0.020364612 0.011769463 0.047344096 -0.01911703
0000e0 5b 1b 41 3b 2c fa 38 3d ca 4a 1c bd d8 84 e0 bd
       0.0029465768 0.045160457 -0.038157262 -0.10962838
0000f0 97 b0 cd 3d bc 4d 75 3d 01 1d 65 3d 2e 19 61 3d
       0.100434475 0.059888586 0.055935863 0.054955654
000100 86 2a a0 bd de 4d 16 3d 49 f8 3e 3d 9c 5b 5f 3d
       -0.07820611 0.036695354 0.046623502 0.054530725
000110 98 44 d2 bd 25 b3 e1 3c 5c e1 1c bd f0 21 29 bc
       -0.102669895 0.027551243 -0.038300857 -0.010323033
000120 92 f8 22 3d 80 30 81 3d ff e8 84 3c c8 3b 71 bc
       0.039787836 0.06308079 0.016224382 -0.014723726
000130 39 db 01 3b 03 65 aa bc 0a cb da 3c be 87 6a bd
       0.0019814505 -0.02080012 0.026708145 -0.05725836
000140 c6 11 13 bc 5d ea 8c 3d eb 0b 93 3b 9a e6 df 3d
       -0.0089764055 0.06880639 0.0044875047 0.10932656
000150 bf 0b 81 3d 5a 43 f2 bb 68 ad 01 3d 3d 08 56 3c
       0.063010685 -0.007393283 0.031659514 0.013063488
000160 df b4 02 3d 5e 34 b1 bc f1 d0 35 3c 94 e7 a0 bc
       0.031910773 -0.021631416 0.011097179 -0.019641675
000170 0b d2 62 3d 75 ef 1b 3d cb 8e 23 3c 8f e4 b7 3c
       0.055376094 0.03807016 0.009982775 0.022447852
000180 4e 2c 13 3d 45 32 d4 3d 90 f3 cb bd 63 1c bd bc
       0.035930924 0.10361151 -0.09958565 -0.023084825
000190 70 12 80 3d 7d 26 4e bd 03 02 94 bc 58 5c 15 3d
       0.06253517 -0.050329674 -0.018067366 0.03646502
0001a0 b0 c8 77 bd 94 6b da 3a 2e 39 58 bd a7 30 db bb
       -0.060494125 0.0016664141 -0.052788906 -0.0066891494
0001b0 44 1d 15 bd 9f 70 67 3d 2a 09 39 3d 85 9d 09 bc
       -0.036404863 0.05650389 0.045174755 -0.008399372
0001c0 b6 a0 c7 bc b1 eb 74 bd b9 6f c8 3c d5 04 fe 39
       -0.024368625 -0.059795085 0.024467336 0.00048450255
0001d0 e1 91 63 bd 17 7a 45 3d e7 c9 0d 3d 60 40 ca bd
       -0.055559043 0.048212137 0.034616377 -0.0987556
0001e0 2a cd 7e bd 89 81 87 3d fe bd cf bc 61 5b 1d bd
       -0.06220738 0.06616504 -0.02535915 -0.038417224
0001f0 3d 71 0c 3d 2c df c4 bd 2d cc 1d bc cd 9a 35 bd
       0.03428768 -0.09612879 -0.009631199 -0.044337083
000200 11 5c cb 3c 4b 0a 46 bc d9 08 b0 bc d2 ce 95 3d
       0.024824174 -0.012087415 -0.021488594 0.073148385
000210 6e e0 de bc e9 ef 09 3c 8f 34 5d 3d 0f dc 8f 3d
       -0.027206626 0.008419015 0.054005202 0.07024395
000220 33 48 ab 3d 1e c7 fa 3c 8a 37 cf bc c4 0c d5 bd
       0.0836338 0.030612525 -0.025295038 -0.104028255
000230 29 67 47 bd 7a c1 b9 bd 5b e7 c8 3c 7c ea 2d bd
       -0.048682366 -0.09070106 0.024524381 -0.04245995
000240 2d af 23 bc 83 c1 07 3c dc ab a0 3d 67 40 0a 3d
       -0.009990496 0.008285883 0.078452796 0.033752825
000250 4a 0a a1 3c 22 d4 4a bd a2 30 a8 3d 36 fd b0 3d
       0.019658227 -0.049518712 0.08212401 0.08642046
000260 a3 fb 88 bd 2e a8 6a bc 03 84 c8 bc 1c 09 73 bc
       -0.06688621 -0.014322324 -0.02447701 -0.014833715
000270 0f 81 87 bc 9a db a3 bd 74 0c 17 3d ca 48 3a 3b
       -0.016541032 -0.0800087 0.03687711 0.0028424733
000280 ae c2 2e 3c 02 af 6a 3d 1c fa f5 bb 10 bd 91 bc
       0.010666532 0.057295807 -0.007506622 -0.017790347
000290 9d 3a 98 3d ed 74 a7 3d cc 83 43 3d af 6f f6 3c
       0.074330546 0.08176599 0.047733113 0.030082552
0002a0 ba 5d 11 bd 69 fb 89 39 5c e0 cb bc f8 df da 3a
       -0.035489775 0.0002631799 -0.024887256 0.0016698828
0002b0 08 57 1f 3d d1 1d e0 3d 4f ca 17 bc 3d bc 5a 3c
       0.03890136 0.10943187 -0.009264543 0.013350544
0002c0 e5 64 5f bd 25 59 0d bd db 39 b5 bd 65 d9 f2 3c
       -0.05453958 -0.034508843 -0.08848926 0.029644677
0002d0 cc 10 d9 bd 87 39 87 bd 8a 15 46 bd f8 21 52 3d
       -0.10598907 -0.06602769 -0.048360385 0.051301926
0002e0 09 86 25 3d 8e f7 9b bd 8c ac d2 3c 0e 93 cf bd
       0.04041103 -0.07615577 0.025717042 -0.1013547
0002f0 68 3c c4 3c c8 83 e4 3c 70 c9 22 bd 2b 03 63 bd
       0.023954585 0.02789487 -0.039742887 -0.055422943
000300 c9 30 98 bd de 99 b1 bd 3e 5d 1e bc 74 f6 8b 3c
       -0.0743118 -0.08671926 -0.009665785 0.017085291
000310 f3 ea d9 ba c4 5f 47 3d 5a e9 c8 3c bb 10 aa bd
       -0.0016625806 0.048675314 0.024525333 -0.08303972
000320 e0 d4 fc bc 0c 7b 2f 3d 8a 32 da bd 4e 56 50 3d
       -0.030863225 0.042841956 -0.10654171 0.050863557
000330 f8 e2 17 bd d6 15 56 3d a2 9f ea 3c d3 fb 49 bd
       -0.03708169 0.052266918 0.028640572 -0.049312424
000340 38 65 ab bc 3c 74 75 bd cd 05 95 3c 84 cb 25 3d
       -0.020922288 -0.059925303 0.018191243 0.04047729
000350 90 7c 7d 3b ac 7e 67 bb 7e fc 78 bd 09 08 21 bd
       0.0038678981 -0.0035323305 -0.06078767 -0.039314304
000360 1c 89 8c 3b 70 c3 86 3c c4 71 79 3d 1e 2a b0 3d
       0.0042888056 0.016450614 0.06089951 0.08601783
000370 83 d8 93 3c de 8f b1 3a cf d1 6f 3d 45 af 9c bd
       0.018047577 0.0013546904 0.0585497 -0.076506175
000380 58 c1 4f 3c 4c 92 32 bd f2 ca 6f 3c 1b c7 6f bc
       0.012680374 -0.04359655 0.014635788 -0.014634873
000390 0d f4 23 3d 8e af d0 3b 28 8e 02 3d 28 61 2b 3d
       0.040027667 0.006368584 0.031873852 0.041840702
0003a0 6e 7c de 3d e8 8d 62 bb 49 08 36 3d 98 11 03 bd
       0.10863577 -0.0034569446 0.044441495 -0.0319992
0003b0 6c fd 7c 3c c7 78 a8 3d f4 f6 3e 3d 13 30 06 3d
       0.01544128 0.082261615 0.04662223 0.03276069
0003c0 f8 f2 19 3d 06 5e 2b 3c 04 7e a0 bd de 4a ac bc
       0.03758523 0.010459429 -0.078365356 -0.021031793
0003d0 83 5f 9c 3c 48 b4 28 be 4c 85 10 3d f0 9f 54 3d
       0.019088512 -0.16475022 0.03528337 0.05191034
0003e0 63 61 19 be 6d 07 e9 bd 91 73 3b 3d ee 7c 1e be
       -0.14978556 -0.113783695 0.04576451 -0.15477344
0003f0 8c bc 40 bd 35 74 89 3c 3b c9 a0 bc e5 4f ae bd
       -0.047054812 0.016779045 -0.019627204 -0.085113324

b1 f4 [20]
000000 f2 cf 05 3d 45 99 26 bd 5e c9 8f 38 41 fc 84 3e
       0.032669015 -0.040673513 6.856279e-05 0.25973704
000010 28 45 00 3d 7e 67 32 3e 75 c8 85 3e 5b 54 32 3e
       0.031315953 0.17422292 0.261295 0.17414992
000020 ed 76 d2 bd 14 29 4f be 3e c0 f5 bc df f6 37 bd
       -0.102765895 -0.20230514 -0.029998895 -0.04491317
000030 f6 71 1a 3d 01 54 33 3e c3 cb 82 bd d7 27 8a 3e
       0.037706338 0.17512514 -0.06386521 0.2698352
000040 f1 af ce bd 25 1d 82 3e d2 b0 e5 3e cf e8 6c 3e
       -0.10092152 0.2541286 0.44861466 0.23135684

W2 (column-major) f4 [12, 20]
000000 2f 13 a9 bc 23 33 15 bf f6 15 3e 3f 7b fe f0 3e
       -0.02063903 -0.58281153 0.7425226 0.47069153
000010 9e 0e 9c 3e bc 1d 45 be a3 91 c8 be b0 10 09 3f
       0.30479902 -0.19249624 -0.39173612 0.5354109
000020 ed 64 46 bf 83 3f a9 be e3 c6 de 3e 84 47 9f be
       -0.7749775 -0.33056268 0.43511114 -0.3110925
000030 cf a3 b0 3e 7a b3 05 bf 54 c8 17 3e ee d8 32 bd
       0.34499976 -0.52226985 0.14822513 -0.04366391
000040 d5 62 67 3d 97 52 24 3f 69 26 96 3e 77 4a e5 3e
       0.056490738 0.6418852 0.2932618 0.44783375
000050 d9 cb bd 3d 69 fe 3e bf d6 81 91 be 2a 69 96 be
       0.092673965 -0.7460695 -0.2841937 -0.2937711
000060 0e 2a 96 3e 75 fb ac 3e 3b 0f f9 bd 8f 7e 3b 3f
       0.2932896 0.33785596 -0.12161108 0.7323999
000070 4b 59 7d 3e 82 af b6 be d0 4a 83 be 4a 6a b4 bd
       0.24741094 -0.35680777 -0.25643015 -0.088093355
000080 70 a8 91 be e0 89 2b 3e 23 37 28 be 30 e0 e5 be
       -0.2844882 0.16751814 -0.16427283 -0.44897604
000090 d9 88 c1 3e e7 5c 29 3f 10 38 e7 be 92 5b 36 3e
       0.3779972 0.6615738 -0.4515996 0.17808369
0000a0 83 fb 87 3d 41 6b 75 3c 8b e5 13 bf 94 b5 bc 3e
       0.06639769 0.014979185 -0.5777213 0.36857283
0000b0 27 93 98 3e 6a c2 74 bf 75 f1 4a be a8 5d 0f 3e
       0.29799768 -0.9560915 -0.19818671 0.14000571
0000c0 45 30 90 3e a2 52 9c be 91 52 03 bf 31 55 15 bf
       0.28161827 -0.30531794 -0.5129786 -0.58333117
0000d0 99 de 4d 3f 9b 13 85 be 7f 1e 0d be 8a a1 3e 3b
       0.8041778 -0.2599152 -0.13781165 0.0029087984
0000e0 f1 31 10 3f d6 d3 dc bb dd 95 74 be 3d 30 46 bd
       0.56326205 -0.00673912 -0.23885293 -0.048385847
0000f0 01 10 04 3f 0f 0c eb 3e 68 bf fa 3c fe 83 13 bd
       0.5158692 0.45907637 0.030608848 -0.03601455
000100 fe d8 0a be 6d 16 a8 3e 9c fb 9d 3d 3e f5 0f 3e
       -0.13559338 0.3282961 0.07714006 0.14058396
000110 ec 6a cb 3d 86 e2 c3 be 62 0f 06 bf 33 d5 83 3f
       0.09932503 -0.3825876 -0.5236722 1.0299438
000120 0f ee 4e 3e 9c be 04 3d d2 e9 a3 be 9c 9d 6b bf
       0.20208 0.03240834 -0.32014328 -0.9203737
000130 ad 17 3e 3f b6 e8 56 be 06 81 38 be 4b 42 6a 3f
       0.74254876 -0.2098721 -0.18017969 0.91507405
000140 07 47 96 be 92 a3 32 bd c2 b8 4d 3f f1 f5 b7 be
       -0.29351065 -0.043613024 0.80360043 -0.35929826
000150 c4 a3 5a be f6 96 17 3f 32 65 75 3f e8 fa 63 3e
       -0.21351534 0.59214723 0.95857537 0.22263682
000160 43 e7 92 be de b3 da 3e e2 38 02 3d b2 1a a5 be
       -0.28692064 0.42715353 0.03179253 -0.3224693
000170 0c 5c 03 3f ed 3f 3e 3f b0 af 27 3f 2d 09 0d bf
       0.5131233 0.74316293 0.6550245 -0.55092126
000180 81 a6 63 be 74 31 88 bf 67 9f 81 3d 2a 80 a8 3e
       -0.22231485 -1.0640092 0.06329232 0.3291028
000190 cf 64 ae 3e 17 c1 01 3e 4a d9 01 bf 6c 4f ff be
       0.34061286 0.12671314 -0.5072218 -0.49865282
0001a0 ab 79 e7 be 17 a3 25 3f 8c 9a cf be b3 52 4d 3f
       -0.45210013 0.6470198 -0.40547597 0.80204314
0001b0 6e 5f c9 3f c1 f8 18 bf 2d bc 5b 3e 38 52 9f bc
       1.5732248 -0.5975457 0.21458502 -0.019448385
0001c0 21 f1 ef 3d 62 77 83 be ca 64 ad be f7 5a 7a bf
       0.117159136 -0.2567702 -0.33865958 -0.9779505
0001d0 4a e0 07 3f f0 6e 0f 3e a5 cd 98 bf d1 ab 6e 3e
       0.5307661 0.14007163 -1.1937758 0.2330773
0001e0 31 b1 6e 3f 00 b6 9e 3d 01 f3 80 3f d7 cd 80 be
       0.9323912 0.077495575 1.0074159 -0.25157043
0001f0 e5 49 eb be 2e 58 b1 3e 2c 21 81 3e 8f 5e 1d bf
       -0.45954815 0.34637588 0.2522062 -0.6147241
000200 4e 19 af bd ff 80 9a 3e 0d 72 25 bf 28 38 57 be
       -0.08549748 0.3017654 -0.6462715 -0.21017516
000210 cc fe 6e bf 84 66 6d be 4b cb cf 3c 0c f7 3a 3f
       -0.9335754 -0.23183638 0.025365492 0.73033214
000220 52 49 c7 3d 77 24 d3 3e 5e 29 c8 be 24 88 3c bf
       0.097307816 0.41238758 -0.3909406 -0.73645234
000230 96 fe 4b 3b 3b 23 d8 3e 8c 3b a9 bd ff 95 9e 3e
       0.0031127087 0.4221438 -0.08263311 0.30973813
000240 b9 8e da 3e 7f a0 8f 3d bb f0 0d bf ff e2 68 bf
       0.42687014 0.07013034 -0.5544545 -0.9097137
000250 16 0d 3e 3f 52 79 16 bf 16 b8 2a bf 57 b8 8e be
       0.7423872 -0.5877887 -0.6668714 -0.27875015
000260 e4 1d 92 3e 01 a2 93 3e eb 37 3a bf 10 1d 1b bf
       0.2853843 0.28834537 -0.72741574 -0.6059122
000270 7e 72 8c 3f 99 57 e7 be c4 e0 45 3f e4 51 6c 3e
       1.097244 -0.4518402 0.7729609 0.23078114
000280 84 42 7d be d7 40 d0 bd a9 70 e9 bc d6 d7 e1 bd
       -0.24732405 -0.10168617 -0.028496103 -0.110274956
000290 7a 41 34 3f e2 8d 55 bf 93 37 2c 3f bd 5a 5c bf
       0.7041241 -0.8341962 0.672723 -0.86075956
0002a0 17 87 f5 3e 2b 71 f4 be 42 f6 77 3f 21 6c dc 3e
       0.47954628 -0.4774259 0.96860135 0.43051246
0002b0 5d 8c 84 3e 71 12 17 bf 1e ab cf 3e cf c9 8e 3e
       0.2588834 -0.59012514 0.4056024 0.27888343
0002c0 ee eb 1f bf 27 5b b9 bc 13 3a 69 be 8a 39 ea 3d
       -0.62469375 -0.022626473 -0.2277606 0.11436756
0002d0 3b 80 01 bf be fe ef 3e 90 bb f7 3e a0 4a b8 bf
       -0.5058629 0.4687404 0.48385286 -1.4397774
0002e0 5b c4 86 3e cc 44 85 bf 9d de c4 3e 92 11 16 3f
       0.26321682 -1.041162 0.3845109 0.5862056
0002f0 dc 04 7c be 20 d3 69 bf a0 e9 25 3c f2 9d 3f 3f
       -0.24611229 -0.91337776 0.010126501 0.7485038
000300 a1 75 20 3f 47 5c ac 3d 64 93 1e 3f 43 32 88 3e
       0.6267949 0.08416038 0.6194365 0.26600847
000310 33 24 93 bf a4 7d 0b 3f 20 7d 87 3e 51 88 f7 bd
       -1.1495422 0.5448859 0.2646265 -0.12086547
000320 d1 6a fa 3e ff 0f e6 3e e5 ee 04 bf 1d 73 d6 be
       0.4890962 0.4493408 -0.51927024 -0.418847
000330 77 22 8a be 98 50 58 3e 51 84 07 be c5 13 03 3f
       -0.2697942 0.21124494 -0.13234068 0.5120204
000340 07 68 21 be fe ef 9e 3e d5 a8 21 3f 80 c3 f8 bd
       -0.1576234 0.31042475 0.6314824 -0.12146664
000350 f7 97 09 3f 96 a3 2f 3d 54 de af 3e 38 0d 37 3f
       0.53747505 0.042880617 0.3434931 0.71504545
000360 5d 61 c0 be e5 bd 18 3f b2 d1 33 be c9 16 ca be
       -0.37574282 0.59664756 -0.17560461 -0.3947051
000370 3d f4 b8 3e 33 26 45 3f 49 1d 88 be 3c c9 58 bc
       0.3612384 0.7701141 -0.26584843 -0.013231572
000380 d6 2a 55 3e f0 32 92 3d 44 cc 8e 3e 14 c5 c4 bd
       0.20817122 0.07138622 0.27890217 -0.09607902
000390 06 82 14 3f d9 7e 9f 3e 4f 90 45 be 69 15 c0 3e
       0.580109 0.31151465 -0.1929333 0.37516335
0003a0 52 6c 14 3f 8d 29 3d 3f d5 31 93 3e 83 1f 64 3f
       0.57977784 0.73891526 0.28748956 0.89110583
0003b0 59 8d dc be 30 65 43 3f 27 56 20 3f 89 5e 5f 3e
       -0.4307659 0.76326275 0.6263146 0.21813406

b2 f4 [12]
000000 e2 3d 48 bd de 53 a6 3e ed 77 33 bc f4 24 93 bb
       -0.04888714 0.3248586 -0.0109538855 -0.004490489
000010 ad 6d 88 3e 8e b3 b4 bb 71 c4 72 3b bb ad 17 bc
       0.26646176 -0.0055145686 0.0037043358 -0.009257729
000020 6f 67 76 3e d0 30 70 bd 6d 0d 63 3e 0c 1b 55 3e
       0.24062894 -0.0586403 0.2217309 0.20811099

W3 (column-major) f4 [10, 12]
000000 87 c9 48 bf d0 b0 6a bd e7 11 0c 3e 5a 77 b6 3e
       -0.78432506 -0.057297528 0.13678704 0.35637933
000010 4a 13 58 bf 13 95 a4 3e be 1f c6 3d 5b e9 ba 3e
       -0.8440443 0.32144985 0.09674023 0.3650616
000020 39 32 51 3e ab 64 6c bf af 19 23 bf c7 81 00 bd
       0.20429315 -0.9234111 -0.63711065 -0.031373765
000030 cc 85 0e be c0 51 19 bf 74 20 25 3f d9 80 f9 3e
       -0.13918227 -0.59890366 0.64502645 0.48731115
000040 0f 32 5a bf 6f dd af 3e bf fa 32 3e cb ac 4a bc
       -0.85232633 0.34348628 0.17478465 -0.012370299
000050 f8 81 82 be 5e e8 7a 3f f8 c1 42 3f 91 09 04 bf
       -0.25489783 0.98010814 0.7607722 -0.515771
000060 67 3c dd 3d 2b e3 1d bc 49 65 7e 3e bb d9 1a 3e
       0.108025365 -0.009636681 0.24843325 0.1512212
000070 d9 3b fb be 7f 54 29 be cd 0e 12 3f c7 0e 85 be
       -0.49069098 -0.16536139 0.57053834 -0.25987837
000080 c9 01 0c 3f 8b d5 ea 3e 6c a8 34 3f 63 15 12 bf
       0.54690224 0.45866045 0.7056949 -0.57063884
000090 2e a2 8e 3d 18 8c 69 bf 83 9d d3 3e 54 04 db be
       0.06964527 -0.9122939 0.4133111 -0.4277674
0000a0 cf fb fd 3e 94 08 e8 be 90 2b 08 bf 58 b7 79 3e
       0.49606177 -0.45319045 -0.5319147 0.24386346
0000b0 91 b9 2d bf 45 a9 ec 3e 15 bb 2e be 65 96 0d bf
       -0.67861277 0.46222892 -0.17063554 -0.5530761
0000c0 f5 e8 02 bf 2e 4f a9 3e 64 51 00 bf c2 ac 28 bf
       -0.51136714 0.33068222 -0.5012419 -0.6588861
0000d0 c7 27 66 3e eb f1 86 be cc a4 cb 3e 11 be 86 be
       0.22476111 -0.26356444 0.39774168 -0.26316884
0000e0 dc 83 40 3e 2b 6d 25 3f 1e 35 cb 3e 59 e1 00 3f
       0.188003 0.646197 0.39688963 0.50343853
0000f0 ae d4 b0 be 7d 95 78 3f 2c 6c 93 3d 83 2b 88 bf
       -0.34537262 0.971031 0.071983665 -1.0638279
000100 7d 71 69 3f 29 63 56 bf a8 c6 17 bf 8d 39 05 3f
       0.91188794 -0.83745056 -0.592875 0.5204094
000110 9f 57 d7 bd 44 5c d0 3d a4 ac ee 3d fb bb c2 3e
       -0.10514759 0.10173848 0.11654022 0.38034043
000120 06 b2 23 bf d4 22 ce be 75 3f c9 bd ea d9 0d 3f
       -0.6394352 -0.40260947 -0.098265566 0.55410635
000130 ad f0 d6 3e 96 e0 85 bf 58 fa d2 3e 08 7a 4e 3e
       0.41980496 -1.0459163 0.41206622 0.20163739
000140 4c 4a 90 3e 55 8d a8 bc 18 7d 58 3f a1 83 55 3d
       0.28181684 -0.020575205 0.8456588 0.052127484
000150 7d 45 8e 3d 39 85 9f be 5f d9 a1 3d 6d 35 38 3f
       0.069468476 -0.31156328 0.07902788 0.7195652
000160 d9 a6 60 bf 9c 7a 3d bf d5 bb 0d 3f 06 62 d0 be
       -0.8775459 -0.7401521 0.55364734 -0.40699786
000170 34 f9 d4 3e 2a e5 df be bd 39 06 bf 7c 75 33 bf
       0.41596377 -0.43729526 -0.5243185 -0.7010114
000180 49 1d f3 be f4 9c 2c 3f 47 2f a6 3e 4f d9 01 bd
       -0.4748328 0.6742699 0.32457945 -0.031701382
000190 6c b2 70 3e b5 3e e2 be 34 66 20 bf d7 bb 9e be
       0.23505563 -0.44188467 -0.6265595 -0.31002685
0001a0 bb 72 17 3f c6 ea 05 be 68 39 6b 3f 59 a3 cd be
       0.5915944 -0.1307784 0.9188447 -0.40163687
0001b0 65 85 f7 be 6a a6 07 3d f1 f1 64 be c0 ed 13 3f
       -0.4834396 0.03311769 -0.22357918 0.5778465
0001c0 1d 76 42 be bb cb f5 3e d1 69 93 3e 31 b8 3a bf
       -0.18990369 0.48006997 0.2879167 -0.72937304
0001d0 25 15 40 bf c5 85 d9 3c 0c 7f c1 bb c1 34 37 3f
       -0.75032264 0.026553044 -0.0059050377 0.7156487

b3 f4 [10]
000000 f6 7f 61 be 4a e2 a0 bd d9 b7 09 be fa 00 33 3e
       -0.2202147 -0.07855661 -0.13449039 0.17480841
000010 f3 32 f9 3d 38 be ac 3e de 29 5d be 72 cf 94 3d
       0.12167921 0.33738875 -0.21598002 0.072661296
000020 97 90 96 be ea 03 ba 3d
       -0.29407188 0.09082778
