neural_net/mnist_mlp_weights.npz (npz, 505502 bytes, 8 tensors)

W1 (column-major) f4 [128, 784]
0.028859317 0.002597618 0.0066648438 -0.0901391 -0.06182202 -0.093983755 -0.0369322 -0.117650695
-0.023145072 0.019401323 -0.029358514 -0.029244795 0.0652262 0.00063751347 0.1894904 -0.003969116
-0.052757595 0.014179378 -0.13185798 0.031905994 0.06275509 -0.021479597 0.11362931 0.056181315
0.049492124 -0.037626617 0.009034775 -0.04813274 -0.051316902 -0.038332745 0.04125274 0.01609108
0.038798638 -0.082478635 -0.035798382 0.14240572 -0.026896559 -0.0014662903 -0.011158439 0.012373623
-0.039268028 -0.03517711 0.016238058 -0.057782587 -0.03172594 0.08341455 -0.029803045 -0.14081992
0.031578224 -0.06970034 0.0056127813 0.036571003 -0.0437993 -0.07855031 -0.0112596685 0.06972588
0.06270749 0.05838136 -0.032085568 0.023749545 -0.008484193 0.008365839 0.0010186754 0.039506145
0.096340224 0.07744199 -0.054383058 -0.081456594 -0.044093665 0.08169653 -0.066025294 0.0048398343
0.016463311 0.00051935134 0.03553105 0.055471994 0.04110022 -0.10277352 -0.026131593 -0.048711434
-0.009671498 0.017660297 0.0115975365 -0.15104984 -0.07311756 0.04833802 -0.06700417 0.035171926
-0.039409183 -0.052526057 -0.110041514 -0.06223428 0.006981599 -0.012582473 -0.017955756 -0.04813012
-0.051486418 0.010526186 -0.03183221 0.012149805 -0.0037261674 -0.005745359 -0.13797513 -0.14090338
-0.018237548 -0.052553378 -0.069415145 0.016797675 0.05079876 -0.12324291 0.051873412 -0.019974506
-0.21554999 0.030028991 0.12170874 -0.00411951 -0.06247403 -0.05103239 -0.019934475 -0.06930717
0.03681352 -0.06436179 -0.04180021 0.045558285 -0.119297914 0.06255263 -0.012344893 0.049298
0.09393204 -0.048784938 0.019110974 0.0107687535 -0.06592041 0.049062427 0.023827055 -0.052627113
0.00049026933 -0.03645895 -0.112866975 -0.028358178 0.031550243 -0.0037529587 0.19844903 -0.009773344
-0.0032594611 0.10747547 -0.062389936 0.053997748 -0.04121937 -0.05707085 0.09899858 0.079379596
-0.048077248 -0.012170565 -0.0095946165 -0.045671754 -0.10368712 -0.005240386 0.012017591 -0.07250253
0.04184521 -0.020768704 0.08548323 0.08085954 0.08017851 0.04376631 -0.09404173 -0.09016873
-0.045338184 -0.112109564 -0.12812564 0.07605801 -0.021074945 -0.017762832 -0.020913808 -0.1188247
0.0020624327 -0.007811566 0.09072315 -0.041448507 -0.028786473 0.029187983 -0.0042212396 -0.023790125
-0.037191827 -0.038385276 -0.058442637 -0.0661747 0.05655715 0.04814799 -0.04508346 -0.04312784
-0.07702751 0.066535175 -0.047562767 -0.03385843 -0.015588149 0.1663116 -0.08516726 -0.026972722
0.03613059 -0.065958284 -0.026021361 -0.02361957 -0.020857815 -0.040537544 -0.10079727 0.016408525
0.03682663 0.04453689 0.0052963807 -0.08173756 0.010840904 0.066849984 0.06739107 -0.092241675
-0.058811318 -0.050297655 0.028110528 -0.020059874 -0.018885458 -0.035319764 -0.11214638 0.0055851545
-0.111755155 0.07915717 0.086989656 0.105836794 -0.050927915 0.012660745 -0.13424982 -0.14900774
-0.0066766366 -0.07012859 -0.16955733 -0.0883477 0.02807951 0.053169813 0.012271228 -0.07864353
-0.101848565 0.03123608 -0.00035895506 -0.0661803 -0.087982774 -0.042303268 -0.023274623 0.0015985895
0.1325039 -0.06570962 -0.14618723 0.037690785 0.015293199 0.06137865 0.00946925 -0.0024194056
00000000: 606a ec3c cc3c 2a3b c364 da3b d99a b8bd
00000010: 1639 7dbd 8e7a c0bd 3846 17bd d9f2 f0bd
00000020: bc9a bdbc 86ef 9e3c 4481 f0bc c892 efbc
00000030: 5095 853d ce1e 273a c509 423e 5c0f 82bb
00000040: 5918 58bd 9f50 683c c705 07be dcaf 023d
00000050: be85 803d fbf5 afbc 7cb6 e83d 611e 663d
00000060: 41b8 4a3d 5e1e 1abd 9806 143c d626 45bd
00000070: ac31 52bd cc02 1dbd a2f8 283d 71d1 833c
00000080: 52eb 1e3d 8fea a8bd 53a1 12bd ced2 113e
00000090: 2c56 dcbc 8a30 c0ba e3d1 36bc bdba 4a3c
000000a0: 83d7 20bd e015 10bd ad05 853c 6fad 6cbd
000000b0: 0ff3 01bd 3fd5 aa3d 8425 f4bc 1933 10be
000000c0: 2b58 013d 0dbf 8ebd 6ceb b73b 7acb 153d
000000d0: e566 33bd fcde a0bd 797a 38bc 71cc 8e3d
000000e0: c96c 803d 4b21 6f3d 286c 03bd 688e c23c
000000f0: 4901 0bbc df10 093c 1385 853a 32d1 213d
00000100: 064e c53d e899 9e3d c5c0 5ebd b7d2 a6bd
00000110: 8f9b 34bd 8350 a73d 4538 87bd 7997 9e3b
00000120: 11de 863c 1425 083a 0289 113d 9a36 633d
00000130: b458 283d ec7a d2bd ec11 d6bc a485 47bd
00000140: 3475 1ebc 54ac 903c 9803 3e3c cfac 1abe
00000150: a9be 95bd 16fe 453d 7b39 89bd 7010 103d
00000160: 866b 21bd 9025 57bd 725d e1bd 5fe9 7ebd
00000170: e6c5 e43b b826 4ebc f317 93bc 1724 45bd
00000180: 6ce3 52bd 0676 2c3c 7e62 02bd fa0f 473c
00000190: b732 74bb 9143 bcbb 5a49 0dbe fa48 10be
000001a0: e966 95bc 3642 57bd 8729 8ebd 479b 893c
000001b0: 5c12 503d c766 fcbd 3779 543d 93a1 a3bc
000001c0: 23b9 5cbe 5cff f53c 6f42 f93d f4fc 86bb
000001d0: c5e4 7fbd 5707 51bd a04d a3bc ebf0 8dbd
000001e0: c6c9 163d 1dd0 83bd b236 2bbd 539b 3a3d
000001f0: 7752 f4bd 981b 803d 3c42 4abc b3ec 493d
00000200: 715f c03d b7d2 47bd 9e8e 9c3c 6d6f 303c
00000210: 4801 87bd aff5 483d f530 c33c 878f 57bd
00000220: 6b85 003a fb55 15bd cd26 e7bd 694f e8bc
00000230: d43a 013d 33f4 75bb 3936 4b3e 6020 20bc
00000240: af9c 55bb 191c dc3d 978c 7fbd be2c 5d3d
00000250: a4d5 28bd 20c3 69bd c4bf ca3d c591 a23d
00000260: a6ec 44bd 0d67 47bc bd32 1dbc 4e12 3bbd
00000270: ea59 d4bd 8bb7 abbb 6ee5 443c 357c 94bd
00000280: e265 2b3d 2123 aabc d511 af3d b099 a53d
00000290: a134 a43d 4d44 333d f398 c0bd 62aa b8bd
000002a0: 88b4 39bd b399 e5bd 5e33 03be 4dc4 9b3d
000002b0: 5da5 acbc 5c83 91bc 6f53 abbc 5d5a f3bd
000002c0: e129 073b 2af8 ffbb 0fcd b93d e9c5 29bd
000002d0: 9cd1 ebbc a31b ef3c 5352 8abb 82e3 c2bc
000002e0: 7556 18bd e139 1dbd 8c61 6fbd 9a86 87bd
000002f0: 78a8 673d d436 453d 6fa9 38bd d1a6 30bd
00000300: 99c0 9dbd 9843 883d 2dd1 42bd 23af 0abd
00000310: 7065 7fbc 974d 2a3e 2c6c aebd e6f5 dcbc
00000320: abfd 133d 2315 87bd c02a d5bc d47d c1bc
00000330: 02de aabc b20a 26bd cd6e cebd 2c6b 863c
00000340: 85d7 163d 506c 363d 438d ad3b 0666 a7bd
00000350: 0c9e 313c a5e8 883d 5404 8a3d 34e9 bcbd
00000360: 23e4 70bd ea04 4ebd 0d48 e63c 9b54 a4bc
00000370: adb5 9abc 75ab 10bd 00ad e5bd ac03 b73b
00000380: e3df e4bd 281d a23d a227 b23d f6c0 d83d
00000390: ca99 50bd 036f 4f3c c978 09be 7c95 18be
000003a0: b0c7 dabb 949f 8fbd 70a0 2dbe a4ef b4bd
000003b0: 0007 e63c 97c8 593d 430d 493c dc0f a1bd
000003c0: fb95 d0bd cfe2 ff3c 2232 bcb9 8a89 87bd
000003d0: 5030 b4bd 3146 2dbd 6caa bebc c387 d13a
000003e0: 1aaf 073e c492 86bd 1bb2 15be a761 1a3d
000003f0: 5390 7a3c 2e68 7b3d ea24 1b3c e48e 1ebb

b1 f4 [128]
-0.09441653 0.02114068 0.15492313 0.07630702 0.05947394 0.006287581 -0.05940096 -0.084555626
0.19340666 0.03702152 0.17782159 0.052072626 0.19268261 0.035252653 0.08644216 0.10116785
0.0072891507 0.19062419 0.09875465 -0.068471834 0.051736582 0.08919863 -0.020250555 -0.04930212
0.04434629 0.054264434 -0.003339702 -0.0027416674 -0.056123774 0.13185415 0.11025055 0.04372304
-0.013776821 -0.029523665 -0.058248382 -0.05019714 -0.036783617 0.06597952 -0.1662919 -0.053094495
-0.04987345 0.071114995 0.09895071 -0.052671693 -0.016893676 -0.041367278 -0.023553323 0.07787905
-0.14307353 0.07669455 0.069573365 -0.038176544 0.027914668 0.020987362 -0.114915304 0.040316377
0.051515292 0.22518055 -0.10284123 0.022142202 0.07753571 0.05541971 0.10805004 -0.033176627
-0.013503929 0.037706543 0.101028405 0.161351 -0.02224048 0.13803658 0.055995494 0.05935488
-0.002969503 -0.020673782 0.06538158 -0.2440837 0.07428936 0.1264509 -0.021418964 0.06298809
-0.0045058155 -0.11715815 -0.0020118144 0.12396665 -0.089774914 0.06356532 -0.06913703 0.08233641
-0.10322576 -0.13141517 0.09155741 -0.153692 0.002320088 -0.050619435 -0.07855864 0.008551047
0.08508233 0.18075952 -0.13990338 0.06366876 0.12009738 0.15592743 0.097937815 0.054236703
0.10744924 -0.01744042 0.06327932 -0.016083477 0.08009106 0.09710728 -0.16591097 0.03354863
0.22066031 0.10783322 -0.03833269 -0.008851103 0.1606178 0.030988984 0.060606997 -0.0042856038
0.0047345534 0.027805785 0.15615864 -0.06295986 0.07847142 0.23033153 0.01971588 -0.062983245
00000000: 745d c1bd 382f ad3c 2ba4 1e3e db46 9c3d
00000010: f29a 733d 0d08 ce3b 6c4e 73bd 802b adbd
00000020: 650c 463e e1a3 173d dd16 363e 1b4a 553d
00000030: 974e 453e 1665 103d 9608 b13d 1731 cf3d
00000040: d4d9 ee3b fd32 433e e13f ca3d f63a 8cbd
00000050: bde9 533d c5ad b63d 7ee4 a5bc 05f1 49bd
00000060: 75a4 353d 6244 5e3d e7de 5abb 8cad 33bb
00000070: 0be2 65bd c604 073e 0acb e13d ee16 333d
00000080: 2db8 61bc 9ddb f1bc db95 6ebd 849b 4dbd
00000090: 6baa 16bd 4520 873d 6d48 2abe 9d79 59bd
000000a0: 1a48 4cbd bda4 913d aba6 ca3d 46be 57bd
000000b0: 9b64 8abc bc70 29bd e6f2 c0bc 0d7f 9f3d
000000c0: de81 12be 0812 9d3d 7b7c 8e3d 025f 1cbd
000000d0: 4dad e43c b0ed ab3c b758 ebbd c922 253d
000000e0: b301 533d bb95 663e 6c9e d2bd 9063 b53c
000000f0: 0bcb 9e3d c7ff 623d 5749 dd3d 37e4 07bd
00000100: 953f 5dbc 2d72 1a3d fbe7 ce3d 3239 253e
00000110: ab31 b6bc 7659 0d3e 885b 653d 1a1e 733d
00000120: fe9b 42bb 105c a9bc c7e6 853d 14f1 79be
00000130: 0525 983d 587c 013e d376 afbc e6ff 803d
00000140: 85a5 93bb 9df0 efbd a5d8 03bb 3ae2 fd3d
00000150: e9db b7bd 892e 823d b797 8dbd fe9f a83d
00000160: 0768 d3bd b391 06be 7482 bb3d 7061 1dbe
00000170: 9e0c 183b 5356 4fbd 5ae3 a0bd b119 0c3c
00000180: a53f ae3d 0619 393e d542 0fbe c464 823d
00000190: 9df5 f53d 71ab 1f3e 9f93 c83d 4e27 5e3d
000001a0: 590e dc3d 36df 8ebc 9798 813d 7fc1 83bc
000001b0: c806 a43d 2ee0 c63d 91e4 29be 4a6a 093d
000001c0: c7f4 613e aad7 dc3d bd02 1dbd 3704 11bc
000001d0: fe78 243e 9cdc fd3c 0b3f 783d 406e 8cbb
000001e0: 5024 9b3b f5c8 e33c 0de8 1f3e 19f1 80bd
000001f0: a0b5 a03d 07dc 6b3e 3283 a13c 5cfd 80bd

W2 (column-major) f4 [128, 128]
-0.047248524 0.030497504 0.11330601 0.0033590319 0.06849107 0.2442395 0.3717418 0.118806444
-0.08109069 0.013918178 0.000532883 0.20642048 0.14249672 -0.02935901 -0.17693716 0.35360447
-0.11342016 -0.08957302 0.08096974 0.20212343 -0.096284464 -0.019942394 0.11337904 -0.03692646
0.10191275 -0.09046356 0.14877832 -0.12601295 0.13956173 0.14328793 -0.113824464 0.030262286
0.10982893 0.06531586 0.25900152 0.12857059 0.11176156 -0.097215764 0.25133643 -0.22631665
-0.071676 -0.017816314 -0.0875392 -0.34019053 0.041452087 0.06359597 0.22515175 0.3908679
0.23442167 -0.19682398 -0.022735478 -0.0071157026 -0.07017908 -0.059084233 0.3290885 0.06208955
0.1256887 -0.113741815 -0.41594893 -0.08830255 -0.09087104 -0.10223531 0.077515155 -0.14261636
0.0027685754 -0.034034964 -0.13648264 0.0165518 0.037209574 0.07508658 0.10947016 -0.08220566
0.059622515 0.2398264 -0.39264378 -0.13197984 -0.20299575 -0.15850464 -0.32043487 0.22728561
0.16311689 -0.20174931 -0.26399732 0.09409849 -0.0058985213 -0.062148873 -0.07307536 0.055193618
0.18305291 -0.02372547 0.16201784 -0.12413847 0.028996509 0.07132979 -0.1664934 -0.09860911
-0.06712794 0.015641928 0.20007104 0.08267292 0.025728839 0.093224116 -0.109319456 0.034275316
-0.008838096 -0.03879205 -0.04830846 0.15193228 0.14793722 0.06748214 0.19759767 -0.10372308
0.003459112 0.3397637 -0.12686934 0.04983753 -0.18191439 -0.08725632 0.12395757 -0.098913215
0.24915394 0.03414031 0.04954359 -0.05960683 0.07386819 0.17509267 -0.2882044 -0.18219498
-0.0577516 -0.007788318 -0.12189577 0.15776898 -0.3346617 -0.13605845 -0.01248944 0.18952852
0.024815934 -0.2958897 0.039845232 0.120004706 -0.10319969 -0.060959995 0.04360061 -0.14915513
0.06525863 -0.18362986 -0.17837343 -0.23848845 -0.07411053 0.11655226 0.22835945 -0.09806103
0.25606456 0.2041221 -0.31463662 -0.15146199 -0.2015077 0.075022765 -0.3008061 -0.23438424
0.18869947 -0.15134709 0.2833355 0.19284497 0.0934621 -0.023821438 -0.06673609 -0.20911522
-0.14626436 0.07343613 -0.15766586 0.40581676 -0.22321232 0.11055452 0.13207735 -0.0851859
-0.013103263 0.2883429 0.16117649 0.020367308 -0.1470812 0.061919373 -0.026687834 0.22988139
0.019540323 0.19342107 -0.0025492636 0.08907886 -0.26234308 -0.06181468 -0.26169384 -0.081217304
-0.17780979 -0.0886359 0.20120148 0.12898527 0.22945479 0.08543742 -0.18251765 0.07607388
0.12777016 0.0818586 -0.1880597 0.16435824 -0.034610614 0.13965204 0.20707752 0.13667694
0.026408305 -0.17134133 -0.21679662 -0.06844838 -0.287964 -0.06838429 0.10392276 0.0748623
-0.19744039 -0.3132752 -0.13977002 0.09189567 0.08331258 0.07312063 0.20514396 -0.07845619
0.16345522 0.12714808 -0.032055154 0.29792053 -0.1735998 0.15016288 0.1426703 -0.31022656
0.060092688 -0.4897208 -0.13341878 -0.04461503 -0.28362826 -0.18289526 -0.017205628 -0.004200496
0.0014811469 -0.01720771 0.08833396 0.075265065 0.019249957 0.07456556 0.043037616 0.004876026
0.15263034 0.050024055 0.06773186 -0.19558689 0.124535814 -0.016244724 0.0773971 -0.09022453
00000000: ab87 41bd e7d5 f93c fb0c e83d 3423 5c3b
00000010: 0c45 8c3d eb19 7a3e f154 be3e cb50 f33d
00000020: e012 a6bd 1209 643c 2cb1 0b3a e45f 533e
00000030: a9ea 113e 4e82 f0bc 042f 35be a50b b53e
00000040: d448 e8bd 0f72 b7bd 77d3 a53d 72f9 4e3e
00000050: ca30 c5bd 3b5e a3bc 4533 e83d 3340 17bd
00000060: a2b7 d03d f544 b9bd 5859 183e 8a09 01be
00000070: 45e9 0e3e 12ba 123e cd1c e9bd 9de8 f73c
00000080: fded e03d 52c4 853d d99b 843e 02a8 033e
00000090: 3fe3 e43d 0f19 c7bd 2baf 803e 8dbf 67be
000000a0: deca 92bd 85f3 91bc c147 b3bd 742d aebe
000000b0: aac9 293d 9b3e 823d 2e8e 663e d61f c83e
000000c0: 3c0c 703e 3a8c 49be c13f babc d72a e9bb
000000d0: 0dba 8fbd 4f02 72bd 4a7e a83e 9d51 7e3d
000000e0: 8ab4 003e 78f1 e8bd 42f7 d4be f8d7 b4bd
000000f0: 991a babd bf60 d1bd 44c0 9e3d 060a 12be
00000100: fd70 353b 3f68 0bbd 1bc2 0bbe a497 873c
00000110: 1169 183d fec6 993d e431 e03d 715b a8bd
00000120: bd36 743d 0d95 753e 9b08 c9be b925 07be
00000130: 1ede 4fbe 0a4f 22be 0a10 a4be 8fbd 683e
00000140: 1d08 273e 5f97 4ebe a82a 87be b6b6 c03d
00000150: 6248 c1bb d18f 7ebd 89a8 95bd b412 623d
00000160: 3972 3b3e eb5b c2bc 01e8 253e 4f3c febd
00000170: 168a ed3c 5a15 923d 3f7d 2abe 93f3 c9bd
00000180: 607a 89bd 8023 803c 6cdf 4c3e 6b50 a93d
00000190: 49c5 d23c 49ec be3d e1e2 dfbd 4664 0c3d
000001a0: a9cd 10bc 6ae4 1ebd 17df 45bd 2394 1b3e
000001b0: db7c 173e 1434 8a3d 0b57 4a3e c46c d4bd
000001c0: 45b2 623b 82f5 ad3e 09ea 01be 7022 4c3d
000001d0: c447 3abe 71b3 b2bd 77dd fd3d 0393 cabd
000001e0: 3622 7f3e b6d6 0b3d 38ee 4a3d 4b26 74bd
000001f0: 3548 973d 7e4b 333e 878f 93be 5291 3abe
00000200: f18c 6cbd 2635 ffbb 7da4 f9bd 318e 213e
00000210: c758 abbe e852 0bbe 82a0 4cbc c413 423e
00000220: c94a cb3c db7e 97be c134 233d 07c5 f53d
00000230: 5c5a d3bd 30b1 79bd 8e96 323d 1fbc 18be
00000240: 51a6 853d 7709 3cbe 86a7 36be 5136 74be
00000250: 43c7 97bd f4b2 ee3d 0fd7 693e 39d4 c8bd
00000260: e51a 833e 6205 513e 0d18 a1be da18 1bbe
00000270: 0958 4ebe 89a5 993d 4203 9abe 6c02 70be
00000280: 6f3a 413e bbfa 1abe 5a11 913e 2779 453e
00000290: 0f69 bf3d 2d25 c3bc eeac 88bd 4d22 56be
000002a0: 53c6 15be af65 963d 2973 21be 37c7 cf3e
000002b0: c591 64be 686a e23d 493f 073e f275 aebd
000002c0: 12af 56bc aea1 933e 730b 253e 57d9 a63c
000002d0: 749c 16be 2b9f 7d3d 72a0 dabc 0766 6b3e
000002e0: 0713 a03c 2c10 463e 8c11 27bb fa6e b63d
000002f0: d551 86be 6431 7dbd bcfc 85be 4255 a6bd
00000300: c513 36be bd86 b5bd c307 4e3e b714 043e
00000310: 32f6 6a3e d0f9 ae3d e8e5 3abe 9fcc 9b3d
00000320: 2ed6 023e 7ba5 a73d b992 40be 874d 283e
00000330: dcc3 0dbd f200 0f3e 210c 543e 0af5 0b3e
00000340: 3b56 d83c 1a74 2fbe efff 5dbe aa2e 8cbd
00000350: 0470 93be 100d 8cbd 75d5 d43d 6851 993d
00000360: d02d 4abe 9b65 a0be df1f 0fbe cc33 bc3d
00000370: c99f aa3d 45c0 953d 4211 523e a4ad a0bd
00000380: ce60 273e 1b33 023e 444c 03bd 0a89 983e
00000390: 25c4 31be 4cc4 193e 2a18 123e 04d6 9ebe
000003a0: c023 763d afbc fabe ef9e 08be 40be 36bd
000003b0: b937 91be e548 3bbe d1f2 8cbc 50a4 89bb
000003c0: 0b23 c23a 2ff7 8cbc 6fe8 b43d 9224 9a3d
000003d0: 16b2 9d3c d4b5 983d 3648 303d 12c7 9f3b
000003e0: 214b 1c3e 06e6 4c3d 00b7 8a3d ee47 48be
000003f0: a20c ff3d a813 85bc 5f82 9e3d a3c7 b8bd

b2 f4 [128]
0.13999425 -0.23692085 0.16163631 -0.011932471 -0.10395733 -0.071623914 0.059062086 -0.15998839
-0.027002238 0.08806394 -0.02260985 -0.12972479 -0.04957269 -0.045215912 0.035586696 -0.027970787
-0.042277124 0.13019337 0.1704769 0.033079 -0.08555113 0.026330091 0.013502102 -0.061519288
0.1355225 -0.064002335 -0.009034629 0.14930135 -0.12086819 0.015452672 -0.004236842 0.06750984
0.07415551 -0.085165076 0.059365388 -0.1693434 -0.0023306974 -0.03004562 -0.009685552 0.025730755
-0.026452346 -0.13314815 -0.012708914 -0.13338648 0.20592639 0.023146216 -0.046644453 0.15049523
0.01134356 -0.07212085 0.0897487 0.08088978 -0.059115507 0.032424767 0.15471125 -0.13196784
0.021467337 -0.2044242 0.024899336 -0.124513924 0.043278124 0.07704556 0.037677456 0.12677939
0.1185242 -0.08393296 0.037066184 -0.07944332 -0.19504902 -0.08897582 0.09331444 -0.069935225
0.113760464 0.029260129 0.13121296 -0.16509433 -0.15394622 0.028156742 -0.062289864 -0.08195704
0.10385797 -0.031110093 0.04645309 0.08920371 0.15562421 -0.0134119755 -0.0470208 -0.06006852
0.0041046846 -0.1867177 -0.25456133 -0.005847786 -0.060977597 -0.08439106 0.10795122 0.19521442
0.07502023 0.00076163554 -0.08535101 -0.18031228 -0.17644042 -0.015140844 0.15981202 -0.15133892
0.028729131 0.036101133 -0.004893901 -0.12423514 0.04712226 -0.14332807 -0.057199057 0.067794785
0.018160878 -0.066859566 0.005101067 0.06671404 0.016169112 0.030988287 0.06397405 0.23249239
-0.10546176 0.12216673 0.20978498 0.18438469 0.10102603 -0.060151324 -0.06864843 -0.104895495
00000000: a75a 0f3e 619b 72be fd83 253e 6980 43bc
00000010: 95e7 d4bd 8faf 92bd 16eb 713d ffd3 23be
00000020: cc33 ddbc de5a b43d 4b38 b9bc 93d6 04be
00000030: bc0c 4bbd 5234 39bd 5bc3 113d fe22 e5bc
00000040: c72a 2dbd 6951 053e 7f91 2e3e d87d 073d
00000050: 6e35 afbd 34b2 d73c ec37 5d3c a6fb 7bbd
00000060: 69c6 0a3e a813 83bd fb05 14bc 74e2 183e
00000070: be89 f7bd 342d 7d3c 35d5 8abb 9942 8a3d
00000080: d8de 973d 076b aebd 1f29 733d 5b68 2dbe
00000090: 9dbe 18bb 3b22 f6bc 26b0 1ebc 4ec9 d23c
000000a0: 97b2 d8bc fd57 08be 0c39 50bc 7796 08be
000000b0: 5ede 523e 229d bd3c 410e 3fbd 6c1b 1a3e
000000c0: 57da 393c 19b4 93bd 2bce b73d 8aa9 a53d
000000d0: 1a23 72bd d5cf 043d a06c 1e3e 9422 07be
000000e0: 45dc af3c 9454 51be b1f9 cb3c 2801 ffbd
000000f0: 6744 313d 10ca 9d3d ad53 1a3d 75d2 013e
00000100: d1bc f23d 0be5 abbd b6d2 173d 2eb3 a2bd
00000110: eeba 47be f438 b6bd a41b bf3d 333a 8fbd
00000120: 3ffb e83d f0b2 ef3c b15c 063e 7d0e 29be
00000130: 14a4 1dbe f8a8 e63c a823 7fbd 18d9 a7bd
00000140: 7db3 d43d 98da febc 9845 3e3d 6fb0 b63d
00000150: f45b 1f3e e7bd 5bbc e298 40bd 690a 76bd
00000160: 9780 863b ed32 3fbe dd55 82be c99e bfbb
00000170: a5c3 79bd 38d5 acbd 8715 dd3d 4ae6 473e
00000180: 35a4 993d 7fa8 473a 83cc aebd c8a3 38be
00000190: ccac 34be 4d11 78bc c3a5 233e 97f8 1abe
000001a0: 5b59 eb3c c8de 133d 045d a0bb fe6e febd
000001b0: 4503 413d 98c4 12be 8f49 6abd fed7 8a3d
000001c0: 1fc6 943c abed 88bd da26 a73b 5fa1 883d
000001d0: 1675 843c 26db fd3c d404 833d 7c12 6e3e
000001e0: 56fc d7bd 8d32 fa3d e0d1 563e 57cf 3c3e
000001f0: bce6 ce3d 3c61 76bd 8c97 8cbd 73d3 d6bd

W3 (column-major) f4 [64, 128]
0.12895845 0.18183796 -0.029698532 0.14497657 0.1176053 0.072467275 -0.17468134 -0.065936096
0.2409607 0.11616644 0.17332251 0.006717248 0.15874383 0.32289094 0.16102116 -0.037440106
-0.27494484 -0.20921482 -0.22965886 -0.04140447 -0.120855466 0.05378342 0.054023173 -0.073620684
-0.047203302 0.06802586 0.0788762 -0.032085776 0.22420298 0.04636571 -0.046608362 0.014782792
-0.15839703 0.037995934 0.0057170545 0.049566276 0.026054539 0.18793726 -0.0051564495 0.20566721
0.2091921 -0.14519443 -0.16194308 0.17004903 -0.08226476 -0.007179902 0.059921138 -0.065175824
-0.077260464 -0.20400544 -0.024057211 0.085737355 -0.14806218 -0.023176484 0.080709815 -0.07287506
0.0054344255 0.14157836 -0.12144421 -0.18396784 -0.1155195 0.035566278 -0.12615445 0.15331708
0.08821222 -0.053068206 0.012518311 0.1421711 0.15591358 0.027857527 0.14970404 0.10852887
-0.0034335346 -0.28065544 -0.38789356 -0.14283058 -0.11428016 0.2031833 0.043190815 -0.15097031
-0.2038825 -0.0025699467 0.2549915 -0.1230219 -0.13820817 -0.04787301 -0.1762273 0.026704716
-0.04759143 -0.039412316 -0.05953473 0.03210887 -0.3738038 0.050613556 -0.2958897 0.12704693
-0.13789836 0.22857323 -0.19039936 -0.17820081 0.09016333 -0.047024775 -0.11562347 0.19479537
0.009666452 0.022417702 0.12451865 -0.2300341 -0.07686642 -0.14772382 -0.46134162 -0.12681043
-0.19204094 0.0017775419 0.016882543 -0.15241587 -0.2632027 -0.2808104 -0.07607871 0.004736406
-0.0022992783 -0.100008085 -0.13193105 0.38877514 -0.010451101 0.21719268 -0.006533276 0.09114339
-0.029823458 -0.13806646 -0.22453187 0.062189754 0.14026234 -0.1026201 -0.0008422403 -0.07707867
-0.24091977 -0.13558173 -0.07057498 0.09152127 0.08789146 0.10222992 0.117525734 -0.021541283
-0.21755 -0.111264855 0.26971117 0.039626494 -0.0068076667 0.12726761 -0.054637454 -0.020105109
0.29452372 -0.1798461 -0.06394572 -0.0599456 0.034254547 -0.042535763 -0.12799118 0.0132669
-0.054721665 -0.17210078 0.15652888 -0.13653423 0.044711083 -0.030563187 0.0019394483 0.07042779
-0.17498998 0.074794315 0.049226996 -0.10209337 -0.16150886 -0.28001288 -0.09259068 -0.012300327
-0.29026064 -0.3178909 0.0038884063 -0.23150317 -0.18793194 0.10298382 0.028107561 0.03312456
-0.10254561 0.25424066 -0.051374823 0.19819817 0.110677466 0.1639905 0.031449486 0.027370764
0.05498333 0.041234575 0.11072993 0.14863582 0.11790244 -0.0030505217 -0.17275986 0.10062619
-0.1224414 -0.09095081 -0.249064 -0.09048482 -0.08485524 -0.030146154 -0.0686465 -0.20288047
0.07570781 -0.15226363 -0.077372044 -0.13848555 -0.21514152 0.1419185 -0.12109042 0.04926393
-0.26293233 0.0044884467 0.055899665 0.050919116 0.06859801 0.03688361 0.20991184 0.0049533006
0.01088426 0.05328714 -0.16303608 -0.18223345 -0.21367499 0.07106999 -0.16616455 0.010926615
-0.068969116 -0.07392631 0.12618102 0.04341801 0.07516968 0.08302969 0.1610265 -0.23788479
0.12685235 -0.22221704 0.0127613265 -0.037539795 0.05251928 -0.22582604 -0.19598198 0.05963223
0.07817754 -0.008048547 -0.14706115 -0.19202515 -0.26265115 -0.24700552 0.13320422 -0.08405475
00000000: af0d 043e bb33 3a3e 564a f3bc bd74 143e
00000010: 0cdb f03d b969 943d aadf 32be 8109 87bd
00000020: 67be 763e ace8 ed3d 757b 313e 5c1c dc3b
00000030: be8d 223e f651 a53e bbe2 243e cc5a 19bd
00000040: 92c5 8cbe 693c 56be b12b 6bbe bc97 29bd
00000050: 1283 f7bd 014c 5c3d 6747 5d3d 71c6 96bd
00000060: 4058 41bd 2451 8b3d d889 a13d 606c 03bd
00000070: 7795 653e f9e9 3d3d 69e8 3ebd 8633 723c
00000080: d532 22be a0a1 1b3d 2156 bb3b 0206 4b3d
00000090: 5470 d53c a072 403e 6ff7 a8bb 6d9a 523e
000000a0: 7436 563e d9ad 14be 68d4 25be 5521 2e3e
000000b0: 6d7a a8bd 6245 ebbb de6f 753d e77a 85bd
000000c0: bc3a 9ebd cde6 50be a113 c5bc 1197 af3d
000000d0: 9d9d 17be 9cdc bdbc 304b a53d 853f 95bd
000000e0: 4413 b23b ebf9 103e beb7 f8bd 1162 3cbe
000000f0: 7d95 ecbd f2ad 113d a22e 01be 27ff 1c3e
00000100: 9ca8 b43d 0c5e 59bd 9a19 4d3c 4d95 113e
00000110: cfa7 1f3e 7835 e43c 044c 193e 6244 de3d
00000120: 2705 61bb 12b2 8fbe fc99 c6be 2e42 12be
00000130: b70b eabd 480f 503e dae8 303d f697 1abe
00000140: 93c6 50be 8d6c 28bb 3f8e 823e e8f2 fbbd
00000150: 7186 0dbe 7d16 44bd ee74 34be d9c3 da3c
00000160: 3bef 42bd cf6e 21bd b0da 73bd 9784 033d
00000170: 3663 bfbe 2950 4f3d db7e 97be 9718 023e
00000180: 3a35 0dbe 1a0f 6a3e 0df8 42be 467a 36be
00000190: 8da7 b83d 0d9d 40bd ffcb ecbd 7078 473e
000001a0: 0a60 1e3c 54a5 b73c a203 ff3d 0f8e 6bbe
000001b0: 246c 9dbd ea44 17be f834 ecbe 98da 01be
000001c0: 61a6 44be 69fc e83a 424d 8a3c e812 1cbe
000001d0: 81c2 86be 61c6 8fbe 28cf 9bbd da33 9b3b
000001e0: 7daf 16bb 0ad1 ccbd ef18 07be 890d c73e
000001f0: 183b 2bbc c267 5e3e 1715 d6bb 63a9 ba3d
00000200: 5350 f4bc 4b61 0dbe afeb 65be afba 7e3d
00000210: eea0 0f3e 7d2a d2bd cac9 5cba 6cdb 9dbd
00000220: acb3 76be f0d5 0abe 9d89 90bd 816f bb3d
00000230: 7000 b43d ec5d d13d 55b1 f03d 5877 b0bc
00000240: 6dc5 5ebe d4de e3bd 9517 8a3e 644f 223d
00000250: d912 dfbb 7152 023e 86cb 5fbd 78b3 a4bc
00000260: d0cb 963e 9329 38be f9f5 82bd 8489 75bd
00000270: 7f4e 0c3d fb39 2ebd 1f10 03be 695d 593c
00000280: d323 60bd 303b 30be 1b49 203e a1cf 0bbe
00000290: f822 373d a65f fabc 1635 fe3a 723c 903d
000002a0: 9330 33be c32d 993d 3fa2 493d 5416 d1bd
000002b0: 9462 25be d95d 8fbe 2fa0 bdbd 5087 49bc
000002c0: 0b9d 94be 99c2 a2be a2d4 7e3b 2b0f 6dbe
000002d0: 3b71 40be 2ee9 d23d d441 e63c 9ead 073d
000002e0: 6f03 d2bd d52b 823e 686e 52bd 76f4 4a3e
000002f0: deaa e23d 20ed 273e 2dd1 003d a738 e03c
00000300: 3336 613d 96e5 283d 60c6 e23d fd33 183e
00000310: d676 f13d 43eb 47bb f6e7 30be 1b15 ce3d
00000320: 8fc2 fabd 6b44 babd a20a 7fbe 1b50 b9bd
00000330: 96c8 adbd 11f5 f6bc 8996 8cbd e6bf 4fbe
00000340: b20c 9b3d ffea 1bbe 3c75 9ebd 28cf 0dbe
00000350: 0f4e 5cbe 1553 113e 41fe f7bd fac8 493d
00000360: 119f 86be d213 933b 0cf7 643d 9090 503d
00000370: 1d7d 8c3d 4513 173d 21f3 563e 4c4f a23b
00000380: e553 323c 9e43 5a3d eef2 26be 689b 3abe
00000390: 9ecd 5abe 258d 913d 0a27 2abe 8c05 333c
000003a0: ae3f 8dbd ad66 97bd 9935 013e 15d7 313d
000003b0: 90f2 993d 780b aa3d 21e4 243e 1298 73be
000003c0: 95e5 013e dd8c 63be e214 513c 54c3 19bd
000003d0: 751e 573d f13e 67be 80af 48be ed40 743d
000003e0: 8c1b a03d 0ede 03bc 3397 16be 3ea2 44be
000003f0: 367a 86be 04ef 7cbe b066 083e e624 acbd

b3 f4 [64]
0.08424936 0.33267704 0.34569034 0.020150457 0.039556473 0.28256544 0.11369914 0.34147295
0.2387872 0.31827754 0.27347687 0.0970578 0.22430414 0.31617895 0.26934627 0.20613894
0.20608267 0.324439 0.32688162 0.06270914 -0.00915569 0.32071736 0.31761786 0.06942788
0.33011532 0.3124579 -0.09109729 0.28928825 0.13969141 0.21645652 0.29682255 0.3236391
0.1341336 0.29523304 0.20673278 0.12829871 0.32078716 0.24090414 0.16507289 0.29940584
0.2140496 0.31816247 0.019591266 0.2420936 0.1317594 0.36040413 0.102948405 0.10973944
0.27912763 0.33808732 0.2591268 0.34113204 0.07881893 0.40708745 0.19663562 0.50994575
0.31952572 0.29053256 0.18716338 0.25118786 0.15191269 0.24518168 0.09035319 0.26509604
00000000: ee8a ac3d a554 aa3e 53fe b03e 9212 a53c
00000010: f805 223d 6bac 903e 18db e83d 8bd5 ae3e
00000020: a284 743e 46f5 a23e 2905 8c3e 3dc6 c63d
00000030: fcaf 653e 35e2 a13e c1e7 893e 1616 533e
00000040: 5607 533e de1c a63e 075d a73e a66d 803d
00000050: bf01 16bc 1135 a43e cf9e a23e 3430 8e3d
00000060: e004 a93e 7bfa 9f3e 3791 babd 971d 943e
00000070: 440b 0f3e c7a6 5d3e 20f9 973e 06b4 a53e
00000080: 525a 093e c928 973e c2b1 533e bd60 033e
00000090: 373e a43e 93af 763e de08 293e b94b 993e
000000a0: d12f 5b3e 31e6 a23e dd7d a03c 62e7 773e
000000b0: f0eb 063e e486 b83e 9dd6 d23d 12bf e03d
000000c0: d1e9 8e3e c819 ad3e 45ac 843e dca8 ae3e
000000d0: d26b a13d c46d d03e d95a 493e ce8b 023f
000000e0: e098 a33e afc0 943e c2a7 3f3e b29b 803e
000000f0: 008f 1b3e e810 7b3e 180b b93d abba 873e

W4 (column-major) f4 [10, 64]
-0.2331154 -0.0066554607 0.2856926 0.0627973 -0.18366246 0.18020862 -0.2283437 -0.15277137
0.19502999 -0.073412225 0.060818408 0.25376377 -0.038403317 -0.24425869 0.22448495 -0.2655183
0.035299532 -0.14839987 0.27539593 -0.17978309 0.24449238 -0.4355996 -0.014599557 0.11496584
-0.32043898 0.19989666 0.13228728 -0.36975026 0.17459509 -0.12866995 -0.21970293 -0.23337494
-0.24632373 0.010017662 0.175882 0.15972525 -0.13470015 -0.17457241 0.18105246 -0.024021782
-0.3086573 0.0036075157 -0.08613315 -0.088916525 0.3189185 0.28279272 -0.227743 -0.1953121
-0.24560133 0.28126264 -0.24205883 0.16156574 0.33889166 -0.17861427 0.25132442 -0.08175557
-0.11483898 0.25486994 -0.24701391 -0.11479655 -0.1602631 -0.02113552 -0.1624451 0.30677798
-0.09865909 0.35636216 -0.062016986 -0.07888971 -0.15551953 -0.10213999 0.13843067 0.21165627
-0.26839736 -0.20051356 -0.10657209 -0.2675438 0.29131052 -0.22369887 -0.1303735 0.045741834
0.14987908 0.11581148 0.34925753 -0.11742795 0.25736126 -0.10980582 0.008966102 -0.20512389
-0.23838843 -0.19762181 -0.17905152 0.16548003 0.2787266 0.3429925 0.090745725 -0.20292494
0.117498815 -0.21743444 0.22179623 -0.19080497 -0.030564146 0.2426212 -0.13986331 0.23961763
0.086833574 -0.3659256 -0.23934516 -0.14344385 0.19552529 0.28350946 0.24774602 0.35373703
-0.15172322 -0.08685553 -0.070758656 -0.1508549 0.118355416 0.20391244 -0.20601533 -0.07775762
-0.13702205 0.26593167 0.0153068025 0.37270114 -0.09896844 0.39175165 -0.09541884 0.36012614
-0.3093184 0.13825461 -0.20971355 0.16052058 -0.069290094 -0.18090369 0.15978365 -0.061843477
-0.23989129 0.19144958 -0.20827356 0.18791577 -0.36804292 0.34495687 -0.27624667 0.14087458
-0.1531002 0.28070834 -0.17705056 -0.18366088 -0.14687715 -0.11000018 -0.19724625 0.055520475
0.24117889 0.3046982 0.15529118 -0.21146925 -0.26199037 0.28757346 -0.22333652 -0.24780765
0.18399289 -0.14067164 0.27721766 0.27933216 -0.17780891 -0.1876962 0.1494172 0.0728782
-0.08355041 -0.2385106 -0.26467225 0.29347906 0.03256743 0.041422963 -0.10352629 0.07937985
0.27297217 -0.23274185 -0.099962264 -0.23402089 0.03678581 -0.16711764 0.3357884 0.034388438
-0.09772312 0.13665828 0.25448298 0.25034806 0.29018858 -0.0474287 -0.11634804 -0.3394635
-0.15946095 -0.13821003 0.32386407 -0.059220936 0.4001694 -0.20712811 0.0032960079 0.12498598
-0.0008255256 0.16004896 -0.19283484 0.26642853 -0.13186446 -0.14477435 -0.00089661457 -0.07219846
0.20752499 0.27707168 0.12735184 0.158659 -0.029117016 -0.16755474 0.2730845 0.27941856
0.23247278 -0.15659074 -0.12725304 -0.22391559 -0.21417063 0.15189084 -0.30841413 0.21579728
-0.07676899 0.19913803 -0.3326571 0.023053922 0.16323166 0.19338857 -0.18623318 -0.087061495
-0.14049599 0.2863164 -0.22192764 0.002777687 -0.09514002 0.2100182 0.29041788 -0.29945874
-0.33733225 -0.20241305 0.00820442 -0.24494727 0.13764775 -0.27551442 -0.13672109 0.13610896
-0.42174643 0.10170919 0.26667 0.19191593 -0.2111206 -0.2733797 -0.28680754 -0.35354912
00000000: ceb5 6ebe 0d16 dabb 4d46 923e df9b 803d
00000010: 0312 3cbe 9c88 383e eed2 69be 1970 1cbe
00000020: f1b5 473e 2659 96bd b91c 793d 53ed 813e
00000030: cc4c 1dbd f31e 7abe 62df 653e 04f2 87be
00000040: 3e96 103d 23f6 17be b200 8d3e 0f19 38be
00000050: 365c 7a3e e906 dfbe fb32 6fbc 3673 eb3d
00000060: 9410 a4be b6b1 4c3e 5176 073e e84f bdbe
00000070: 0ec9 323e 0ec2 03be cef9 60be d7f9 6ebe
00000080: 4a3c 7cbe 1f21 243c 691a 343e 048f 233e
00000090: d6ee 09be 1cc3 32be d165 393e 54c9 c4bc
000000a0: 5408 9ebe 126c 6c3b 9466 b0bd de19 b6bd
000000b0: 4949 a33e 35ca 903e 7635 69be e5ff 47be
000000c0: ea7e 7bbe a801 903e 45de 77be 7d71 253e
000000d0: 3583 ad3e a9e6 36be 98ad 803e 776f a7bd
000000e0: b330 ebbd 507e 823e 37f1 7cbe 741a ebbd
000000f0: 031c 24be 6624 adbc 0258 26be 0112 9d3e
00000100: c70d cabd 1a75 b63e 8605 7ebd ee90 a1bd
00000110: 8340 1fbe c52e d1bd c5c0 0d3e 6cbc 583e
00000120: 616b 89be 6d53 4dbe 7842 dabd 80fb 88be
00000130: a726 953e 5111 65be a180 05be ca5b 3b3d
00000140: e779 193e 922e ed3d e2d1 b23e 117e f0bd
00000150: dbc4 833e e0e1 e0bd 8fe6 123c ff0b 52be
00000160: 191c 74be 5f5d 4abe 4859 37be 9973 293e
00000170: 41b5 8e3e b79c af3e e5d8 b93d 8ecb 4fbe
00000180: 38a3 f03d 22a7 5ebe 8d1e 633e 6162 43be
00000190: a961 fabc b171 783e 5438 0fbe 535e 753e
000001a0: cdd5 b13d 9a5a bbbe e616 75be f2e2 12be
000001b0: c837 483e 2728 913e 22b1 7d3e 051d b53e
000001c0: 555d 1bbe 50e1 b1bd eae9 90bd b579 1abe
000001d0: 5364 f23d 6cce 503e aff5 52be 633f 9fbd
000001e0: 824f 0cbe 3228 883e 62c9 7a3c afd2 be3e
000001f0: f7af cabd ac93 c83e f46a c3bd 7462 b83e
00000200: fb5e 9ebe 9e92 0d3e 26bf 56be 825f 243e
00000210: f7e7 8dbd d13e 39be 539e 233e 964f 7dbd
00000220: 10a6 75be 5c0b 443e aa45 55be fe6c 403e
00000230: 1f70 bcbe 309e b03e 3470 8dbe 6d41 103e
00000240: 4dc6 1cbe 01b9 8f3e be4c 35be 9911 3cbe
00000250: f766 16be c647 e1bd ecfa 49be 7069 633d
00000260: 99f7 763e 6701 9c3e a704 1f3e 658b 58be
00000270: 9a23 86be d43c 933e 54b2 64be 4ac1 7dbe
00000280: a268 3c3e 3a0c 10be 79ef 8d3e a004 8f3e
00000290: 8a13 36be 6f33 40be d300 193e 2a41 953d
000002a0: 7a1c abbd 1f3c 74be 1f83 87be e342 963e
000002b0: 6d65 053d 20ab 293d 9705 d4bd e791 a23d
000002c0: 02c3 8b3e e153 6ebe 04b9 ccbd 2ca3 6fbe
000002d0: b8ac 163d e320 2bbe 75ec ab3e e4da 0c3d
000002e0: 0f23 c8bd 26f0 0b3e 984b 823e 9f2d 803e
000002f0: 9993 943e 9944 42bd e247 eebd 29ce adbe
00000300: bb49 23be ee86 0dbe 83d1 a53e a791 72bd
00000310: 01e3 cc3e 6419 54be d601 583b a6f8 ff3d
00000320: 1668 58ba e0e3 233e 7f76 45be 5269 883e
00000330: 7a07 07be ba3f 14be c90a 6bba c9dc 93bd
00000340: 6e81 543e 57dc 8d3e 8568 023e 8177 223e
00000350: cf86 eebc 7893 2bbe bbd1 8b3e f30f 8f3e
00000360: 580d 6e3e 5359 20be 9f4e 02be 214a 65be
00000370: 8c4f 5bbe 4689 1b3e 75e8 9dbe f6f9 5c3e
00000380: 0f39 9dbd d7ea 4b3e 0852 aabe 94db bc3c
00000390: 3326 273e a707 463e e9b3 3ebe 4c4d b2bd
000003a0: 2ede 0fbe 1098 923e 0041 63be db09 363b
000003b0: c5d8 c2bd 030f 573e a7b1 943e a852 99be
000003c0: d0b6 acbe 5e45 4fbe d56b 063c 75d3 7abe
000003d0: 88f3 0c3e 3a10 8dbe 9d00 0cbe 2660 0b3e
000003e0: 26ef d7be e84c d03d f888 883e 9c85 443e
000003f0: 0030 58be 6df8 8bbe 70d8 92be 6404 b5be

b4 f4 [10]
-0.2051684 0.022670073 -0.02383736 0.053514857 -0.0009492165 0.06372791 -0.10893927 0.011144239
0.089612104 0.031665295
00000000: aa17 52be 97b6 b93c 9146 c3bc 6532 5b3d
00000010: d7d4 78ba c783 823d 8d1b dfbd 5496 363c
00000020: 8d86 b73d 78b3 013d
