neural_net/mnist_mlp_weights.npz (npz, 221638 bytes, 6 tensors)

W1 (column-major) f4 [64, 784]
0	0x3c11f17b	0.008907671
1	0x3d939595	0.07206265
2	0xbd8da02a	-0.069153145
3	0xbde04452	-0.10950531
4	0x3e2bdaaa	0.16782632
5	0xbe4658a4	-0.19369751
6	0x3e17864b	0.14797322
7	0x3d905736	0.07047884
8	0xbe982a67	-0.2971985
9	0x3df36d4a	0.118860796
10	0x3c189086	0.009311801
11	0xbd8225b7	-0.0635485
12	0xbe2049c3	-0.15653138
13	0x3d5044e9	0.050846968
14	0x3e3fa897	0.18716656
15	0x3c545557	0.0129598
16	0x3dc67562	0.09690358
17	0x3d4a7489	0.049427543
18	0xbe1268a2	-0.14297727
19	0xbd4fcc18	-0.05073175
20	0x3df7233a	0.12067266
21	0x3c025e8c	0.007957112
22	0xbdbda981	-0.09260846
23	0xbd6a908b	-0.057266753
24	0x3c6a25f4	0.014291275
25	0x3d06ed89	0.032941375
26	0xbcb19c70	-0.02168104
27	0x3dd8940a	0.10575111
28	0x3d20b014	0.03923042
29	0xbd475717	-0.04866704
30	0xbd04a423	-0.032383095
31	0x3c868a5a	0.016423393
32	0xbe2a1251	-0.1660855
33	0x373bb325	1.1187779e-05
34	0xbda51c68	-0.08062059
35	0xbbda18ad	-0.0066557736
36	0x3d95352c	0.07285532
37	0xbbb26889	-0.0054445905
38	0xbd97613a	-0.07391591
39	0xbde08b5b	-0.1096408
40	0x3bc74c7b	0.006082115
41	0xbdea2cbd	-0.114343144
42	0xbcffa4a9	-0.031206446
43	0x3d16f64f	0.036855992
44	0x3c4022c1	0.011727036
45	0xbd6de8fc	-0.05808352
46	0xb98f5ffa	-0.00027346594
47	0xbd6a7116	-0.057236753
48	0x3cc7b427	0.024377896
49	0xbc404279	-0.011734598
50	0xbb0977b5	-0.0020975892
51	0xbdea360d	-0.114360906
52	0xbd165e7b	-0.036711197
53	0xbc651ea2	-0.013984354
54	0xbc087c46	-0.00833041
55	0x3cf53387	0.029931797
56	0xbd3772e7	-0.044787314
57	0xbe0697de	-0.1314387
58	0x3e53e499	0.20692672
59	0xbb78ad0f	-0.0037944948
60	0xbda2772a	-0.07932885
61	0x3cef4e3d	0.029212112
62	0xbd688f7c	-0.056777462
63	0x3e31edc8	0.17375863
64	0xbd8a171f	-0.06742691
65	0x3deee70a	0.11665161
66	0xbcc505fe	-0.024050709
67	0xbda46505	-0.080270804
68	0x3e53d7bc	0.20687765
69	0xbd9d341c	-0.07675955
70	0xbd06d9e3	-0.032922637
71	0x3d54475c	0.051825866
72	0xbe52b555	-0.20576985
73	0x3d5ed757	0.054404583
74	0x3d29ca8e	0.041452937
75	0xbe0136e1	-0.12618591
76	0xbd2af168	-0.04173413
77	0xbd089dea	-0.033353724
78	0x3c96b021	0.018394532
79	0x3d0f6523	0.03500856
80	0x3d375d8a	0.04476694
81	0x3d835269	0.06412203
82	0xbe0338c2	-0.1281462
83	0xbd5021cb	-0.050813477
84	0xbc029603	-0.007970336
85	0x3dc3d800	0.09562683
86	0x3caffc63	0.021482652
87	0xbe732a21	-0.2374654
88	0xbd887c26	-0.066643044
89	0xbca553a3	-0.020181483
90	0xbd9a1135	-0.07522813
91	0x3ba9eee5	0.005185949
92	0x3d0bbb57	0.034114208
93	0xbb72e472	-0.0037062434
94	0xbd1a6c2b	-0.037700813
95	0x3d81d773	0.06339922
96	0xbe704af6	-0.23466095
97	0xbd3db7f3	-0.046318006
98	0xbccf7523	-0.02532441
99	0xbca2b86c	-0.01986333
100	0x3dbc9798	0.09208602
101	0xbd95fae5	-0.07323245
102	0xbcf85989	-0.030316131
103	0xbd47e3fc	-0.048801407
104	0xbcec8755	-0.028873125
105	0xbe185f6e	-0.14880154
106	0xbdfde9c9	-0.123981066
107	0x3d5c7623	0.0538236
108	0xbd556e34	-0.05210705
109	0xbda3247a	-0.07965942
110	0xbd2df2fe	-0.042468064
111	0xbd0ad025	-0.03388991
112	0x3b9ab1e1	0.004720912
113	0xbdc7a932	-0.09749068
114	0xbba5b49d	-0.005056931
115	0x3cd73650	0.026271015
116	0xbc679d83	-0.014136675
117	0x3c9505fb	0.018191328
118	0x3d1625ce	0.036657147
119	0x3da88000	0.08227539
120	0x3c37b2e6	0.011212086
121	0xbd4b02ba	-0.049563147
122	0xbcb90a20	-0.022587836
123	0xbd814e20	-0.06313729
124	0xbd89e450	-0.06733
125	0xbdabf6e4	-0.083967
126	0xb9ac8077	-0.0003290211
127	0x3d86c02b	0.06579622
128	0xbd7b3af5	-0.061335523
129	0x3d67eb42	0.056620844
130	0xbe4f789e	-0.20260856
131	0xbe810477	-0.2519872
132	0x3ddfd177	0.10928624
133	0xbe0998d8	-0.13437212
134	0xbc8d6720	-0.017261088
135	0xbd323bfd	-0.04351424
136	0xbde133e6	-0.10996227
137	0xbd6e8c9b	-0.05823956
138	0x3cd2a8d6	0.025715273
139	0xbde6c1f5	-0.11267463
140	0x3d6b8b96	0.057506166
141	0x3bfd6e84	0.0077341218
142	0xbc085cda	-0.008322919
143	0xbdd486ff	-0.10377311
144	0x3bbbe187	0.005733672
145	0x3cb13f6f	0.021636693
146	0xbde7430e	-0.112920865
147	0xbba3a649	-0.004994188
148	0x3da6f47e	0.08152102
149	0x3e08e69b	0.13369219
150	0x3d905f99	0.07049484
151	0xbe1cc007	-0.15307628
152	0xbce10cfd	-0.027472014
153	0xbde036a8	-0.10947925
154	0xbda01740	-0.078169346
155	0xbb80f034	-0.0039348844
156	0xbcecf139	-0.028923618
157	0x3cafe52e	0.021471586
158	0xbcbe770f	-0.023250131
159	0x3d84bdfa	0.06481548
160	0xbdce65ea	-0.10078032
161	0xbd82a0e2	-0.06378342
162	0xbcfc1f6b	-0.0307767
163	0xbd132d79	-0.035932038
164	0x3a13a0c1	0.0005631559
165	0xbd5b7607	-0.053579357
166	0x3d143657	0.036184635
167	0xbde3b84d	-0.11119137
168	0xbc1c4489	-0.009537824
169	0xbb9e822c	-0.004837295
170	0x3d78c998	0.06073913
171	0x3d7bd71f	0.061484452
172	0xbdee80e3	-0.11645677
173	0xbe2407cc	-0.160186
174	0x3c4875eb	0.012235145
175	0xbd5c4174	-0.05377336
176	0x3d410914	0.0471278
177	0xbaa4b360	-0.0012565665
178	0x3d78343b	0.060596686
179	0xbc97d93a	-0.018536199
180	0x3d4f5bb1	0.050624553
181	0xbde3f799	-0.1113121
182	0xbcedb8df	-0.029018817
183	0x3caca1fe	0.021073338
184	0x3d63bb12	0.055598326
185	0xbe4530f8	-0.19256961
186	0x3d8e0b4c	0.069357485
187	0xbd970904	-0.073747665
188	0x3d051f14	0.03250034
189	0xbcb145b6	-0.021639686
190	0x3d2fe5d9	0.04294381
191	0xbda5bfe4	-0.08093241
192	0xbb513c57	-0.0031926834
193	0x3d9082e9	0.07056219
194	0xbe33167e	-0.17489049
195	0xbd73c217	-0.05951127
196	0x3d9292f7	0.071569376
197	0xbdbc9ffc	-0.09210202
198	0xbd008e35	-0.03138562
199	0xbb89b3cf	-0.004202343
200	0xbe0e8acd	-0.13920136
201	0x3ddb808d	0.107178785
202	0x3db8da6c	0.09026036
203	0xbd8418c5	-0.06450037
204	0xb971271b	-0.00022998119
205	0xbd89ea93	-0.067341946
206	0x3c919c96	0.017774861
207	0xbddde528	-0.10834724
208	0xbd380869	-0.044929896
209	0xbb6a6a24	-0.003576883
210	0xbda8a6b4	-0.08234921
211	0xbc53db73	-0.012930739
212	0x3de6aeac	0.11263785
213	0x3cdb4654	0.026766934
214	0xbd5e48b5	-0.054268558
215	0xbe30ed15	-0.1727794
216	0x3d118f3c	0.03553699
217	0xbe2adac9	-0.16685022
218	0xbd8e7a51	-0.06956924
219	0xbce12bd7	-0.027486725
220	0x3d648de5	0.055799384
221	0xbd409b20	-0.04702294
222	0xbcc9d095	-0.024635592
223	0x3d93df92	0.07220377
224	0xbd98e72e	-0.07465969
225	0xbdad6a79	-0.08467574
226	0xbcf12596	-0.029436868
227	0xbcff36e6	-0.031154107
228	0x3d8ecc76	0.069725916
229	0xbd9bb138	-0.07602161
230	0x3d9e9cd2	0.07744755
231	0xbe3c04e0	-0.18361235
232	0xbdbc1bc6	-0.09184985
233	0x3ca5695f	0.020191846
234	0x3d276d1f	0.04087555
235	0x3ceaff5d	0.02868622
236	0xbc5f1804	-0.013616566
237	0xbda8207a	-0.082093194
238	0xbd222f8b	-0.03959612
239	0x3caf589c	0.021404557
240	0x3c1f6a8a	0.009729991
241	0xbcf1f051	-0.029533537
242	0x3d8a1c76	0.0674371
243	0x3b8291b3	0.003984654
244	0x3cd14d13	0.025549447
245	0xbdd84177	-0.105593614
246	0x3c3fc2ed	0.011704189
247	0x3d17a54d	0.037022877
248	0xbd0fd67c	-0.035116658
249	0xbe003540	-0.12520313
250	0x3d5458e2	0.051842578
251	0xbe0a1d3f	-0.13487719
252	0xbd9327e8	-0.07185346
253	0x3e3e4393	0.18580465
254	0x3c80de80	0.015731096
255	0x3d8c19a3	0.06840827

b1 f4 [64]
0	0x3d0e5268	0.034746557
1	0x3e8415c5	0.2579786
2	0x3e0af1d8	0.13568819
3	0x3e1df0d6	0.15423903
4	0x3e172708	0.14760983
5	0x3d83f561	0.06443287
6	0x3e029508	0.12752163
7	0x3e09a373	0.13441257
8	0x3e3c4265	0.18384703
9	0x3edec0ae	0.43506378
10	0x3e3fdffc	0.18737787
11	0x3e3e06d5	0.18557294
12	0x3d26fcaa	0.040768303
13	0xbd9074b1	-0.07053507
14	0x3e9e592b	0.30927405
15	0x3e0cae25	0.13738306
16	0xbda06f9f	-0.0783379
17	0xbe3a41f8	-0.18189228
18	0x3d8311c8	0.06399876
19	0x3e058d74	0.13042241
20	0x3e8076d2	0.25090653
21	0x3d4f2878	0.050575703
22	0x3ae84c7f	0.0017722993
23	0x3e8322e4	0.25612557
24	0xbde2b165	-0.110689916
25	0x3e80c6ff	0.25151822
26	0x3dae4b87	0.085104994
27	0x3d64b898	0.055840105
28	0x3e21f4ac	0.15815991
29	0x3e4e0a85	0.201212
30	0xbbdbe21a	-0.006710303
31	0x3e276b80	0.16349602
32	0x3e38bddf	0.1804118
33	0x3e35d6da	0.1775774
34	0xbe2b1570	-0.16707397
35	0xbcea864b	-0.028628489
36	0x3f0566ac	0.5210979
37	0x3bed0706	0.0072335033
38	0x3d8f468b	0.06995877
39	0x3e631bbb	0.22178547
40	0x3ca5f8c2	0.020260219
41	0x3e234911	0.15945841
42	0x3d98b285	0.07455925
43	0x3e7cbb2c	0.24680775
44	0xbd501f84	-0.050811306
45	0x3c9d2f60	0.01918763
46	0xbda3f7e1	-0.080062635
47	0x3d7e0905	0.06202032
48	0x3e474097	0.19458233
49	0x3e0df633	0.13863449
50	0x3df7ba2a	0.12096055
51	0xbd75cc01	-0.060009006
52	0xbd1117ad	-0.03542297
53	0xbe377c60	-0.17918539
54	0xbd8f9958	-0.0701167
55	0x3e40cea6	0.1882883
56	0x3dbfbf37	0.09362643
57	0x3eb4a340	0.352808
58	0x3dde4dc9	0.1085468
59	0x3c628b54	0.013827164
60	0x3b8fd345	0.004389199
61	0x3dbb7d83	0.09154799
62	0x3e2810ca	0.16412655
63	0x3e918f24	0.2842952

W2 (column-major) f4 [64, 64]
0	0x3beffd58	0.007323902
1	0x3dba7a16	0.09105317
2	0xbd201df6	-0.039091073
3	0x3e1e3240	0.15448856
4	0x3eddf5fb	0.4335173
5	0xbd5fc640	-0.054632425
6	0x3c958e0c	0.01825621
7	0x3dc27af3	0.09496107
8	0xbec314df	-0.3810186
9	0xbe372c37	-0.1788796
10	0x3ecf8b14	0.40535796
11	0xbe80ccf5	-0.2515637
12	0xbe6aec8a	-0.22941795
13	0x3e7cf4c3	0.24702744
14	0xbdb4425d	-0.0880172
15	0xbdf50f98	-0.11965865
16	0xbe1c2d99	-0.15251769
17	0x3e9a3cc3	0.30124483
18	0xbd5199ec	-0.051172182
19	0x3e6ee479	0.23329343
20	0xbe6fed49	-0.23430361
21	0xbea35abe	-0.31905168
22	0xbeb1a568	-0.34696507
23	0xbd435a52	-0.047693558
24	0x3d852cf4	0.06502715
25	0xbc26d3c9	-0.010182329
26	0x3e3434bd	0.17598243
27	0xbe4ced0d	-0.20012303
28	0xbdb0a3a9	-0.08624966
29	0xbe3fb18a	-0.1872007
30	0xbd33db75	-0.043910462
31	0xbd5bdfd8	-0.05368027
32	0x3e940392	0.28908974
33	0x3e5a0e34	0.2129448
34	0xbee8478a	-0.4536708
35	0xbed169a0	-0.40900898
36	0xbd84363f	-0.06455659
37	0xbe6ce95e	-0.23135898
38	0xbe92d338	-0.28676772
39	0x3de47039	0.11154217
40	0xbe6c104d	-0.23053093
41	0xbd2fa7de	-0.0428847
42	0xbe6d8497	-0.2319511
43	0xbcd418b5	-0.025890687
44	0x3e70d427	0.2351843
45	0x3e21269f	0.15737389
46	0xbeb1c84b	-0.34723124
47	0xbe3caa2d	-0.18424292
48	0x3df5cd30	0.12002027
49	0xbd4311e9	-0.047624502
50	0xbd98ee00	-0.0746727
51	0xbda52f20	-0.08065629
52	0x3dfb3d96	0.12267606
53	0xbed52430	-0.4162917
54	0x3e0c0eb2	0.13677481
55	0x3e15b05c	0.14618057
56	0xbedc6738	-0.430475
57	0xbdbc906c	-0.09207234
58	0xbe5cf21c	-0.21576732
59	0xbe667104	-0.2250405
60	0x3dcef2df	0.10104918
61	0x3ebcb30c	0.36855352
62	0x3df16f03	0.11788752
63	0xbd4f65bb	-0.050634127
64	0x3de20c28	0.11037475
65	0x3e3efe08	0.18651593
66	0xbdbfc92f	-0.093645446
67	0xbe7c5406	-0.24641427
68	0xbe3ad9b7	-0.18247114
69	0xbf261358	-0.64873266
70	0xbc8540ed	-0.01626631
71	0x3d84269a	0.06452675
72	0xbccb0292	-0.024781499
73	0x3dae2a9c	0.08504221
74	0x3eaef287	0.3416941
75	0xbd60b2d4	-0.054858044
76	0xbdeda747	-0.11604171
77	0x3d987cde	0.074456915
78	0xbe2b2e17	-0.167168
79	0xbeaa7b73	-0.3329731
80	0xbe946582	-0.28983694
81	0x3dff3aa4	0.12462357
82	0x3c21bad9	0.009871208
83	0x3d808aa7	0.06276446
84	0xbe962874	-0.29327738
85	0x3bde73f3	0.0067887246
86	0xbd527b2d	-0.051387
87	0xbdba0f41	-0.09084941
88	0x3dd9ecfe	0.10640906
89	0x3d9f88f3	0.07789793
90	0x3e0bf6f2	0.13668421
91	0xbe5d9e42	-0.21642402
92	0xbdb1701d	-0.08663962
93	0xbe927403	-0.28604135
94	0xbdd915f6	-0.10599892
95	0xbde3c67b	-0.111218415
96	0x3d58bd81	0.0529151
97	0x3bbbcce1	0.0057312106
98	0xbdecf27e	-0.11569689
99	0xbd3fa4d9	-0.04678807
100	0xbd83c00c	-0.064331144
101	0xbec8490a	-0.39118224
102	0xbe14a889	-0.14517416
103	0x3d96156f	0.07328307
104	0xbe5ab860	-0.21359396
105	0x3d82cac4	0.06386331
106	0xbdeeec38	-0.11666149
107	0xbd123ac6	-0.035700582
108	0xbe9755e2	-0.2955771
109	0xbe2581a2	-0.16162732
110	0xbef427c5	-0.47686592
111	0x3d7cd8e2	0.061730273
112	0x3db3cfef	0.087798946
113	0xbe686798	-0.22695768
114	0xbbccdd43	-0.0062519624
115	0x3d521f98	0.05129966
116	0x3e98d49e	0.29849714
117	0xbe426d51	-0.18987013
118	0xbde3055d	-0.11085007
119	0x3d89e473	0.06733026
120	0x3e3dcbb7	0.18534742
121	0xbedb8b2a	-0.4287961
122	0xbeef61fb	-0.4675444
123	0xbe5fd0ba	-0.21856967
124	0xbe82a732	-0.25518185
125	0xbd04a3ff	-0.03238296
126	0xbdb5645a	-0.08857031
127	0x3cf26893	0.02959088
128	0xbe4418a6	-0.19150028
129	0x3d9d41d6	0.07678573
130	0x3e228014	0.1586917
131	0xbd96362f	-0.073345535
132	0x3e434130	0.19067836
133	0x3e111f03	0.14171986
134	0x3cdf0a75	0.027226666
135	0xbe595f73	-0.21227817
136	0xbd6ba75f	-0.057532664
137	0x3dd79bca	0.10527761
138	0xbd2858ea	-0.04110042
139	0x3ddc98e8	0.10771352
140	0xbc678c18	-0.014132522
141	0x3e898c4a	0.26864845
142	0xbd90e665	-0.07075194
143	0xbeb74af2	-0.35799366
144	0xbce2c7df	-0.027683197
145	0x3c3c6c8b	0.011500488
146	0x3cc1c37a	0.02365278
147	0x3befde15	0.0073201754
148	0x3d1a043a	0.037601687
149	0xbe943810	-0.28949022
150	0xbe11c874	-0.14236623
151	0xbe860b12	-0.2618032
152	0xbc77aa9f	-0.015116363
153	0xbed48694	-0.41508925
154	0x3d9dde05	0.077083625
155	0xbdc9b710	-0.098493695
156	0xbec39d92	-0.38206154
157	0xbe20427f	-0.15650366
158	0x3de5ccd6	0.1122071
159	0x3d288faf	0.041152652
160	0x3ddbaf19	0.107267566
161	0xbe0b1775	-0.13583167
162	0x3cf0b096	0.029381078
163	0xbe0a2382	-0.13490108
164	0xbe524c1b	-0.20536844
165	0x3bff79c4	0.007796498
166	0x3e2797e6	0.16366538
167	0x3e261b60	0.1622138
168	0xbe54f219	-0.20795478
169	0xbbe606a0	-0.0070198327
170	0xbe468843	-0.19387917
171	0x3e69983e	0.22811982
172	0x3e59c295	0.21265633
173	0x3e03ad6d	0.12859125
174	0xbd98abce	-0.07454644
175	0xbea29b38	-0.31759048
176	0xbea8e681	-0.3298836
177	0x3e536f37	0.20647894
178	0xbece3f47	-0.40282652
179	0x3e70bb52	0.23508957
180	0xbe04e9c1	-0.12979795
181	0x3cadf4e7	0.021234943
182	0xbd41922e	-0.04725855
183	0x3e00bcf6	0.12572083
184	0xbf0f1bee	-0.5590199
185	0xbf19ab29	-0.60026795
186	0x3db12f25	0.0865157
187	0xbe555880	-0.20834541
188	0xbe10aa5b	-0.14127485
189	0x3d74ec72	0.059795804
190	0x3e1922db	0.14954703
191	0xbdf80eef	-0.12112223
192	0x3a14987d	0.00056684745
193	0x3e4f0d9a	0.20220032
194	0xbecf5960	-0.40497875
195	0xbd99f59a	-0.07517548
196	0x3db688e2	0.08912827
197	0x3cb03d4e	0.021513607
198	0x3e562c61	0.20915367
199	0xbe4cc010	-0.19995141
200	0xbea4fac6	-0.32222575
201	0x3e9b215c	0.3029889
202	0x3e2e5428	0.1702429
203	0xbe3eb47e	-0.1862354
204	0xbb6df08d	-0.003630671
205	0xbe7b9da2	-0.24571851
206	0xbf1a9ba7	-0.60393757
207	0x3cf8dbfc	0.030378334
208	0x3d5d7601	0.054067615
209	0x3e0efbe0	0.1396327
210	0x3cd3e33b	0.025865188
211	0xbedd5c37	-0.43234417
212	0xbdac05c2	-0.08399536
213	0xbd1da2e3	-0.03848542
214	0x3ce81c12	0.028333697
215	0xbe793aa8	-0.24338782
216	0x3e2041c3	0.15650086
217	0xbeabdd9d	-0.33567515
218	0xbdd2d370	-0.10294235
219	0x3e364b7d	0.17802234
220	0x3b863a09	0.004096274
221	0xbf0b9699	-0.5452667
222	0xbe8c17e8	-0.2736199
223	0xbdae558b	-0.0851241
224	0x3e41a577	0.18910776
225	0xbe493a1a	-0.1965107
226	0xbd91819f	-0.071048014
227	0xbe0bfe53	-0.13671236
228	0xbe1d9e83	-0.15392499
229	0xbdf5b8c2	-0.119981304
230	0xbed4e4fb	-0.41580948
231	0x3ea90cc9	0.33017567
232	0xbdec3e5d	-0.11535332
233	0xbda5b4c7	-0.08091121
234	0xbef3af4a	-0.47594672
235	0xbece9e65	-0.4035522
236	0x3e04940e	0.12947103
237	0xbdad7248	-0.08469063
238	0xbd4aedb5	-0.0495431
239	0xbe273806	-0.16329965
240	0xbe3519cd	-0.17685623
241	0xbe9e4c92	-0.30917794
242	0xbdaf941b	-0.08573171
243	0xbcc00f49	-0.023444789
244	0x3ea526ce	0.32256168
245	0x3e7cc11a	0.24683037
246	0x3e152075	0.14563163
247	0x3c738849	0.014864036
248	0xbe25c50c	-0.16188449
249	0xbe8dc6c9	-0.27690724
250	0xbeb3765e	-0.35051244
251	0xbdd90904	-0.10597423
252	0xbee1df51	-0.4411569
253	0x3e2ba914	0.16763717
254	0xbd955890	-0.072922826
255	0x3e233c1d	0.159409

b2 f4 [64]
0	0x3ec5467e	0.38530344
1	0x3e8ee7fe	0.2791137
2	0x3e89ef09	0.26940182
3	0xbdcb0eb5	-0.099149145
4	0x3e37f33a	0.17963877
5	0xbdf8e3c3	-0.12152817
6	0x3d0e8752	0.03479702
7	0x3e6558fe	0.22397229
8	0x3eccf7b8	0.40032744
9	0xbcbb3584	-0.022852667
10	0x3e50bbdc	0.20384163
11	0x3e3f8527	0.18703137
12	0x3e582047	0.21106063
13	0x3d91dabb	0.07121798
14	0x3e888a55	0.2666804
15	0x3f057b76	0.5214151
16	0x3ed573d5	0.41689935
17	0x3ef0d626	0.47038382
18	0x3f00567a	0.5013195
19	0x3e601ea5	0.2188669
20	0x3e9bb21e	0.3040933
21	0x3e2300f4	0.15918332
22	0xbe3fbc2a	-0.18724123
23	0x3e348d23	0.17631964
24	0x3e53a4f4	0.20668393
25	0x3eac06f7	0.33599064
26	0x3e376de5	0.17913015
27	0x3e2daadc	0.16959709
28	0x3e8bffb9	0.27343538
29	0x3e30725a	0.17231122
30	0x3e0ab7e1	0.13546707
31	0x3e80f975	0.2519032
32	0x3e97f5c4	0.29679692
33	0x3f27f3cd	0.65606385
34	0x3e91cfb5	0.2847878
35	0x3e171279	0.1475314
36	0xbde3358a	-0.11094196
37	0x3ea50d47	0.32236692
38	0xbdb9d70d	-0.09074221
39	0x3d0fa5d2	0.035070248
40	0x3ddd155b	0.10795089
41	0x3e646a90	0.22306275
42	0x3e36bf06	0.17846307
43	0x3ea97824	0.33099473
44	0xbdf5bde6	-0.11999111
45	0x3ed3a41b	0.4133614
46	0x3f0bbcc2	0.54584897
47	0x3e7a903c	0.24469084
48	0x3eed7363	0.46377096
49	0x3c758c66	0.014987087
50	0x3eda0e55	0.4258906
51	0x3e6db0d4	0.23211986
52	0x3e7369aa	0.23770776
53	0x3ed503db	0.41604504
54	0x3e407ca9	0.18797554
55	0x3ef083d8	0.4697559
56	0x3e6ff008	0.23431408
57	0x3eabf4a0	0.33585072
58	0x3eb86b40	0.36019325
59	0x3f078d0f	0.52949613
60	0x3ee1db1e	0.44112486
61	0xbe2715ef	-0.16316961
62	0x3ec6d479	0.3883398
63	0xbbba86a8	-0.005692322

W3 (column-major) f4 [10, 64]
0	0xbea3cc14	-0.31991637
1	0x3e5a5cad	0.21324416
2	0xbe94501d	-0.28967372
3	0x3eb44e1c	0.35215843
4	0x3e45cc7a	0.19316283
5	0x3eab4593	0.33451518
6	0xbe985998	-0.29755855
7	0xbe240c1f	-0.16020249
8	0x3e7f1b5e	0.24912784
9	0x3de479c5	0.11156038
10	0xbd8b39ad	-0.0679811
11	0x3eab0c3f	0.3340778
12	0x3eb062ef	0.3445048
13	0xbe431a03	-0.19052891
14	0x3ef82fde	0.4847402
15	0xbe46e61a	-0.19423714
16	0xbde42dde	-0.11141561
17	0xbd553c5d	-0.05205952
18	0xbdc96078	-0.09832853
19	0xbe223497	-0.15840374
20	0xbe3c5d45	-0.18394955
21	0x3e7038c0	0.23459148
22	0xbe650334	-0.22364503
23	0xbe9c2335	-0.3049561
24	0x3e6cf4e8	0.231403
25	0xbe7f963e	-0.24959657
26	0x3deefae1	0.11668945
27	0xbe714127	-0.2356001
28	0x3e82b5cb	0.25529322
29	0xbe9b020d	-0.30275002
30	0xbcc6f7eb	-0.024288138
31	0x3eb64a6b	0.3560365
32	0xbe8c4f7f	-0.274044
33	0xbea00e04	-0.31260693
34	0xbe61411b	-0.21997492
35	0x3d834bf6	0.06410973
36	0xbe6a8017	-0.22900425
37	0x3ebfc43e	0.37454408
38	0x3e3bb20e	0.18329641
39	0x3dacd0b2	0.08438243
40	0x3ea64116	0.32471532
41	0xbd9a23d2	-0.075263634
42	0xbda8c8d1	-0.08241428
43	0xbe6808fd	-0.22659679
44	0xbe5a485e	-0.21316668
45	0x3e8c2b9f	0.2737703
46	0xbd4c77d6	-0.049918972
47	0x3e841fb7	0.25805447
48	0xbdf49a0b	-0.11943444
49	0xbe4f5549	-0.20247377
50	0x3ef90b50	0.48641443
51	0xbd502f9f	-0.050826665
52	0xbe4f5b20	-0.20249605
53	0xbd23de0f	-0.040006693
54	0xbe587c50	-0.21141171
55	0xbe489dbb	-0.1959142
56	0x3ef736f7	0.48284122
57	0x3dcc9416	0.09989183
58	0xbe493219	-0.19648017
59	0xbe2a2fe4	-0.16619831
60	0xbe7dddca	-0.24791637
61	0x3eaa77c4	0.332945
62	0x3eb2a6b5	0.34892812
63	0x3ebcb1df	0.36854455
64	0xbe1bb4f8	-0.15205753
65	0xbeb1751b	-0.34659657
66	0xbe567c5e	-0.2094588
67	0x3e931953	0.28730258
68	0xbe392418	-0.18080175
69	0xbe6d8b4e	-0.23197672
70	0x3d9a4cf7	0.07534211
71	0x3e6e5e55	0.23278172
72	0x3e81b8bf	0.25336263
73	0x3ebc525b	0.36781582
74	0xbcc82e24	-0.024436064
75	0xbd24cb81	-0.04023314
76	0xbd07418f	-0.033021506
77	0xbe16a60f	-0.14711784
78	0x3d975d99	0.07390899
79	0x3eb47bb5	0.3525063
80	0xbde8faea	-0.11375983
81	0xbe660997	-0.22464596
82	0xbe8dd55f	-0.27701852
83	0x3e9d3fb7	0.30712673
84	0xbe188744	-0.1489535
85	0x3e4b421a	0.19849434
86	0x3e9820e8	0.29712605
87	0xbe334fa5	-0.1751085
88	0x3d9ef5e9	0.077617474
89	0x3e7fb7c7	0.24972449
90	0xbe4ce0bf	-0.20007609
91	0xbd92aeb9	-0.07162232
92	0x3e7d7023	0.24749808
93	0x3e380b97	0.17973171
94	0xbe125b92	-0.14292744
95	0xbe59d4cb	-0.2127258
96	0xbea89d44	-0.32932484
97	0x3e48a907	0.19595729
98	0xbeb3ef25	-0.3514339
99	0xbecaeef2	-0.39635426
100	0x3d135eff	0.035979267
101	0x3e826c5c	0.25473297
102	0xbd7e01d0	-0.062013447
103	0x3eab6847	0.33477995
104	0xbca04d63	-0.01956815
105	0x3ec0556e	0.37565178
106	0xbe4a69c3	-0.19766907
107	0x3e109c54	0.14122134
108	0xbe003ec2	-0.1252394
109	0xbdc530ed	-0.096284725
110	0xbe7c02de	-0.24610469
111	0xbe79c7b9	-0.24392594
112	0x3e9a7613	0.30168208
113	0xbddfe60b	-0.10932549
114	0x3e439aa2	0.19101956
115	0x3dba90c3	0.09109642
116	0x3e58e6c5	0.21181782
117	0xbe6a297f	-0.22867392
118	0xbcce3207	-0.02517034
119	0xbca8a21a	-0.020585109
120	0x3ec01147	0.37513182
121	0xbea1dd00	-0.31613922
122	0x3eab411e	0.33448118
123	0xbe0ffef5	-0.14062102
124	0xbd5a77b8	-0.05333683
125	0xbe05bd53	-0.13060503
126	0x3e71a002	0.23596194
127	0xbea24d9b	-0.31699833
128	0x3d9133e3	0.07089975
129	0xbd89a9fb	-0.06721874
130	0x3efffd2e	0.49997848
131	0x3f157ee8	0.5839677
132	0xbe810915	-0.25202242
133	0xbdce6bb6	-0.10079138
134	0xbdba04e6	-0.090829656
135	0xbbbd3c8a	-0.005775039
136	0xbe30adce	-0.17253801
137	0xbe121950	-0.14267468
138	0xbe83e194	-0.2575804
139	0xbdfd69c4	-0.12373689
140	0xbd67b923	-0.056573045
141	0xbe84370b	-0.25823244
142	0xbe665464	-0.2249313
143	0xbe535b4f	-0.206403
144	0x3e948e70	0.2901492
145	0xbd002f82	-0.031295307
146	0x3e5d2fb1	0.21600224
147	0xbe8e56f9	-0.2780073
148	0xbe8d0ee6	-0.2755043
149	0x3e7ae0e8	0.24499857
150	0xbe5c8afb	-0.21537392
151	0xbed68944	-0.419016
152	0xbe716521	-0.23573734
153	0xbe956c0f	-0.29184005
154	0xbdfb7f26	-0.12280111
155	0x3d9ccd92	0.07656397
156	0x3c714334	0.014725495
157	0x3e81c7d0	0.25347757
158	0x3e4d0748	0.20022309
159	0x3e2e25ef	0.17006658
160	0xbe6561c3	-0.22400574
161	0xbe841a3e	-0.2580127
162	0x3cab5c88	0.020918146
163	0xbe65ae10	-0.22429681
164	0x3e93e958	0.28888965
165	0xbe710681	-0.23537637
166	0x3cc4774d	0.023982668
167	0x3ea1b751	0.31585172
168	0xbe87e72b	-0.26543555
169	0x3e86ba04	0.26313794
170	0xbea101a3	-0.3144656
171	0x3e72ccf8	0.23711002
172	0xbe7de2f0	-0.24793601
173	0xbe5dc833	-0.21658401
174	0xbe20eda0	-0.15715647
175	0x3e809ce5	0.251197
176	0xbc0903eb	-0.0083627505
177	0xbdf68af2	-0.120382205
178	0x3e1c0d8c	0.15239543
179	0xbd612d68	-0.054974943
180	0x3d86d160	0.06582904
181	0x3dd345be	0.10316037
182	0x3e8fd4b7	0.28091976
183	0xbe3eb0a4	-0.1862207
184	0xbe055ab9	-0.13022889
185	0xbe2b22a0	-0.16712427
186	0x3e9adfa3	0.30248746
187	0xbe70c49d	-0.23512502
188	0x3e6589a4	0.22415787
189	0xbe2413cb	-0.16023175
190	0xbe32c929	-0.17459549
191	0x3e877a24	0.26460373
192	0xbd670ed2	-0.056410618
193	0xbe1495f9	-0.14510335
194	0x3ea0f287	0.31435034
195	0x3ce54058	0.027984783
196	0xbe86f329	-0.2635739
197	0xbe983746	-0.2972967
198	0xbde40d66	-0.11135368
199	0x3e887118	0.26648784
200	0x3dde425c	0.10852501
201	0xbea07d2f	-0.31345508
202	0x3d6c3759	0.05766997
203	0xbe86f6ee	-0.26360267
204	0x3e22aab2	0.15885428
205	0xbe8adb63	-0.27120504
206	0xbebb9db9	-0.3664377
207	0x3d91b6ae	0.071149215
208	0xbeb90e57	-0.36143753
209	0x3e3a358d	0.1818449
210	0x3e959f23	0.29222974
211	0xbe6aae20	-0.22917986
212	0x3e87399a	0.26411134
213	0x3e3023fb	0.17201225
214	0xbe90ae01	-0.28257754
215	0xbe6255dc	-0.22103065
216	0xbeafa800	-0.3430786
217	0xbc46db74	-0.012137283
218	0x3e6d6e56	0.23186621
219	0xbe657947	-0.22409545
220	0xbe83ccbc	-0.25742137
221	0xbdf1668b	-0.11787137
222	0x3e68e8ec	0.22745103
223	0x3e3903f9	0.18067922
224	0xbe761fff	-0.24035643
225	0xbea616cf	-0.32439277
226	0xbe9db4df	-0.30802056
227	0x3e75d544	0.24007136
228	0x3e6fe872	0.23428515
229	0xbed5309a	-0.41638643
230	0xbe869f87	-0.26293585
231	0xbec66fce	-0.38757175
232	0xbdf9630f	-0.12177097
233	0xbe2058af	-0.1565883
234	0x3e7fa200	0.24964142
235	0x3e2e31e0	0.17011213
236	0x3e1cedd7	0.15325104
237	0xbea0abf1	-0.3138118
238	0x3e4e0b54	0.20121509
239	0x3e828b4b	0.25496897
240	0xbe8b3d70	-0.2719531
241	0x3e637a21	0.22214557
242	0xbea8eebc	-0.3299464
243	0x3d965c09	0.07341773
244	0x3e722237	0.23645864
245	0x3d94ff29	0.072752304
246	0xbea055f1	-0.31315568
247	0xbeb9cbab	-0.362882
248	0xbeea8287	-0.4580271
249	0x3d80bd8c	0.06286153
250	0x3e2d421d	0.16919751
251	0xbe9ab04b	-0.30212626
252	0xbe370b2b	-0.17875354
253	0x3dbb4f4b	0.09145983
254	0xbe9b1958	-0.30292773
255	0x3d642fd0	0.05570966

b3 f4 [10]
0	0xbe99df38	-0.30053115
1	0xbdb6752a	-0.08909066
2	0x3e263280	0.16230202
3	0x3d50f825	0.0510179
4	0xbe070797	-0.13186489
5	0x3df2200c	0.11822519
6	0xbe91e6b6	-0.2849633
7	0x3d534f6b	0.05158941
8	0x3e44b7ba	0.19210711
9	0x3d3b2f12	0.045699187
