neural_net/mnist_mlp_weights.npz (npz, 102766 bytes, 4 tensors)

W1 (column-major) f4 [32, 784]
0	0x3b8980fe	0.0041962853
1	0xbcfead4d	-0.031088496
2	0xbc1fa186	-0.0097431
3	0x3cb1e808	0.021717086
4	0x3cd9ef91	0.026603492
5	0xbda06878	-0.07832426
6	0x3d298dbe	0.04139494
7	0x3ca59009	0.020210283
8	0xbd2ead4c	-0.042645738
9	0x3c39ef46	0.011348551
10	0x3bb68a8b	0.005570715
11	0x3d023b4b	0.031794827
12	0x3da3bde2	0.07995202
13	0x3c445d0e	0.011985077
14	0xbd11c78e	-0.0355907
15	0xbc1d027e	-0.009583114
16	0xbd653ca1	-0.055966023
17	0xbd6bc516	-0.057561003
18	0xbdbdd2bf	-0.09268712
19	0x3cb7caee	0.022435632
20	0x3d108bc6	0.03528955
21	0x3c848e5f	0.01618117
22	0x3ccb0fbc	0.024787776
23	0x3d8b1eb0	0.067929626
24	0xbc059f33	-0.008155632
25	0xbd82889a	-0.06373711
26	0x3cb73915	0.022366086
27	0xbcd31fb3	-0.025771951
28	0x3d694913	0.056954455
29	0x3d116825	0.03549971
30	0xbd55f7c0	-0.052238226
31	0xbde9a176	-0.11407749
32	0x3ce49528	0.027903154
33	0x3d96c34b	0.07361468
34	0xbbdd8129	-0.006759782
35	0x39d7ce20	0.0004116157
36	0xbc998fd7	-0.018745346
37	0xbd0656a1	-0.03279746
38	0xb72056e9	-9.5569785e-06
39	0xbcaf1967	-0.021374417
40	0x3d9dba3b	0.07701536
41	0xbd0baf31	-0.034102622
42	0xbca4efa7	-0.020133806
43	0x3cc8cba1	0.02451116
44	0x3d428066	0.04748573
45	0xbd6f612c	-0.05844228
46	0x3ce193a1	0.027536215
47	0xbd094f1b	-0.033522706
48	0xbca99912	-0.020702872
49	0x3c1f808b	0.009735237
50	0xbcc12314	-0.023576297
51	0x3d276373	0.040866327
52	0x3d0f7e56	0.035032593
53	0xbd5c51f2	-0.053789087
54	0x3c870d13	0.016485726
55	0x3d163792	0.03667409
56	0x3c686f7e	0.014186738
57	0xbd5d8948	-0.054086
58	0x3cf35a27	0.029706074
59	0x3da3d0de	0.07998823
60	0x3dd0fd63	0.1020458
61	0xbc69b100	-0.0142633915
62	0x3c2bc9af	0.010485097
63	0xbc3b5b2f	-0.011435314
64	0xbd469e89	-0.048491035
65	0x3cd40a18	0.02588372
66	0xbd37e186	-0.04489281
67	0xbd123baf	-0.03570145
68	0xbd8297c0	-0.063766
69	0xbd0eb878	-0.03484389
70	0x3cbe5c73	0.023237443
71	0xbdb11d91	-0.086482175
72	0xbde900d9	-0.11377115
73	0xbc84db23	-0.016217774
74	0x3d9491c9	0.07254369
75	0x3c8210cf	0.015877156
76	0xbc366d46	-0.011134451
77	0x3caaef0a	0.020865936
78	0xbcd56d3b	-0.026053062
79	0x3c965b85	0.018354187
80	0x3d0dd2cd	0.034624863
81	0xbd27f68c	-0.04100661
82	0xbbd0a39a	-0.006367159
83	0x3dd18177	0.102297716
84	0x3d6c7ed7	0.05773815
85	0x3d6537ba	0.055961348
86	0xbd355f19	-0.044280145
87	0xbda4ee51	-0.08053268
88	0xbd9f22bb	-0.07770296
89	0x3d399e30	0.045316875
90	0xbbf0c36c	-0.007347515
91	0x3d36ba6c	0.04461138
92	0xbd565d41	-0.052335028
93	0xbd7da019	-0.06192026
94	0xbce2763d	-0.027644271
95	0x3d53965c	0.051657066
96	0x3d08eae2	0.033427127
97	0x3c814cf1	0.015783759
98	0x3d6f947a	0.058491208
99	0xbb550c4f	-0.0032508557
100	0xbd4af642	-0.049551256
101	0xbd777996	-0.060418688
102	0xbb5fe63f	-0.0034164337
103	0xbc85c0c2	-0.016327266
104	0x3b7498ba	0.0037322477
105	0x3cb27a4c	0.021786831
106	0xbdb6ccdf	-0.08925795
107	0x3d0b3d0b	0.033993762
108	0x3d26b6da	0.040701725
109	0xbc5de756	-0.013543924
110	0xbdbce7e8	-0.0922392
111	0xbcc1f4b6	-0.023676258
112	0x3be25b22	0.0069078365
113	0x3d15ef6d	0.036605287
114	0xbd93bcc6	-0.0721374
115	0xbd0b6f41	-0.034041647
116	0x3c79fb7c	0.015257712
117	0xbd8f6065	-0.07000808
118	0x3d3af486	0.045643352
119	0xbd9bfdb6	-0.07616751
120	0xbd045e8a	-0.032316722
121	0xbc2afb89	-0.010435947
122	0x3ae543cb	0.0017491517
123	0x3d9980c0	0.0749526
124	0x3cc90ad3	0.024541294
125	0x3ce029da	0.027363706
126	0x3cfe5235	0.031045059
127	0xbd856cc5	-0.06514887
128	0xbd2a0a21	-0.041513566
129	0xbcb8a328	-0.022538736
130	0xbc1ff8fc	-0.009763952
131	0xbdbf527c	-0.093419045
132	0xbdacbb68	-0.084341824
133	0xbcbf8c19	-0.023382233
134	0x3cb3835d	0.021913225
135	0x3d9bce63	0.076077245
136	0x3db7451e	0.0894873
137	0xbdc5fe39	-0.0966763
138	0xbcded065	-0.02719898
139	0x3d684107	0.05670264
140	0x3b79c3fd	0.0038111203
141	0x3cd67042	0.026176576
142	0x3aec075b	0.0018007563
143	0x3ce37806	0.027767193
144	0xbcd474cb	-0.025934597
145	0xba5f7a4e	-0.0008525
146	0xbc0ed6d7	-0.008718214
147	0xbd6985a9	-0.057012234
148	0x3d7f7bfe	0.062374108
149	0xbc4db9f6	-0.012556544
150	0x3d4f8c8c	0.050671145
151	0x3d2c7ecd	0.042113114
152	0xbc905f34	-0.017623521
153	0x3c0ec287	0.008713371
154	0x3dc7f38c	0.0976325
155	0x3cac380f	0.021022825
156	0xbcbf9781	-0.023387672
157	0x3c81d7b0	0.015849918
158	0xbd7044a0	-0.058659196
159	0xbd06c4f6	-0.03290268
160	0x3dcc5b0b	0.099783026
161	0x3ce3e23e	0.027817842
162	0xbc2027da	-0.009775126
163	0xbd0aa29b	-0.03384648
164	0xbce4e09d	-0.027939135
165	0xbd25100b	-0.040298503
166	0xbd9266bb	-0.071485005
167	0x3d20fb2a	0.03930203
168	0x3d42d9bd	0.047570933
169	0x3db419f5	0.087940134
170	0xbc645e1b	-0.013938452
171	0x3d8b04aa	0.06787999
172	0x3b776905	0.0037751806
173	0xbb3fa435	-0.0029242162
174	0xbd896d6d	-0.067103244
175	0xbd62aa9b	-0.055338483
176	0xbad22b17	-0.001603457
177	0xbbf20f39	-0.0073870686
178	0x3d0ad3a4	0.033893242
179	0x3d5bb20c	0.053636596
180	0xbd29d427	-0.04146209
181	0x3d746194	0.05966337
182	0xbdac0f1f	-0.084013216
183	0xbdad0841	-0.0844884
184	0xbd5e2f2a	-0.054244198
185	0xbd9f6640	-0.077831745
186	0x3dbdab13	0.092611454
187	0x3d55487e	0.052071087
188	0x3c45275c	0.01203331
189	0x3db2567e	0.08707903
190	0x3d15dada	0.036585666
191	0xbc6d6fb5	-0.014491965
192	0x3d52fead	0.05151241
193	0xbd1aa09a	-0.037750818
194	0x3d85e54b	0.06537875
195	0xbd327adb	-0.043574195
196	0x3c94e856	0.018177193
197	0x3dd02d07	0.10164838
198	0x3d230d85	0.039807815
199	0xbdb6b0d8	-0.08920449
200	0xbd1741f9	-0.03692815
201	0xbc8c68a4	-0.01713974
202	0x3da4ecce	0.080529794
203	0xbd7a6122	-0.06112779
204	0x3d44479d	0.04791986
205	0xbbded5c9	-0.0068003875
206	0xbdbaaa41	-0.091145046
207	0xbd1f82d9	-0.038943145
208	0xba0709d0	-0.00051513035
209	0x3d12fd62	0.035886176
210	0x3ca65f38	0.020309076
211	0xbbba2b45	-0.0056814277
212	0xbdb0e478	-0.08637327
213	0x3da2fd5f	0.07958483
214	0x3d58df99	0.052947614
215	0xbd094a09	-0.03351787
216	0x3c3456d2	0.011007028
217	0xbce5e462	-0.028063003
218	0xbcba7cc4	-0.022764571
219	0x3c50bef1	0.0127408365
220	0xbc5ed012	-0.0135994125
221	0xbceb4e33	-0.028723812
222	0xbbed7217	-0.0072462666
223	0xbccbe4a0	-0.02488929
224	0x3da3df67	0.08001595
225	0xbcdbadf1	-0.02681634
226	0x3ba9f8bd	0.0051871226
227	0x3da8a3cf	0.08234369
228	0x3cde3e50	0.027129322
229	0x3bb61f23	0.005557911
230	0xbd405c39	-0.04696295
231	0xbc4a7fd9	-0.012359583
232	0xbc14a2d3	-0.009072023
233	0xbcd10e19	-0.025519418
234	0x3cf234d3	0.029566204
235	0xbde37626	-0.111065194
236	0x3d0a51b7	0.033769336
237	0x3cab78dd	0.020931656
238	0xbc3c1037	-0.011478475
239	0xbc098d15	-0.008395453
240	0x3bf3604d	0.0074272514
241	0x3ce17c52	0.0275251
242	0xbc0926c9	-0.0083710635
243	0xbd983495	-0.07431904
244	0x3d0cf2fd	0.03441142
245	0x3d27a055	0.04092439
246	0x3c4436b2	0.011975931
247	0xbcafa7ed	-0.021442378
248	0x3d022bc1	0.03178001
249	0xbd4b2de9	-0.04960433
250	0x3dd33da8	0.10314494
251	0xbd48250b	-0.048863452
252	0xbdcf0faf	-0.10110413
253	0x3d509be1	0.050929908
254	0x3c25caf4	0.010119189
255	0xbdacf203	-0.084445976

b1 f4 [32]
0	0x3d8e129b	0.069371425
1	0xbe1c3add	-0.1525683
2	0x3e6da440	0.23207188
3	0x3d8e573e	0.06950234
4	0x3cb2212a	0.02174433
5	0xbe426ec0	-0.1898756
6	0xbd936857	-0.071976356
7	0xbc62af45	-0.013835733
8	0xbe954e4e	-0.29161304
9	0xbd8ef595	-0.06980435
10	0xbe02a4d8	-0.12758195
11	0x3de75832	0.11296119
12	0xbe1af0c7	-0.15130912
13	0xbe30869f	-0.17238854
14	0xbe75537e	-0.23957631
15	0x3e415629	0.18880524
16	0x3e7d421c	0.2473225
17	0xbe6641b4	-0.22486001
18	0x3e82050d	0.25394478
19	0xbd83d7c7	-0.06437641
20	0x3ca55632	0.020182703
21	0x3e4768fe	0.19473645
22	0x3e1d47bf	0.153594
23	0x3e8dc744	0.2769109
24	0x3e4eed52	0.20207718
25	0x3ec3cf06	0.38243884
26	0xbd51a13d	-0.05117916
27	0xbd87fc25	-0.0663989
28	0xbd12c142	-0.035828836
29	0x3ea78449	0.32718113
30	0x3e61c609	0.220482
31	0x3e79852b	0.24367206

W2 (column-major) f4 [10, 32]
0	0x3eb96965	0.36213222
1	0xbc1cfafd	-0.009581325
2	0x3f81588e	1.010515
3	0xbed4f1ce	-0.41590732
4	0xbe948004	-0.29003918
5	0x3c1d72fc	0.009609934
6	0x3e6ad542	0.22932914
7	0x3e9beb54	0.3045298
8	0x3e03b0bc	0.12860388
9	0xbf7ce12a	-0.98781073
10	0x3e72dcdb	0.23717062
11	0xbe817f14	-0.25292265
12	0x3e260286	0.162119
13	0x3ea836f5	0.3285443
14	0xbe745c62	-0.23863366
15	0xbf4abc9e	-0.79194057
16	0xbe98037e	-0.29690164
17	0x3e06f98e	0.13181135
18	0x3e94af33	0.29039916
19	0x3eee80f4	0.46582758
20	0x3daa01e6	0.08301143
21	0xbf6ce230	-0.92532635
22	0x3ee8c8c8	0.45465684
23	0xbdc81b52	-0.09770836
24	0xbc8c0b8b	-0.017095348
25	0xbedffd36	-0.43747872
26	0xbecdda2a	-0.40205508
27	0x3eb5fd0a	0.35544616
28	0xbeeea157	-0.46607468
29	0x3e57f908	0.21091092
30	0xbe49243a	-0.19642726
31	0x3ec04ccd	0.37558594
32	0x3e2b32e8	0.16718638
33	0xbe0747b6	-0.1321095
34	0x3e802924	0.25031388
35	0xbfc8485a	-1.564708
36	0xbf2c01f2	-0.6719047
37	0x3e4bb314	0.19892532
38	0xbf07330c	-0.52812266
39	0xbcdec9f7	-0.027195914
40	0xbf3997ab	-0.7249705
41	0xbf9f04c0	-1.2423325
42	0xbcd439fe	-0.02590656
43	0x3f0cd53c	0.5501287
44	0x3e9659d8	0.2936542
45	0x3f09b195	0.53786594
46	0xbf837a0e	-1.0271623
47	0x3c644057	0.013931355
48	0x3efa904f	0.48938224
49	0x3e839859	0.2570217
50	0x3ebe2b90	0.3714261
51	0xbedddf85	-0.43334594
52	0x3e7aa822	0.244782
53	0x3e6a1171	0.22858216
54	0xbf8834d6	-1.0641124
55	0xbeb086e6	-0.3447792
56	0xbf137b17	-0.57609695
57	0xbef67296	-0.48134297
58	0x3ecfea53	0.40608463
59	0x3e260a78	0.16214931
60	0xbee002e8	-0.43752217
61	0x3f31f2cf	0.6951112
62	0x3eeb8991	0.46003392
63	0x3e412689	0.18862356
64	0x3eac5180	0.3365593
65	0x3e3fcf77	0.18731485
66	0x3f05fb6e	0.52336776
67	0x3f3e5a8c	0.74356914
68	0xbf26caca	-0.6515318
69	0xbf8f8a2e	-1.1214044
70	0x3e21b74a	0.15792575
71	0xbe48e0c0	-0.19616985
72	0xbe613d61	-0.2199607
73	0x3e9744e3	0.29544744
74	0xbd19d909	-0.037560496
75	0xbe4374cc	-0.19087523
76	0x3b8d3b17	0.0043100226
77	0xbe416649	-0.18886675
78	0xbeb64b66	-0.356044
79	0xbe360a33	-0.17777328
80	0xbf6d72e3	-0.9275343
81	0xbf10012a	-0.56251776
82	0x3e601bee	0.21885654
83	0x3f0564e6	0.52107084
84	0x3d0adf83	0.033904564
85	0x3ed8da6f	0.42354152
86	0xbf7bef12	-0.9841167
87	0xbf45180e	-0.7698983
88	0x3eb90f46	0.36144465
89	0x3ee69746	0.45037287
90	0xbea7de15	-0.32786623
91	0x3f74c3df	0.95611376
92	0xbeb22348	-0.34792542
93	0x3d3e2e0a	0.046430625
94	0x3f149b87	0.58049816
95	0xbf286f9a	-0.6579529
96	0x3b0da11a	0.0021610917
97	0x3ef941a1	0.48682883
98	0xbf36bf54	-0.71385694
99	0xbf7c6668	-0.9859376
100	0x3ec48b1a	0.38387376
101	0xbe65fdd5	-0.2246011
102	0x3e3bfee6	0.18358955
103	0x3ee5fd26	0.449197
104	0x3e772f33	0.24139099
105	0x3ed04694	0.40678847
106	0x3e8baf71	0.2728229
107	0xbf790034	-0.97265935
108	0xbef418b9	-0.47675112
109	0xbf48302b	-0.781985
110	0xbe18bdee	-0.14916202
111	0xbf0b8a60	-0.5450802
112	0x3eb0ee42	0.34556776
113	0x3d4bbacf	0.0497387
114	0x3f26ce79	0.651588
115	0x3e812223	0.25221357
116	0x3daf6765	0.08564643
117	0xbf4c125d	-0.7971552
118	0x3ee314b4	0.44351733
119	0x3ed785e5	0.4209434
120	0x3e991aa0	0.29903126
121	0xbe5b1d21	-0.2139783
122	0xbe99ce46	-0.30040187
123	0xbe0ba271	-0.13636185
124	0xbe400596	-0.18752131
125	0xbe264c64	-0.16240078
126	0x3e95eeea	0.2928384
127	0xbf5dcb34	-0.8663819
128	0x3e7c7cc3	0.24656968
129	0xbefc32ef	-0.4925761
130	0xbf043fa2	-0.51659596
131	0xbe36e8e7	-0.17862283
132	0x3ef1ecb9	0.47250918
133	0x3e81b86c	0.25336015
134	0xbf87f77e	-1.0622404
135	0x3ea2e5d0	0.31815958
136	0x3e471ea7	0.19445287
137	0x3eb9f3be	0.36318773
138	0xbd4628f0	-0.048378885
139	0xbfd2b339	-1.6460944
140	0xbeca017d	-0.3945426
141	0x3f071bef	0.52777
142	0x3e3548e5	0.17703588
143	0x3f14158b	0.5784537
144	0xbe6f88e2	-0.2339206
145	0xbdd21580	-0.10258007
146	0xbf64f7e5	-0.8944076
147	0x3e0990b4	0.13434106
148	0x3ed12d0a	0.40854675
149	0xbe878bd7	-0.26473877
150	0x3ec03d03	0.37546548
151	0xbeeb47af	-0.45953128
152	0xbf1f4f87	-0.62230724
153	0x3db52eac	0.088467926
154	0xbc09712d	-0.0083888
155	0x3ebe661c	0.37187278
156	0xbf17f0d1	-0.5935183
157	0xbea33638	-0.31877303
158	0xbdcfe22d	-0.101505615
159	0x3ee6a1d3	0.45045337
160	0x3ec9d69e	0.39421552
161	0x3f09fd40	0.53902054
162	0xbe062043	-0.13098244
163	0x3f247f1f	0.6425647
164	0xbfa9627c	-1.323318
165	0x3f377c2c	0.71673846
166	0xbf01fdb2	-0.50777733
167	0x3d0a498a	0.03376154
168	0xbf939c65	-1.1532103
169	0x3e41c71a	0.18923607
170	0xbf50186f	-0.8128728
171	0x3e8f6d76	0.280132
172	0x3f22e810	0.6363535
173	0x3f3149ac	0.6925304
174	0xbef1c616	-0.4722144
175	0xbef8e401	-0.48611453
176	0xbfb76e58	-1.4330549
177	0x3f1937d9	0.5985084
178	0xbf0d11de	-0.5510539
179	0xbf378247	-0.7168316
180	0xbe2f060a	-0.17092147
181	0xbeae8cf6	-0.3409192
182	0xbeb4246b	-0.35184035
183	0x3d2472f7	0.0401487
184	0xbf5f12c7	-0.87138027
185	0x3f719ae6	0.9437698
186	0xbdb737ef	-0.08946215
187	0x3f4184ae	0.7559308
188	0xbea951df	-0.33070275
189	0xbeda0fa3	-0.42590055
190	0xbf24dd4f	-0.6440019
191	0xbddd4aae	-0.1080526
192	0xbd857e30	-0.06518209
193	0x3e3c862b	0.18410556
194	0xbf0b074c	-0.5430801
195	0x3db22f9f	0.08700489
196	0x3ef6f98c	0.48237264
197	0xbe4ad0c7	-0.19806205
198	0x3ebb3f3a	0.36571676
199	0xbdfa4416	-0.122200176
200	0xbf22c725	-0.6358512
201	0x3f07c295	0.53031284
202	0xbf5fb154	-0.87379956
203	0xbefed5d9	-0.49772528
204	0xbfb65e26	-1.4247482
205	0x3f8dfdfe	1.1093137
206	0x3ec7426d	0.38917866
207	0x3dbfc663	0.09364011
208	0xbe90b907	-0.28266165
209	0xbcd4e66d	-0.025988782
210	0xbf172902	-0.5904695
211	0xbeb1f25a	-0.34755212
212	0xbe58b816	-0.21163973
213	0xbf67bf6b	-0.90526456
214	0x3ea866d5	0.32890955
215	0x3f4b6aaa	0.7945963
216	0x3eb8739a	0.36025697
217	0x3eb3f60e	0.35148662
218	0xbf4c6a19	-0.7984939
219	0xbdf5193a	-0.11967702
220	0x3d9c091b	0.07618924
221	0xbeb91e47	-0.36155912
222	0xbf22ce64	-0.6359618
223	0xbe873b80	-0.26412582
224	0xbe6b1699	-0.22957839
225	0xbe6006a9	-0.2187754
226	0xbf1a90de	-0.603773
227	0x3e52d9fe	0.2059097
228	0x3cfcee68	0.0308754
229	0xbea56606	-0.323044
230	0x3e427e0e	0.18993399
231	0x3ed44b04	0.41463482
232	0x3f0b8de5	0.5451339
233	0xbf1e3beb	-0.6181018
234	0xbf148127	-0.5800957
235	0xbe0ff30b	-0.14057557
236	0x3e8cd4f5	0.27506223
237	0xbf32c92c	-0.69838214
238	0x3eaea018	0.34106517
239	0xbafdba7d	-0.0019357946
240	0x3e0176b3	0.12642936
241	0x3b337dd0	0.0027388223
242	0xbe8f68b8	-0.28009582
243	0xbf439df0	-0.7641287
244	0x3f4e1bd3	0.80511206
245	0x3ed41dc1	0.4142895
246	0x3eca7d9c	0.39548957
247	0x3e728df7	0.23686968
248	0x3ef6bd51	0.48191312
249	0xbf9b4d40	-1.213295
250	0xbf146872	-0.5797187
251	0x3eed739b	0.46377262
252	0xbe02439e	-0.12721106
253	0xbe6ad1d4	-0.22931606
254	0x3d8b8327	0.06812125
255	0x3ee1ab81	0.4407616

b2 f4 [10]
0	0xbd91e68e	-0.07124053
1	0x3e547999	0.20749511
2	0xbde3eadb	-0.111287795
3	0xbeb6f7b5	-0.3573586
4	0xbb84c79e	-0.0040521165
5	0x3ded63a3	0.1159127
6	0xbd8f7829	-0.070053406
7	0x3d0cf840	0.034416437
8	0x3ad081d5	0.0015907834
9	0x3e27d789	0.16390814
