neural_net/mnist_mlp_weights.npz (npz, 102766 bytes, 4 tensors)

W1 (column-major) f4 [32, 784]
0	0xba779137	-0.0009443941
1	0xbde9deb2	-0.11419429
2	0xbcb6842c	-0.022279821
3	0x3cf396b7	0.029734952
4	0x3d2a0867	0.04151192
5	0xbdbc9eec	-0.092099994
6	0x3ce08a79	0.027409779
7	0x3d89a8a4	0.06721619
8	0x3d26bf95	0.04071005
9	0xbbcbf54f	-0.0062243114
10	0xbbfcde2e	-0.0077169156
11	0x3c67e3ca	0.01415343
12	0xbcb48cd5	-0.02203981
13	0x3d5da111	0.054108683
14	0xbccd1360	-0.025033653
15	0x3dc1bb32	0.09459533
16	0x3d412092	0.047150202
17	0xbdb90094	-0.090333134
18	0xbcb95416	-0.022623103
19	0xbd46e107	-0.048554447
20	0xbd24c558	-0.040227264
21	0x3da9e2b2	0.08295192
22	0xbc157260	-0.009121507
23	0x3cc266f6	0.023730736
24	0xbbfd5649	-0.0077312333
25	0x3db13e47	0.086544566
26	0xbc049d98	-0.008094214
27	0xbd1d3f01	-0.038390163
28	0x3d100e1f	0.035169717
29	0xbb4ff5af	-0.0031732132
30	0x3b9fb64d	0.004874027
31	0xbc8e1a49	-0.017346518
32	0xbcd95ab9	-0.026532518
33	0x3bd54ae4	0.006509172
34	0x3d8829db	0.06648608
35	0x3bfcddc3	0.0077168657
36	0xbdafa95c	-0.085772246
37	0x3d81d123	0.06338718
38	0x3cd87375	0.026422242
39	0x3d535225	0.05159201
40	0xbd430936	-0.047616206
41	0x3ada242c	0.001664286
42	0xbdc0ce2e	-0.09414326
43	0xbd32b488	-0.0436292
44	0x3d69e0dd	0.057099212
45	0xbcb41ec6	-0.02198733
46	0xbb38b396	-0.0028183213
47	0x3da3e33a	0.080023244
48	0x3cfe0e54	0.031012692
49	0xbd05439a	-0.032535173
50	0xbc7bdd5d	-0.015372601
51	0xbc5b4caf	-0.013384982
52	0x3b711f5a	0.0036792369
53	0x3c3dfb06	0.011595493
54	0xbd80b5ac	-0.06284651
55	0x3dc2b4c8	0.095071375
56	0x3dc11563	0.09427907
57	0xbd9dbdc8	-0.077022135
58	0xbdce3301	-0.10068322
59	0xbd747797	-0.059684362
60	0x3d2bff91	0.041991774
61	0x3d660e43	0.056165945
62	0x3d85359a	0.06504364
63	0x3ce69ba8	0.028150395
64	0x3d02b7bb	0.0319135
65	0x3d694a22	0.056955464
66	0xbd5fb633	-0.054617118
67	0x3c2448bd	0.010027108
68	0x3c179524	0.0092518665
69	0x3cff6d2d	0.031179989
70	0x3c6f6ed7	0.014613829
71	0x3caed5b6	0.02134214
72	0x3d62f0dd	0.055405486
73	0xbc4e6145	-0.012596433
74	0xbc56424f	-0.013077333
75	0x3d912af6	0.07088272
76	0x3ce93a23	0.028470105
77	0x3cdcc162	0.02694768
78	0xbd17a2d1	-0.03702051
79	0x3cd26cd0	0.025686651
80	0xbd2d14f0	-0.042256296
81	0x3d0c7f04	0.03430082
82	0x3d1e39ab	0.038629215
83	0x3d15f679	0.036612008
84	0xbd0df1dc	-0.034654483
85	0x3c2b659a	0.010461235
86	0xbd94aa4e	-0.072590455
87	0xbc00aaef	-0.007853254
88	0x3bceed5a	0.0063149156
89	0x3db11634	0.08646813
90	0xbd7f8fc0	-0.06239295
91	0xbcabf681	-0.020991566
92	0x3d001816	0.03127297
93	0x3c12e67e	0.008966086
94	0x3d0b03f3	0.033939313
95	0xbcaaf6ba	-0.020869602
96	0x3d3f6117	0.04672345
97	0x3a0786c1	0.0005169921
98	0x3d33fae6	0.043940447
99	0x3d714779	0.058906052
100	0xbd8e5c21	-0.06951166
101	0xbdb69b7b	-0.08916374
102	0x3d4e94c3	0.05043484
103	0x3d980b21	0.07423998
104	0xbd5d50d3	-0.054032158
105	0x3d653211	0.05595595
106	0x3b881713	0.0041531413
107	0xbd07cc0b	-0.033153575
108	0x3cf30db6	0.029669624
109	0xbc05df6b	-0.008170943
110	0x3d7d78d3	0.061882805
111	0xbc4595ab	-0.012059609
112	0x3cd81765	0.026378343
113	0xbba59882	-0.0050535807
114	0xbcd53c14	-0.026029624
115	0xbbd9d260	-0.006647393
116	0x3d5c0b35	0.053721625
117	0xbc1d7939	-0.009611421
118	0xbde847b1	-0.11341799
119	0x3d63913d	0.055558432
120	0x3d3f9d61	0.046780948
121	0xbc573ef4	-0.013137568
122	0xbda4952d	-0.080362655
123	0xbcc21d8f	-0.023695735
124	0x3d92a59f	0.07160496
125	0x3d890723	0.06690814
126	0xbcee6192	-0.02909926
127	0xbd99c6e8	-0.075086415
128	0x3d9e005c	0.07714912
129	0x3da5e7f3	0.081008814
130	0x3c9448d4	0.018101133
131	0x3d2dcb64	0.042430297
132	0xbcec31b6	-0.028832298
133	0xbb4b798b	-0.0031047787
134	0xbcd9c42c	-0.0265828
135	0x3d658858	0.05603823
136	0x3c5bf7ee	0.01342581
137	0xbdb91336	-0.09036867
138	0x3d373f93	0.044738363
139	0x3cc992b8	0.024606094
140	0xbd20b2e6	-0.03923311
141	0x3ce3d4d1	0.02781144
142	0x3db43eb7	0.088010244
143	0x3ca97562	0.020685855
144	0xbd1449da	-0.036203243
145	0xbd6e384b	-0.058159154
146	0x3d901d61	0.070368536
147	0x3bd9b9ec	0.006644478
148	0xbac01e48	-0.0014657462
149	0x3dc934cd	0.09824524
150	0x3cdb5ca1	0.026777567
151	0x3b95c5da	0.004570705
152	0xbd61cb3f	-0.05512547
153	0xbd89505c	-0.067047805
154	0x3cdf0823	0.02722556
155	0xbd1ec3b0	-0.03876084
156	0xbd33225a	-0.043733932
157	0x3d9e53fb	0.07730862
158	0x3cd99011	0.026557954
159	0x3d63a4f7	0.055577245
160	0x3ceab8e0	0.028652608
161	0xbda93744	-0.08262494
162	0xbd6a2e83	-0.057173263
163	0xbcfd9894	-0.030956544
164	0xbd067110	-0.03282267
165	0xbdb5fb54	-0.08885828
166	0x3c6a207a	0.01428997
167	0x3caf4c52	0.021398697
168	0x3de46854	0.111527115
169	0xbdbb5f25	-0.09149007
170	0xbd8a7566	-0.06760673
171	0xbcb23184	-0.021752127
172	0x3c980dd6	0.018561285
173	0x3da54628	0.08070022
174	0xbd257bc1	-0.040401224
175	0xb90e365c	-0.00013562426
176	0x3b8935f1	0.0041873385
177	0xbc851d3c	-0.016249292
178	0xbd11e8b8	-0.03562233
179	0xbdc7bebf	-0.09753179
180	0x3af1f523	0.0018459897
181	0x3bbd7b20	0.0057825
182	0xbc9c555f	-0.019083677
183	0xbd2c8235	-0.042116363
184	0x3c9b83cc	0.018983744
185	0xbcd414f2	-0.025888894
186	0xbd5a4292	-0.053286143
187	0xbbed7ae5	-0.007247316
188	0xbd9521cb	-0.07281836
189	0xbd012b04	-0.031535164
190	0xbc3104f2	-0.010804402
191	0x3d9cb938	0.07652515
192	0xbc5f465a	-0.013627613
193	0x3dbcc731	0.0921768
194	0xbd3ab947	-0.04558685
195	0x3d665257	0.05623087
196	0x3c9b953c	0.018992059
197	0xbd0bc7f0	-0.034126222
198	0x3dcd320a	0.1001931
199	0x3bb4378b	0.0054997853
200	0xbd977106	-0.073946044
201	0xbc094e86	-0.008380538
202	0x3d2f7ff2	0.042846628
203	0xbd4a3a7c	-0.04937218
204	0x3dc30f89	0.095244475
205	0x3d557c95	0.052120764
206	0x3d65f6bc	0.056143507
207	0x38608926	5.353349e-05
208	0x3d94ab30	0.07259214
209	0x3c90317e	0.017601725
210	0x3d040173	0.032227945
211	0xbb5a36bb	-0.0033296782
212	0xbd8a3dd5	-0.06750075
213	0xbd81e950	-0.06343329
214	0xbc47117d	-0.012150166
215	0xbd952b9e	-0.0728371
216	0xbcf2417a	-0.029572237
217	0x3d6f3c51	0.05840713
218	0xbc91a9f0	-0.017781228
219	0x3d114eac	0.035475418
220	0xbbd09ad7	-0.0063661146
221	0x3cccff43	0.025024062
222	0xbc74ca87	-0.014940864
223	0xbc9b96b5	-0.018992761
224	0x3d4ae237	0.04953214
225	0xbd34bbf7	-0.04412457
226	0x3c489453	0.0122423945
227	0xbd7433db	-0.059619766
228	0xbcc13f48	-0.023589745
229	0xbd930722	-0.07179095
230	0x3bd828ef	0.0065966765
231	0xbd5c4e95	-0.05378588
232	0x3dbf50ac	0.09341559
233	0xbdcc0286	-0.09961419
234	0x3d8705f7	0.065929346
235	0xbd3d22e2	-0.046175845
236	0x3dd95ddd	0.10613606
237	0x3c5f057e	0.013612149
238	0xbc3ed208	-0.011646755
239	0xbc364f57	-0.0111273145
240	0x3dcab7ca	0.09898336
241	0xbd715e59	-0.058927868
242	0xbcd71aea	-0.02625795
243	0x3d0d9e1d	0.034574617
244	0x3d519e6a	0.051176466
245	0xbd225b7a	-0.03963802
246	0x3cb7b4da	0.022425104
247	0xbd326b69	-0.043559466
248	0xbc6a5b97	-0.014304063
249	0x3ddb61a9	0.107119866
250	0x3d8b6982	0.068072334
251	0x3da3fafb	0.08006855
252	0x3cf9ba19	0.030484246
253	0x3ce95c20	0.028486311
254	0x3cacfb45	0.021115908
255	0xbd3c23dc	-0.045932636

b1 f4 [32]
0	0xbd978a42	-0.073994175
1	0xbcb814d6	-0.022470873
2	0x3e2f74f3	0.17134456
3	0x3e8a7db6	0.27049035
4	0xbe224e63	-0.15850215
5	0xbeb71705	-0.3575975
6	0x3e22d093	0.15899877
7	0x3c40e5d8	0.011773549
8	0x3d50cd70	0.05097717
9	0x3e0cec22	0.13761953
10	0xbdf2303c	-0.11825606
11	0xbe8969fe	-0.26838678
12	0xbdfb639d	-0.12274859
13	0x3dabc660	0.083874464
14	0x3d9e825e	0.07739709
15	0x3e8a7e51	0.27049497
16	0x3e1b9899	0.1519493
17	0xbe9576c5	-0.29192176
18	0xbebfbb83	-0.37447748
19	0xbe17f068	-0.14837801
20	0xbe7e4a9a	-0.24833146
21	0x3e7be5ac	0.24599332
22	0x3de2e052	0.11077942
23	0xbe00fb8c	-0.12595958
24	0x3bd64449	0.006538902
25	0x3ee9b7dd	0.4564809
26	0x3e32f273	0.174753
27	0xbd5d7180	-0.05406332
28	0x3d0f330d	0.034960795
29	0x3edc1f09	0.42992428
30	0xbe64dcaf	-0.22349809
31	0x3caf2798	0.021381184

W2 (column-major) f4 [10, 32]
0	0x3db67718	0.08909434
1	0xbf110a34	-0.56656194
2	0xbe843099	-0.25818327
3	0x3c47decd	0.012199116
4	0xbe9a329a	-0.3011673
5	0xbdbf9693	-0.09354892
6	0x3e7f67c5	0.24941929
7	0x3f0807fa	0.5313717
8	0x3e5321f1	0.20618416
9	0x3e7557ba	0.23959246
10	0xbf0d2f67	-0.55150455
11	0x3f154f87	0.58324474
12	0xbf4c739d	-0.7986391
13	0x3f13fd81	0.5780869
14	0x3e93acc0	0.28842735
15	0xbf6e117c	-0.9299543
16	0x3e973b2e	0.29537338
17	0x3e9abaf2	0.30220753
18	0xbf6b691b	-0.91957253
19	0x3e022032	0.12707594
20	0xbe2eb366	-0.17060623
21	0x3de76379	0.1129827
22	0xbed92114	-0.4240805
23	0x3ec5ffc9	0.3867171
24	0xbe995580	-0.29948044
25	0xbaa97310	-0.0012927968
26	0xbe963468	-0.29336858
27	0xbe6e9ece	-0.23302767
28	0x3ef06d02	0.46958166
29	0xbe738244	-0.23780161
30	0x3e5214b4	0.2051571
31	0x3f56a306	0.83842504
32	0x3e7123cc	0.23548812
33	0xbf72b480	-0.9480667
34	0x3f320470	0.6953802
35	0x3f04f2ab	0.5193278
36	0x3ea74037	0.3266618
37	0xbc23118d	-0.009952915
38	0x3e081bac	0.13291806
39	0xbf7c0337	-0.98442405
40	0x3e3043fc	0.17213434
41	0x3e76e666	0.24111328
42	0x3f268426	0.6504539
43	0xbe0fa563	-0.14027934
44	0xbfe2fb7a	-1.7732995
45	0x3e6a0930	0.22855067
46	0x3ea2d70d	0.31804696
47	0xbf0bbf66	-0.54588926
48	0x3db31b59	0.087454505
49	0xbf477499	-0.7791229
50	0x3f783631	0.9695769
51	0xbeb731b5	-0.3578011
52	0x3d8378db	0.06419536
53	0xbdfd20a5	-0.12359742
54	0xbeebde76	-0.46068162
55	0xbfbbab61	-1.4661676
56	0x3f2a4d72	0.6652442
57	0x3d9e6264	0.0773361
58	0x3f0dc92a	0.55385077
59	0xbefc56f0	-0.49285078
60	0x3e102578	0.14076793
61	0x3eccaa24	0.39973557
62	0x3f27e1dd	0.65579015
63	0xbee8c572	-0.4546314
64	0xbd51f56e	-0.05125945
65	0xbf4a2aea	-0.7897173
66	0xbf9ca1b4	-1.2236848
67	0x3efdf93b	0.4960421
68	0xbf3b4470	-0.731513
69	0x3e7b3570	0.24532104
70	0xbdfa095c	-0.122088164
71	0xbf04fe7c	-0.5195081
72	0x3e92c502	0.2866593
73	0x3f47eab6	0.78092515
74	0x3db6cd33	0.089258574
75	0x3f336abc	0.7008474
76	0x3e637811	0.2221377
77	0xbf935e1f	-1.1513098
78	0xbeb8af6a	-0.3607133
79	0xbf1c511c	-0.61061263
80	0xbf23fad7	-0.64054626
81	0x3ed0f6fa	0.40813428
82	0xbe83eb7a	-0.25765592
83	0x3d625666	0.055258177
84	0x3f1d2e4e	0.6139878
85	0xbfbd1782	-1.4772799
86	0xbf87cf99	-1.0610229
87	0xbe909d41	-0.28244975
88	0x3e88ccb5	0.2671868
89	0x3e2f230e	0.17103216
90	0x3f0b4137	0.54396385
91	0x3eeac9ee	0.45857185
92	0xbeca3021	-0.39489844
93	0xbe274e69	-0.16338505
94	0x3f06d1ed	0.5266407
95	0xbc3a0dbe	-0.011355815
96	0xbe87a053	-0.26489505
97	0x3f8b3276	1.0874774
98	0xbf5aeb59	-0.8551536
99	0xbe5df126	-0.21674022
100	0xbd5da517	-0.05411252
101	0x3bc2f287	0.0059493217
102	0x3f238037	0.63867515
103	0x3ef0b248	0.47011018
104	0xbfb351ca	-1.4009335
105	0x3eda9462	0.42691332
106	0xbf9f28b5	-1.2434298
107	0xbf4aae0a	-0.7917181
108	0xbfb32bc9	-1.3997737
109	0x3efe0216	0.49610966
110	0x3dd20e4d	0.10256634
111	0x3ecd7b09	0.4013293
112	0x3e9556ba	0.2916773
113	0xbd7c1480	-0.061542988
114	0xbeac43e8	-0.33645558
115	0xbede8b2c	-0.43465555
116	0x3ef5fae3	0.48042974
117	0x3f3699f7	0.7132868
118	0x3e496d1b	0.19670527
119	0xbfaadbed	-1.3348366
120	0x3e91fed8	0.28514743
121	0xbea7f5e7	-0.32804796
122	0xbe827478	-0.25479484
123	0x3f009fde	0.5024394
124	0xbf6566cb	-0.89609975
125	0x3e8d6da9	0.27622727
126	0xbf5f186e	-0.8714665
127	0x3ee3e4b1	0.44510415
128	0xbf097446	-0.53693044
129	0xbc1b8ead	-0.009494466
130	0xbdf468f0	-0.11934078
131	0x3e8634f0	0.26212263
132	0x3f2a049e	0.66413295
133	0xbfc12d83	-1.5092014
134	0x3f00bd09	0.50288445
135	0xbf46600a	-0.77490294
136	0x3eb3c568	0.35111547
137	0x3f252766	0.6451324
138	0x3e8f62cc	0.28005064
139	0x3e0a38b7	0.13498197
140	0xbea23ef0	-0.31688643
141	0xbf9c24ed	-1.2198769
142	0x3dd314aa	0.10306676
143	0xbd8a81e4	-0.06763056
144	0x3ef3d36d	0.47622243
145	0xbe603825	-0.21896417
146	0x3a07df54	0.000518312
147	0x3c599cbd	0.013281998
148	0x3b7ca9da	0.0038553388
149	0x3d2a7f3f	0.041625258
150	0xbe889fa3	-0.26684293
151	0xbfa27e8e	-1.2694871
152	0x3ece0761	0.40240005
153	0xbe1311e1	-0.14362289
154	0xbd10cbc6	-0.035350583
155	0x3f6c3efa	0.92283595
156	0x3e7f9732	0.2496002
157	0x3f351647	0.7073712
158	0xbe117415	-0.14204438
159	0xbf93b0fb	-1.1538385
160	0xbc95a6ed	-0.018268073
161	0x3ed14a7b	0.40877137
162	0x3d9baf82	0.07601835
163	0xbea14674	-0.31499064
164	0xbe930460	-0.28714275
165	0xbea4ab99	-0.3216217
166	0x3f162821	0.5865498
167	0xbf85dcf9	-1.045806
168	0x3ead77a6	0.33880347
169	0x3e25ed0a	0.16203704
170	0x3f043f16	0.5165876
171	0x3e797b35	0.24363406
172	0x3ea1b7dd	0.3158559
173	0xbec560f8	-0.38550544
174	0x3e94cd9b	0.29063115
175	0xbe9bebfa	-0.30453473
176	0x3e4af47a	0.19819823
177	0xbf5ace6f	-0.8547124
178	0xbf3912e2	-0.7229444
179	0x3f12c12d	0.5732601
180	0xbcab647f	-0.020921944
181	0x3f20e4bd	0.62849027
182	0x3f1e83f2	0.6192008
183	0x3ec40111	0.38282064
184	0x3f3036f5	0.6883386
185	0xbfc525eb	-1.5402197
186	0xbf482328	-0.78178644
187	0xbe3edbe6	-0.18638572
188	0xbe5864ad	-0.21132155
189	0x3d219c5f	0.039455768
190	0x3e37ef8b	0.17962472
191	0xbf3bce8f	-0.7336206
192	0xbe8d1901	-0.2755814
193	0x3e3e26bd	0.18569465
194	0xbd784a78	-0.060617894
195	0x3bb871bb	0.005628792
196	0xbf51c2be	-0.8193778
197	0xbf31b569	-0.69417435
198	0x3ed70cd8	0.42001987
199	0x3ed335e1	0.41252044
200	0x3f0b0d7b	0.54317445
201	0xbf3c1092	-0.73462784
202	0x3f0628fc	0.5240629
203	0x3dfe3381	0.12412167
204	0xc0061f1a	-2.0956483
205	0xbe79d169	-0.2439629
206	0xbf12710e	-0.5720376
207	0x3f21c3bd	0.631893
208	0xbddf2bc3	-0.10897019
209	0x3caa436f	0.020784108
210	0x3c9e1aa9	0.019299822
211	0xbf8de13b	-1.108436
212	0x3e8a96f9	0.27068308
213	0xbe929300	-0.28627777
214	0xbf8f5e92	-1.1200736
215	0x3f4abfbd	0.7919882
216	0xbd1fb3fb	-0.038990002
217	0x3f002051	0.5004931
218	0xbe3971aa	-0.18109766
219	0x3e32f83c	0.17477506
220	0xbcc42760	-0.023944557
221	0x3e925222	0.28578287
222	0xbf8faa72	-1.1223891
223	0xbf0645bc	-0.52450156
224	0x3ea588f9	0.32331064
225	0x3f4e0b5c	0.80486083
226	0x3e4b8db5	0.19878276
227	0xbe933cc0	-0.28757286
228	0xbef08ea8	-0.46983838
229	0xbf1423bd	-0.5786703
230	0x3f1dd8f2	0.6165916
231	0x3e1c6dea	0.15276304
232	0xbedd12df	-0.4317846
233	0xbef46805	-0.4773561
234	0x3e9cec60	0.3064909
235	0xbe9e73e3	-0.3094779
236	0x3edc411f	0.43018433
237	0x3ddd80b0	0.10815561
238	0xbfb5345f	-1.4156607
239	0x3f0c44de	0.54792583
240	0xbe8f55a1	-0.27995017
241	0xbf89510e	-1.0727861
242	0x3d8cdf46	0.068785235
243	0x3ee2b58b	0.4427913
244	0xbf8c12b0	-1.0943203
245	0x3f4c8735	0.7989381
246	0x3ee65fcf	0.4499497
247	0x3df935e8	0.12168485
248	0x3df343ad	0.118781425
249	0x3f23d7a7	0.64000934
250	0xbf2cad54	-0.6745198
251	0x3eeee60b	0.46659884
252	0xbfa27b0c	-1.2693801
253	0xbe55354f	-0.20821117
254	0x3e073317	0.13203083
255	0x3f246f82	0.6423265

b2 f4 [10]
0	0xbefa6b3b	-0.48909935
1	0x3e909f23	0.28246412
2	0xbe561dd0	-0.2090981
3	0xbe3567e2	-0.1771541
4	0xbda3c853	-0.07997193
5	0x3ec7bd88	0.39011788
6	0xbdbc6cdb	-0.0920045
7	0xbcaea289	-0.021317737
8	0x3e0ffbce	0.140609
9	0x3e4ebf49	0.20190157
