neural_net/mnist_mlp_weights.npz (npz, 102766 bytes, 4 tensors)

W1 (column-major) f4 [32, 784]
00000000: d97d 173d 0da7 763d b727 c3bd 20d6 99ba
00000010: b090 0f3c f9a0 72bc 5059 803c 3249 8c3d
00000020: 2f3f 363d 7456 913a d0b1 a4bc be28 69bd
00000030: d0c9 e1bc b832 483c 7f55 e33a cd85 a6bc
00000040: 5bc8 0d3d 6f74 f7bc d32b 8fba ce39 023d
00000050: be02 893d 0b9c 8c3d f1f2 bcbb d4ba 02bd
00000060: e696 db3b 3d71 993c 3ee5 55bd ddc8 833c
00000070: 83e1 b13d d7bd 813d eb88 5e3b 454b c2bc
00000080: 6c23 d23b 3d63 983d b745 893d 9960 d3bd
00000090: 89c2 1abd 835d 373b 627c 8d3d 2d72 4b3d
000000a0: 56b9 9cbb 7c8c a83c 90ba 8f3b f5dc db3d
000000b0: 4d01 ff3c 6a85 97bd ae05 c33b bd81 823d
000000c0: b347 483d 6f44 7e3d 4cc4 553b 28e8 96bd
000000d0: e92a 2a3d e4e6 2bba d092 9dbc 5e53 0fbd
000000e0: cf2b 4dbd 4ff1 02bc bbd9 1cbc 1673 8dbd
000000f0: bd24 33bb c22d f33c 3544 853c 8798 9a3d
00000100: 9533 afbc b0fc ef3b 5b43 c7bd 1c84 b83d
00000110: f1f9 63bd 0a40 c1bd cd59 80bc 8a2f d23d
00000120: 0dcc 42bd 1d93 883b bf92 4c3d 0465 9a3d
00000130: bbcd 833c 5c45 c83a f7f3 093d a1bb d03b
00000140: 454d 09bd b07a 003d c6d6 2cbd cb68 cdbc
00000150: 3c82 513d 8912 c6bb c566 0ebd c9b1 a8bd
00000160: 1d7f b33d 64bb a23d 75be 89bd 84dc 40b9
00000170: 91e0 fabc 9d5d 0fbd 5ac9 43bd a339 343c
00000180: 2281 9e3d 5530 abbd 4c70 ee3c 8c64 f4bc
00000190: 04ef 503c 8126 a13d c9f4 0f3d bfdf dc3d
000001a0: f0cc 153d 53cf f0bc a207 adbd dc00 83bc
000001b0: bae7 d03c e035 9cbd 6315 e6bc d826 a2bd
000001c0: f8a2 cebd f3ff 353c b210 2e3c 452d 0d3d
000001d0: 74d0 0fbd 9757 a53d e2c5 153d 9ea0 a5bc
000001e0: 50b8 b73c ae6d 52bd 9d34 9cbd 802f 323d
000001f0: 506b f63c 37fb c63d f02f 653d ee91 653d
00000200: 68c0 763c 17cb 783c 68de 9d3c a11d f1bc
00000210: 3160 e0bc 065b 39bc ed2b 873c 512e f4bb
00000220: 5fdd 783c f2d9 853c b152 ff3c 2dcc bf3c
00000230: 36ad 683d 369c acbc 9fba c03d 9caa 8a3b
00000240: d272 2a3d 6039 82bc e44f 803b 06e4 133d
00000250: 76f8 0f3d 4a8d 53bd 1b6f acbd 6c31 88bd
00000260: fe30 163d 870d f7bc b4d8 ddbc 9764 dcbc
00000270: 8a27 1e3d a9c9 61bd 2a55 b43b 34b9 aabd
00000280: 966f 92bd 72bd c53c 1448 a53a 1a66 d1bd
00000290: ba6f 18bc d54d 5e3b dddf 633d 81b0 4e3d
000002a0: d48b a9bb 88dd 2b3d b404 993d 2f16 e1bd
000002b0: f071 aebc c460 b5bd 78d3 413d 93ed 3abd
000002c0: c596 bebd 941f ce3b fc52 89bd 8950 85bd
000002d0: cce3 d1bd 6282 1b3d 2d0e 18bc 0ea9 123d
000002e0: cd9b 7cbd af1a 23bc 6666 5abd 8543 ca3d
000002f0: 2ff2 b0bd 9d9b 93bb 4859 d4bc 86aa 813d
00000300: ad3a 05bd a3cd 8abd 4f9a 80bc 2289 693c
00000310: 9693 c3bd f5e7 923d bd57 813d 605c 6d3d
00000320: 3ce0 a2bc da55 7bbd f3cd 01bd 1c34 bd3d
00000330: b805 53bd 78e6 51bd a5a0 acbc 2a2c 703d
00000340: 9c51 413d 81aa 913b d8c6 ce3c dacf c9bc
00000350: b9ac a9bd 0e35 053d a7c9 583c 7b25 64bd
00000360: d4dd ab3a a944 5fbd 3cc4 b83c 3441 893d
00000370: 43b9 b93c ce0d 973c 127e a6bc c52b 843c
00000380: c25f 3bbc 9691 6cbc 7ed0 843d 7545 cfbc
00000390: 7524 863d c75c 1cbd ebc1 51bd 414b 3abd
000003a0: 0f91 c33d 159e 533d 89e5 983a f0d9 dcbc
000003b0: 40d5 91bd 86f8 4e3d 2439 bc3d 40f4 a83d
000003c0: edaa af3d 7c2c 4fbd 1c3f 8f3d 20c0 563d
000003d0: 85e2 8f3c aeba 863c 048e cf3b 6897 0b3d
000003e0: 22cf d7bd bd00 7d3d b44d 3cbc 92d4 8ebd
000003f0: 9b13 2cbd 9201 c7bd 0423 233d 5646 943c
0.036985252 0.060217906 -0.095290594 -0.0011736788 0.0087625235 -0.014808887 0.015667588 0.068498984
0.04449385 0.0011088387 -0.020104319 -0.05692362 -0.027562052 0.012219124 0.0017344205 -0.020327473
0.034614902 -0.030206887 -0.0010923095 0.031793408 0.06689976 0.068657 -0.0057662656 -0.031916454
0.006701338 0.018730754 -0.052220576 0.01608699 0.08685591 0.06335037 0.0033956121 -0.023717532
0.006412914 0.07440803 0.0670275 -0.10321159 -0.03778318 0.0027979321 0.0690849 0.049669433
-0.004782836 0.0205748 0.0043862537 0.107355036 0.03112855 -0.073984936 0.005951605 0.06372402
0.048896503 0.062076982 0.0032618223 -0.07368499 0.04154483 -0.00065575377 -0.019235045 -0.034991615
-0.050090607 -0.007992103 -0.009573395 -0.069067165 -0.002733513 0.029684905 0.016267875 0.075486235
-0.0213869 0.007323824 -0.09729644 0.09009573 -0.055658285 -0.094360426 -0.01566782 0.102629736
-0.04755788 0.004167928 0.049944635 0.075387985 0.01608931 0.001527946 0.03367993 0.0063700234
-0.033520956 0.031367004 -0.04219701 -0.025074383 0.05114959 -0.00604469 -0.034765977 -0.08237035
0.08764479 0.07945898 -0.0672578 -0.00018392695 -0.03062466 -0.035001386 -0.047799446 0.01100007
0.07739474 -0.08358828 0.029106282 -0.0298331 0.012752298 0.07868672 0.035145555 0.10784864
0.036572397 -0.029395735 -0.084487215 -0.01599162 0.02550112 -0.07627463 -0.02808637 -0.07917565
-0.100896776 0.011108386 0.010624098 0.034467 -0.035110906 0.08073347 0.03656567 -0.02021819
0.022426754 -0.05137413 -0.07627223 0.04350233 0.030080467 0.09715884 0.05595392 0.056047373
0.015060522 0.015185139 0.01927109 -0.029433073 -0.027389618 -0.011313206 0.016500438 -0.0074518104
0.015189498 0.016339276 0.03116736 0.023412788 0.05680581 -0.02107058 0.09410595 0.004231764
0.041613407 -0.0158965 0.0039157737 0.036106132 0.03514906 -0.051648416 -0.08419629 -0.066500515
0.036667816 -0.030157818 -0.027080871 -0.026903434 0.038611926 -0.05512396 0.0055033164 -0.08336106
-0.071501896 0.024138186 0.0012609982 -0.102245525 -0.009303981 0.0033920903 0.055633415 0.050461296
-0.0051741395 0.041959316 0.074716 -0.10990559 -0.021294564 -0.08856347 0.047320813 -0.045636725
-0.09306101 0.0062903855 -0.06705281 -0.065095015 -0.10248527 0.03796614 -0.0092807235 0.035805754
-0.06167202 -0.009955092 -0.05332031 0.098761596 -0.08639943 -0.0045046345 -0.025921479 0.06331353
-0.03252666 -0.06777503 -0.01569858 0.014253886 -0.09549634 0.071731485 0.06315563 0.057949424
-0.019882314 -0.06136117 -0.03169055 0.09238455 -0.051519126 -0.051245183 -0.021072695 0.058635868
0.04719697 0.0044453745 0.0252413 -0.024635244 -0.08284897 0.0325213 0.013231671 -0.055699807
0.0013112375 -0.05450884 0.02255451 0.0670189 0.022671347 0.0184392 -0.020323787 0.016134152
-0.011436405 -0.014439007 0.06485079 -0.025301674 0.065499224 -0.038174417 -0.051210325 -0.045481924
0.09549152 0.05166443 0.0011665086 -0.02695939 -0.07120752 0.05052998 0.09190586 0.08249712
0.085775234 -0.050579533 0.06994459 0.05242932 0.017564068 0.016446438 0.0063340683 0.03407994
-0.10537554 0.061768282 -0.011493135 -0.06974138 -0.042010885 -0.097170964 0.039828315 0.018099945

b1 f4 [32]
00000000: b6aa 89be 60b9 5fbd 2eee e1bc 2bce 4c3e
00000010: 11cc 153e 893e 1dbd e307 833d b76e aa3e
00000020: b363 26be ca6e c6be 7c7d 673e ab56 243c
00000030: df3f 4e3e e509 8d3d 7e9f 3a3e 317d c43d
00000040: 8327 a03e d082 213e 6bc9 b63c 481f fdbd
00000050: 1d58 13be e7e6 c5bc 0d35 11be 0227 333e
00000060: 4eba debc bb4c bcbe 18ed 1c3e dc1b ccbd
00000070: f7b1 e73e 7651 593e 3c90 353e e3b4 9a3e
-0.26888055 -0.054620147 -0.027579393 0.20000522 0.14628626 -0.038389716 0.06397989 0.33287594
-0.1624897 -0.387564 0.22606462 0.010030429 0.20141552 0.06886653 0.18224904 0.09594191
0.31280145 0.15772557 0.02231284 -0.12359482 -0.14389081 -0.024157954 -0.14180394 0.17495349
-0.027188446 -0.3677729 0.15324819 -0.09966251 0.45252964 0.21222481 0.17730802 0.3021613

W2 (column-major) f4 [10, 32]
00000000: 203b 37bf 95a1 75bc 3a3c 03bf af45 363f
00000010: 88a0 43be 91d8 3bbf 4d03 793f cd53 0a3f
00000020: a195 3ebf 21b0 21bf 70c8 0b3f df7b d5be
00000030: cb95 e43e 54ed 2c3e 903f c6bf 8ec5 e23e
00000040: 6b55 763e db7e 5bbf b5b3 d43e 25c3 2ebf
00000050: 3bb3 49bf f366 4f3f facd 713e 04d3 903e
00000060: acbe 663f 0520 77bf afca cfbe 43ec 18be
00000070: b96f 2c3e f930 e6be 21ac 283e 5b32 08be
00000080: e5c8 b6bf d81c 7e3e 2346 1dbe a1cf 253f
00000090: f186 8f3e ca47 dd3d 9def c63d 7241 cb3e
000000a0: 8614 bf3d 47fd 4dbf 5e14 4f3e a6ca a03d
000000b0: 2d81 b53e 0b1e 6e3e 26f2 cd3e ad54 01bf
000000c0: e429 b03e d3f6 803e 1940 29be fc8a b93d
000000d0: 0989 ae3e 67b6 003f 0177 06bd 2bb9 96bf
000000e0: bff1 acbf 4467 1d3f 7796 08bf 0656 11be
000000f0: 25b4 d13e d284 aebf e4dc 473d d73e aa3e
00000100: ae32 77be ffc1 903e 097f 1c3f 7237 14bf
00000110: 6b9b 83be abcb c63e 955d 8abf a112 973e
00000120: bb83 023e 1eef aebe 3e03 193f b6c8 083f
00000130: b08b 63bf e3fd 8d3e 6ea4 c53e a3ca 13bf
00000140: eefc 52bf dfa6 3bbc 9895 893e ec9d 013f
00000150: 7e41 af3e 5a55 ea3d c7f5 e3bf 22b0 e7bd
00000160: ee7d 4f3e d88c a23e f4a8 d73e 73a3 2dbf
00000170: 6332 e63e e945 e33e 7496 f53b f521 25bf
00000180: 32bd 513e 2887 97be b45a 3ebf d1ba db3e
00000190: 3733 c23e 9a82 01bf d33f 83be fa09 59be
000001a0: 821a 943c 02bb 453e 2b7c 75bf 7014 3f3e
000001b0: 240c d03d e34d cc3e 0a50 afbf 0e92 663f
000001c0: c528 74bf 0f87 ab3e 5d36 1d3f 7ec9 ff3e
000001d0: 458d cdbf 67dc 73bf 56b8 9fbf a733 213f
000001e0: c428 88be e7b1 373f d7f1 c63d 026b a2bf
000001f0: cb70 293f c19d c4bd 44b3 67bc eb3c 053f
00000200: e7c4 8bbe 077f fd3e 975e 19bf 22de 293f
00000210: f0a5 44bd 0648 193e 9c74 2fbf 82ec f6be
00000220: ed50 273e 7794 77bf 99a7 b73e 7346 0b3f
00000230: 9095 563e d951 b53e 26c2 0abe 02cb 31bf
00000240: 9a3e 263f a566 06bf 7003 09be 52ed 8fbe
00000250: 1306 8d3e c73e 023f be64 df3e 2d0b 2a3f
00000260: 6698 9d3e 18d7 5bbf 0759 6e3f 037d a2bf
00000270: e5fb 10bf 0ffd 65bc f904 b03d 211c 91be
00000280: 742d eb3e 8245 103e e0d4 053f edd7 6e3d
00000290: 1a14 41bf 7aae b43e 12c9 d63e 997b bcbe
000002a0: 1a07 bc3e f387 0cbf b74d 41bf 6216 483f
000002b0: 8988 523f 3343 c7be 90fa dcbe 6998 a73e
000002c0: 23a4 9ebd 0efb 193f 288a d3be 814d a5bf
000002d0: 091a cebf 7710 73bf f8f9 46bf 90f3 313f
000002e0: 4478 47bf 728d 863f 1bbf 12bf 512e b7be
000002f0: 5659 d2bf f214 5a3e df86 1a3e f3e3 823f
00000300: b14e b73d b46e b63e 62db 813f 19cd 49bf
00000310: 3cd8 3cbe a120 e0be 5171 dabe 8cad 0fbf
00000320: b6d1 4dbf f8d2 0ebc bd54 94bf 583c fa3e
00000330: 72a9 b13e 46ea f83e d90a 2a3e 6dc1 b23e
00000340: 9629 153e e47a 89be b7d2 75be d355 6e3e
00000350: 02f8 11be ca34 923e 9ecd 01be 4bd0 90bf
00000360: 5701 b0bd 0c51 d13e 5abc c93e 92e2 943e
00000370: dce8 a43e 84ef 973e b493 dd3e e6f7 ad3e
00000380: 6796 ecbf 35a1 d5be 973a 1dbf 41ae d23d
00000390: b2c0 103e 99f6 d9be 3875 883d 4463 3ebe
000003a0: c060 1cbf 9535 b63a 2184 13bf cc2a a63e
000003b0: 0adf 29be f3cb 56be 143e d43e 5f84 693d
000003c0: f931 463e c3ff 20bf 368f c63e e01e dc3e
000003d0: 5396 a9bf 5627 2e3f ddc8 5bbf d0fb 013f
000003e0: ee54 34bf 2f0e fbbd 0ac4 603e e949 123b
000003f0: 9a63 93bf 7e4f 5c3e d051 083f 53e7 a5bd
-0.7157459 -0.014992137 -0.51263773 0.7120008 -0.19104207 -0.7337733 0.9727066 0.5403412
-0.74447066 -0.63159376 0.5460272 -0.4169607 0.44645533 0.16887408 -1.5488148 0.44291347
0.24056022 -0.8574044 0.41543356 -0.68266517 -0.7878911 0.81016463 0.2361373 0.28285992
0.9013469 -0.9653323 -0.40584323 -0.14933877 0.16839494 -0.44959238 0.16471912 -0.13300459
-1.4280058 0.2481569 -0.15358786 0.6476994 0.2803264 0.10804708 0.09713671 0.39698368
0.093300864 -0.80464596 0.20222613 0.07851152 0.35450116 0.23253648 0.40223807 -0.5051983
0.3440696 0.25188312 -0.16528358 0.09059712 0.34088925 0.50278324 -0.032828335 -1.1775259
-1.3511275 0.61485696 -0.5335459 -0.14192972 0.40957752 -1.3634284 0.048794642 0.33251068
-0.24140427 0.28273007 0.6113134 -0.578971 -0.25704512 0.3882726 -1.0809809 0.295064
0.12745564 -0.34166807 0.5977057 0.5343126 -0.8888502 0.27732763 0.38602012 -0.57731074
-0.8241719 -0.011453359 0.26871943 0.50631595 0.34229654 0.11442061 -1.780938 -0.113128915
0.20262882 0.3174808 0.42121089 -0.6782753 0.44960317 0.44389275 0.007494742 -0.6450494
0.20482329 -0.29595304 -0.7435715 0.42915967 0.379297 -0.5058991 -0.25634632 -0.21195212
0.018079046 0.19309619 -0.9589259 0.1866014 0.10158566 0.39903173 -1.3696301 0.9006661
-0.9537471 0.3350148 0.61411077 0.49958414 -1.6058737 -0.9525818 -1.247813 0.6296944
-0.26593602 0.7175583 0.09714096 -1.2688906 0.66187733 -0.09600402 -0.014141861 0.5204608
-0.27298662 0.49510977 -0.5990996 0.6635457 -0.048009813 0.14968881 -0.68537307 -0.48227316
0.16339464 -0.96710914 0.35870054 0.5440437 0.20955491 0.35414007 -0.13550624 -0.6945039
0.6493927 -0.52500373 -0.13380218 -0.2811075 0.27543697 0.5087704 0.43631548 0.664233
0.30780333 -0.8587508 0.93104595 -1.26944 -0.5663436 -0.014037385 0.085946985 -0.28341773
0.45933115 0.14089015 0.52277946 0.05831139 -0.754213 0.35289365 0.4195028 -0.36813048
0.36724168 -0.5489494 -0.7550921 0.78159153 0.82239586 -0.38918456 -0.43159914 0.32733467
-0.0774615 0.60148704 -0.41316342 -1.2914277 -1.6101695 -0.94947 -0.7772517 0.6951227
-0.77917886 1.0511916 -0.57322854 -0.35777524 -1.6433513 0.21297053 0.15090512 1.0225815
0.08950556 0.35631335 1.0145075 -0.7882858 -0.18441862 -0.43774894 -0.4266458 -0.56124187
-0.8039812 -0.008717291 -1.158836 0.48874164 0.3469959 0.48616236 0.166057 0.34913197
0.14566645 -0.2685157 -0.24006163 0.23274927 -0.14254764 0.285559 -0.12676093 -1.1313566
-0.085940056 0.40882146 0.39401513 0.2907911 0.32208908 0.29674923 0.4327675 0.33978194
-1.8483399 -0.41724554 -0.61417526 0.102871425 0.14136007 -0.42570952 0.06662983 -0.18592554
-0.6108513 0.0013901467 -0.5762349 0.32454526 -0.16588989 -0.20976238 0.41453612 0.057011005
0.19355 -0.6289026 0.38781136 0.42992306 -1.3249 0.6802877 -0.8585337 0.5077486
-0.7044209 -0.12258565 0.21949783 0.0022321886 -1.1514771 0.21514699 0.53249836 -0.08100762

b2 f4 [10]
00000000: e600 87be bb86 b03d 0e88 223e b4fe 01bf
00000010: b1b8 d33b d7f9 953e 8d0d 0e3e 497e 75bd
00000020: 328e d83d f8b6 ab39
-0.26367873 0.08619448 0.15872213 -0.5077927 0.006461226 0.29292175 0.13872357 -0.059934888
0.105739966 0.00032751984
