neural_net/mnist_mlp_weights.npz (npz, 221638 bytes, 6 tensors)

W1 (column-major) f4 [64, 784]
00000000: 5aeb 86bd fe9a 12bd 024b 28bd 2017 21bd
00000010: 60a6 183d 29f7 0b3c 40f7 c0bc a52e 9e3d
00000020: b98a e53b 2b65 38bd b0a3 2e3d 6f5d 92bd
00000030: 5856 2e3c 5566 803d 2360 873d e6dc 9bbc
00000040: 526a 83bd a13a 89bd 9b3d 873c b2da bebc
00000050: fd22 ea3c 8e57 c43d fc53 84bd ee74 d83d
00000060: 5134 253d 040a 363d 8417 55bd 1edd d2bc
00000070: 3859 553d c68c b53d 3609 bd3b 9831 9f3c
00000080: c696 7e3d e914 b93c cbca 1b3c fc94 d23d
00000090: 1805 bbbc 32f2 4fbd 37a2 1b3c 934c 77bd
000000a0: a870 693c ea86 07bd acd4 3abd 6adf e53b
000000b0: ec48 923d 89ac 05bd 7e96 a13d 4705 f63c
000000c0: 482b 7fbd 5175 c6bc 35a5 833c 71d0 d8bb
000000d0: fa01 9c3c 9f69 1abd 94e9 04bc a16a 01bc
000000e0: 5ad6 4cbd 0f6f a23d d3f2 aabc 2344 e7bd
000000f0: 54d4 3f3d eace 643d fe91 5f3d 2e78 123d
00000100: 6d07 0e3d 3468 353d 5bff d9bd 9043 053d
00000110: 53f9 d53d 16b5 cb39 2116 d53d e757 cebd
00000120: c19e c63b b46e 9d3c 9796 b63b 4175 943d
00000130: a56f 7fbd 2c9f 0dbd 0538 f73c f8e2 c53c
00000140: 5f51 babd 79a7 653c 5379 36bd 51d7 99bd
00000150: f0c9 7f3d 1e21 46bc 18d2 893d e23c 6c3c
00000160: 0ede 213d 16aa 293d 2d23 843c e133 3f3d
00000170: 5ed7 a93d 59b6 a1bc 2907 95bd fe90 6ebd
00000180: 7bc7 d0bc 2ba8 3dbc 9778 76bd 3348 3ebd
00000190: 3407 543d 8358 b2bb abb3 293d aa27 4fbc
000001a0: abcf 8f3d 3be2 59bd 2d22 51bc a1a6 f23c
000001b0: 87ee 2fbd 3138 223d 28ce d53b d490 bd3c
000001c0: 349c 173d 1147 82bd 0406 7fbc a02c 5d3d
000001d0: 31e4 8a3d 18de 8dbd 040c 7cbd afef 4dbd
000001e0: f8a3 03bd ad03 31bd 7ec9 44bc 4c44 20bd
000001f0: 7b44 debc 67e7 88bd c133 ad3d 5eb2 563c
00000200: 6296 703d fa0e c6bd b3e4 e33c a32e 1a3d
00000210: 98b5 9fbd c78a 80bd 2573 703d ae5a f43c
00000220: 91b8 25bd 7aad 8a3c 3254 b13b f7fb c9bd
00000230: fca7 5f3d 688a febc fd81 57bc 3941 05bd
00000240: 04c9 9b3d 0bb6 6a3d be47 a8bc 70be 6fbd
00000250: 324c 1bbd 9c12 00bd b587 28bc 96a1 ee3b
00000260: 6448 7f3d e266 933d 9ea8 473d 7ee5 e4bc
00000270: 7752 c43d c720 c2bc 30a4 8d3d 12a1 103d
00000280: 8e4c 4bbd 7754 683d df71 983c 965c 3fbc
00000290: 8e1d 203d a2da f13b 3158 a7bc 4cd0 ddba
000002a0: 72ff de3c 3db3 9cbd 19f5 d63d 9651 e3bd
000002b0: 4b5e 2e3d a4b2 c6bc 6dc6 a8bc ed67 133d
000002c0: 8b00 fabc c799 943d 9a08 3f3d 6aca 1fba
000002d0: 4297 8a3b 4249 0bbc 0639 67bd dcb3 45bc
000002e0: be8b 493d d170 9dbc edbb 2a3d 71be 673d
000002f0: 15b1 c03c 8476 9c3d 8237 e43c 7ce0 413d
00000300: fa1f 4dbd d388 2ebd 508f 8dbc 6b72 7cbc
00000310: 469c ff3b bee8 1b3c b81f 283d c194 903d
00000320: 62bf 943c 132a 443c f422 82bb c9f6 453c
00000330: f3ae 93bc d447 e93c e727 22bd c457 50bd
00000340: c79d f63c 6d0e 3e3d 5d6c 8bbc 2d02 84bd
00000350: 3705 cbbc 4070 88bb b9c7 943b e5c5 8cbc
00000360: 953b c2bb ca39 5e3c b1cc fabc a03e 13bd
00000370: 6381 e7bc 4694 8338 a0c7 82bc 9bc3 903c
00000380: fb9c 94bd bd3e 3a3d dc95 67bc 984f 9b3d
00000390: 05c3 2f3c 8ff2 5fbd e6e9 ba3c 9bfe debd
000003a0: 6399 873d 6ae7 d6bc 40bf b0bc fbb3 db3c
000003b0: db25 33bd 5935 313c afd0 b0bb a303 bb3b
000003c0: 1da7 c43c 2a81 80bd c084 f53c 5b0c 983a
000003d0: 8b19 f13c 3bab 453d 053e e4bc 5344 d5bd
000003e0: 9cee 813d 1572 6f3d b00e 13bd 811d 07bd
000003f0: 801f 4a3c 977b b0bd b056 343c 4c59 7bbd
-0.065878585 -0.035792343 -0.041087158 -0.039328694 0.037268043 0.008542814 -0.023555398 0.077237405
0.0070050624 -0.045018356 0.042636573 -0.07146727 0.010640703 0.06269518 0.066101335 -0.019026231
-0.06416763 -0.06700636 0.016508868 -0.023297641 0.028581137 0.09587012 -0.06461331 0.105691776
0.040333096 0.044443145 -0.05202438 -0.025740203 0.05208704 0.08864741 0.0057689203 0.019432828
0.062155508 0.022592979 0.009508799 0.10282323 -0.022829577 -0.050768085 0.009499124 -0.06037576
0.014248051 -0.03308765 -0.045612976 0.0070151584 0.07142815 -0.032635245 0.07890032 0.030031813
-0.062297136 -0.024225863 0.016069988 -0.006616645 0.019043911 -0.037698384 -0.00811233 -0.0078989575
-0.05000911 0.07931339 -0.02086774 -0.11292293 0.04683335 0.05586139 0.05458259 0.035759144
0.03467505 0.04428883 -0.10644408 0.032535136 0.104479454 0.00038854097 0.104046114 -0.1007536
0.0060614054 0.019217826 0.005572151 0.07248927 -0.062362332 -0.034575626 0.03017808 0.024156079
-0.090975516 0.014016979 -0.044549298 -0.075117715 0.062448442 -0.012092857 0.06729525 0.0144188125
0.03951841 0.041421972 0.016130054 0.046680335 0.08293031 -0.01974027 -0.07276756 -0.058243744
-0.025485745 -0.011575739 -0.060173597 -0.046455573 0.051764682 -0.0054426803 0.04143111 -0.012643734
0.070220314 -0.053194266 -0.012764496 0.02962047 -0.042952087 0.03960437 0.00652482 0.023140348
0.0370142 -0.06361211 -0.015565399 0.053997636 0.06781805 -0.06927127 -0.061534896 -0.05027741
-0.032138795 -0.043216396 -0.01201093 -0.039127633 -0.027132263 -0.066847615 0.08457137 0.0131040495
0.058737166 -0.09670825 0.027819013 0.037642132 -0.07798308 -0.0627647 0.05870356 0.029828396
-0.04045922 0.016928423 0.005411648 -0.098625116 0.05460356 -0.031071857 -0.01315355 -0.032532904
0.076067 0.057302516 -0.020542022 -0.058531225 -0.037914462 -0.031267747 -0.010286261 0.007282446
0.062324896 0.07197358 0.04874479 -0.027941462 0.095860414 -0.02369727 0.06916082 0.03530986
-0.049633555 0.056721177 0.018608985 -0.011679789 0.039090686 0.0073807994 -0.020427795 -0.0016923039
0.027221415 -0.076513745 0.104959674 -0.11099546 0.042570394 -0.024255104 -0.02060243 0.035987783
-0.030517837 0.07255893 0.046639062 -0.00060955307 0.004229457 -0.008501353 -0.056450866 -0.012066808
0.049205534 -0.019218834 0.041683126 0.056578103 0.02352194 0.076397926 0.0278585 0.047333226
-0.050079323 -0.042610954 -0.01728025 -0.015408139 0.0078006117 0.009515939 0.041045874 0.070596226
0.018157665 0.011972922 -0.003971452 0.012082764 -0.018027758 0.028476633 -0.039588835 -0.05086495
0.030104531 0.046400476 -0.017019445 -0.064457275 -0.02478276 -0.004163772 0.0045404104 -0.017184207
-0.005927513 0.013563583 -0.030615183 -0.035948396 -0.028259939 6.274185e-05 -0.01596433 0.017671397
-0.07256504 0.04546999 -0.01413485 0.07583541 0.010727649 -0.05467468 0.02281661 -0.10888406
0.06621053 -0.026233394 -0.02157557 0.02681922 -0.043737274 0.010815942 -0.005395971 0.0057072206
0.024005467 -0.06274636 0.029970527 0.0011600362 0.029431125 0.048259 -0.027861604 -0.104134224
0.06344339 0.058458406 -0.03590268 -0.03298712 0.012336612 -0.08617323 0.011006996 -0.061364457

b1 f4 [64]
00000000: 5e3c 02be e3ba e23b a35e 553d 46bb 083e
00000010: ad4d 51bd f4e1 adbd cdd0 16bd eb55 283e
00000020: d124 04bd 888f 513d 1a4a 5fbd 4447 ea3d
00000030: 86a2 09be c365 703e c240 1bbe cf06 e03c
00000040: 0d8b 923c d3a4 393e fd2c 433e fd3f 9d3d
00000050: aab0 823e 50d4 cf3c 970e 8abc 11de 413e
00000060: 6c46 febc 4175 c13d c720 893d 670a 953e
00000070: f0af 4c3e e107 d03d 1315 993d 1eff 773d
00000080: 4525 023e b87f 523d 2db9 27bc 902f 113d
00000090: e1dd debd 064f 62be 0548 a73d 3794 75bd
000000a0: a668 013e 051b b03d 8e2c ac3d b7ff 3d3c
000000b0: 3ee3 403d f4cd 3e3d 5c38 c5bc 4e5c 173e
000000c0: ae88 013e 5309 e3bc 971f 813d b4c9 943e
000000d0: fa7e 643e dd8f 803e 6d7d c33c 71cb e03c
000000e0: fb5c 513e 98a4 1c3e 7c8b 0b3e 448c 433e
000000f0: e5af f93d ee1f 9f3d 163c 86bd 86f4 eebb
-0.12718341 0.0069192513 0.052092206 0.13352689 -0.051099468 -0.08490363 -0.03682022 0.16439025
-0.032261673 0.051162273 -0.054514028 0.11439374 -0.13440904 0.23476319 -0.15161422 0.027346997
0.01788857 0.18129282 0.1906013 0.076782204 0.2552541 0.025369793 -0.01685266 0.18932368
-0.03103944 0.094461925 0.06695705 0.291095 0.1998899 0.10157753 0.07474723 0.060546033
0.1270953 0.051391333 -0.01023702 0.03544575 -0.10882164 -0.22100458 0.081680335 -0.0599558
0.12637576 0.085989036 0.08406936 0.011596612 0.047091715 0.04658313 -0.024074726 0.14781305
0.12649795 -0.027714407 0.063048534 0.29060137 0.22314063 0.2510976 0.023863519 0.027440758
0.20445625 0.15297163 0.13627428 0.19096476 0.12191752 0.07769762 -0.06554429 -0.007292333

W2 (column-major) f4 [64, 64]
00000000: 8cbb ec3d 6451 adbd e94d 6ebd cf4f 2b3e
00000010: 7506 2c3e 3668 80be 5b40 26be 8ab6 e1bd
00000020: 618d 963d 0e8b d8be cb9b bdbd 2635 d63d
00000030: 2696 a7bd 2898 3cbe b8b4 413e 90bc 373d
00000040: 002b b23d 0b5d 19be 9ad1 16be d957 a9be
00000050: 08c8 513e 8193 8ebe 4b9e cf3d bbe5 83be
00000060: 1643 d53e 4571 8abd 54ab 1b3e 08c4 9cbe
00000070: 3a96 983e 1a43 31be 123e 0c3e 32f4 30be
00000080: eb56 dbbd 9282 86be 9628 1ebe 3144 aabe
00000090: 730f 03be c290 42bd eea6 54be 1d97 1abc
000000a0: af6d 083d c4be a6be 6776 393d ccbe 453d
000000b0: ac49 92bb b46b f9bd 1d46 673e fedb bd3d
000000c0: 3526 953e 4054 39bd 6772 f6bd 6b88 30bd
000000d0: 9255 25be 0c87 a43d 5d6d 593d bb44 b73c
000000e0: f7a2 a1be 3d39 b9bb 79af a33d 8b2d 723d
000000f0: 6382 d2bd 8836 55be 4b7c bebd cb0d 1dbd
00000100: 8bd2 1cbe 4d67 7bbd a3bc abbd 1a5a e43d
00000110: eaf5 80be 9c4f 24bd c9e9 26bd a4f7 02be
00000120: fed0 adbd abc8 9fbd 575a a8be 07d2 11be
00000130: a139 db3d 0239 1bbd 67bf fdbd a52b 543d
00000140: 77da e4be eda9 433d 2944 a0bd 4090 64bd
00000150: 86ae eabc 3121 d4be f86c 803d 8b0b e9be
00000160: 7b3a dd3d 5c63 c9be 8b38 d03c 0351 e33c
00000170: 92fa d1bd 5b88 803b 969a b93c 2ebc 72bd
00000180: 8637 c93d e908 623a 7fdf 21bf 8894 043e
00000190: b729 cb3d 166f fa3e f81a dc3b 5bd6 0e3e
000001a0: 5ab3 84be c63f c5bc e797 0abf ca74 cbbd
000001b0: 75ef 533d 6699 5abd fe7b 97bd 0cd8 28be
000001c0: bf06 b3be fe08 b83d e9da 7f3e 516a 59be
000001d0: d2b3 f7bd 04a4 8bbe a35f 19be 6e8b 15bd
000001e0: b517 8ebd 685a 043e 90dc eebd 1d68 643e
000001f0: 8817 ddbd 3444 d23e 84b0 b23c 9c95 563e
00000200: a7b7 c7ba a551 3b3e a93a 8fbe b4dc f23e
00000210: a5bf 413e 9ab2 b9bd cc93 8cbe 7866 04bf
00000220: 5fdf 943c 5a8d 773d 4a2f 073d 60b1 d8bc
00000230: 18cb b4be 243e 1d3e 6fc6 7bbe 1651 2b3d
00000240: aa23 0fbe 915c ec3d 6fa1 25bc b3cf a1be
00000250: baa3 343e 5fd5 253e bb76 4cbe 63ae ee3c
00000260: 3b67 67bc 5376 b53d e527 223e bbe7 6cbe
00000270: edf2 1c3e c039 acbe 8471 11be fb2e f7be
00000280: c974 163e 3048 833d 0663 f7bc 6dce 9e3e
00000290: 6916 11bf ba97 6b3d da47 ff3a fb4f 31be
000002a0: ee5c b23d e14f 5bbe 890c e7bb acfd 623e
000002b0: 040c 60bc 8a02 a03c 3882 cfbd 57d1 403e
000002c0: a21e 8a3d 252b afba 6a12 e1bc ca72 fb3d
000002d0: 1924 eabe 22a3 073e c5c7 85bd 924e 8ebd
000002e0: 576e 5f3e 2c67 173e 2a7d 99be 2d96 373e
000002f0: 74e8 9b3e f17a ea3c 3950 553e b24a 01be
00000300: bf37 ee3c acd2 30be 238f 143c 4a1c 98bd
00000310: b6da 3c3e 763f 66be 6cb9 11be b87d aebd
00000320: c2fe 493c 6361 babe 6f9e 973c 3ab2 95be
00000330: 7c05 ccbe 5525 b3bd 84ce 593e 6aa4 38bd
00000340: 2fb3 cb3e b99e 64be 7a0e 08be dfb4 c7be
00000350: 74c2 c33d 4e85 e8be 7ea4 073d 3df0 29be
00000360: 1067 863e d37c 313d 0d37 2e3d b0ca 82be
00000370: 82c5 ba3e 0e3a b0bd 6886 9d3e 3b8b 74bd
00000380: aea7 c73c c66a d6be 9c6f a2be f47a 13bd
00000390: 8e33 28bd 1154 343b a868 453e 5ec1 3dbe
000003a0: 11ac 3c3e ea0c 623e 9b52 c8bd 6fdb 6b3c
000003b0: 7f73 e6bb 8018 eb3d 3a44 543e 49db e83c
000003c0: a104 d83d f330 c93d e4d6 af3c 0ae8 d6bb
000003d0: 45f6 36be d463 febd 1a3a eb3e 25e6 abbc
000003e0: 361e f13d 541e 62be 09f5 15bc 0cd2 b63d
000003f0: e9e0 ddbd 2964 53be 2752 2c3d 8107 1b3e
0.11559209 -0.0846279 -0.05817977 0.16729663 0.16799338 -0.25079507 -0.16235487 -0.11021145
0.07351185 -0.4229359 -0.09258231 0.10459356 -0.081829354 -0.18417418 0.18916595 0.04485756
0.08699608 -0.149769 -0.14728394 -0.33074835 0.20486462 -0.27846912 0.10137614 -0.25761208
0.41652745 -0.06759886 0.15202075 -0.3061831 0.29802114 -0.17310753 0.13695553 -0.17280653
-0.10709938 -0.26271492 -0.1544517 -0.3325515 -0.12798862 -0.047501333 -0.20766804 -0.009435442
0.033307727 -0.32567418 0.045278933 0.04827766 -0.004464349 -0.12178746 0.2258534 0.09270476
0.29130712 -0.045246363 -0.12033539 -0.04309885 -0.16145924 0.08033571 0.053082813 0.02237164
-0.31569645 -0.0056525753 0.07992453 0.059125464 -0.102787755 -0.20821583 -0.09301051 -0.038343232
-0.15314691 -0.061377812 -0.08385589 0.11149998 -0.25187618 -0.040114984 -0.0407503 -0.1278978
-0.08487128 -0.07801946 -0.32881424 -0.14240275 0.10704351 -0.037896164 -0.12390023 0.051799435
-0.44697925 0.047769476 -0.078255005 -0.05580163 -0.028647672 -0.41431573 0.06270784 -0.4551662
0.1080217 -0.39333618 0.025417587 0.02774859 -0.102528706 0.003922505 0.02265672 -0.059261493
0.098250434 0.00086225435 -0.6323165 0.12947285 0.09920066 0.48912877 0.006717082 0.13948958
-0.25918084 -0.024078261 -0.54138035 -0.09934385 0.051742036 -0.05336895 -0.073966965 -0.16488665
-0.34966084 0.0898609 0.24985851 -0.21231963 -0.12094845 -0.27273571 -0.14977889 -0.036509924
-0.069381155 0.12925112 -0.11663163 0.22305341 -0.10795504 0.4106766 0.021812685 0.20955509
-0.0015237228 0.18292864 -0.27974442 0.47434008 0.18920763 -0.09067269 -0.2745651 -0.51718855
0.018172918 0.060437538 0.033004083 -0.026451766 -0.35311198 0.15355736 -0.24587415 0.041825376
-0.13978449 0.11541093 -0.01010929 -0.31603774 0.17640582 0.16194676 -0.19967167 0.029135888
-0.014123733 0.08860459 0.15835531 -0.23135273 0.15327044 -0.3363781 -0.14203459 -0.4827803
0.14692988 0.06410253 -0.030198585 0.31016865 -0.5667482 0.057517745 0.001947637 -0.17315666
0.08709131 -0.2141719 -0.007051055 0.2216708 -0.01367474 0.01953246 -0.10132259 0.18829857
0.06744124 -0.0013364299 -0.0274746 0.12277754 -0.45730665 0.13245824 -0.06532244 -0.0694858
0.21819435 0.1478545 -0.29978305 0.17928381 0.30450785 0.028623076 0.20831384 -0.1262615
0.029079316 -0.17267865 0.00906733 -0.07427271 0.18442807 -0.22485146 -0.14230889 -0.08520073
0.012328805 -0.36402425 0.018508164 -0.2923754 -0.39847934 -0.08747355 0.21270186 -0.045078672
0.39785144 -0.22326173 -0.13286772 -0.3900518 0.09558573 -0.45414203 0.033115856 -0.1659555
0.26250505 0.043331932 0.04253297 -0.25545263 0.36478812 -0.08604823 0.30766606 -0.059703093
0.024371948 -0.41878337 -0.31725776 -0.03600593 -0.04106479 0.0027515928 0.19278204 -0.18530795
0.18425013 0.22075239 -0.09781381 0.014395579 -0.007032811 0.114792824 0.20729151 0.028424876
0.10547758 0.098237894 0.021464773 -0.006558423 -0.17867382 -0.124213845 0.45942765 -0.020983765
0.117733404 -0.22081882 -0.009152659 0.08926782 -0.10833914 -0.20643677 0.042070534 0.15139581

b2 f4 [64]
00000000: 9493 b33e 78f8 413e 6217 82be c0c5 983e
00000010: 69f2 8d3e 2dd0 9a39 51df 0f3e 99a3 b03e
00000020: 3300 853e 1709 a5b9 4d8c 3b3e cf88 04bc
00000030: fd0d 073e ba09 0f3e f3f1 443e 3b69 d83e
00000040: 0eb7 1f3f f840 ae3e 2b66 0b3e 4f4a 96bd
00000050: 6801 0c3e f6c3 b33e 1b6c 583d 6ef7 943e
00000060: 5107 51bd 1752 5ebe 96a9 813e 4773 dd3d
00000070: c784 873e b8bc 2f3e ab57 b53e a7cf 093d
00000080: a766 7d3e bca7 0c3e ae9a 643e f594 9c3e
00000090: e591 383e a780 863e 5d91 7d3e 3de3 503e
000000a0: 7d8a 123d 2527 db3d 98d2 053f 8f24 8e3e
000000b0: a853 d83c 90b3 f23d 472f 773e f044 1f3e
000000c0: 7c8f c03e b3be d63e 888d 243e 2410 d93e
000000d0: c047 353d 7172 9d3e 4e05 503e 0ca7 833e
000000e0: 4db3 a23e b8d3 8c3e b037 1cbd 909f bb3e
000000f0: 4f68 703e 2d67 823d 395c 333e bd44 aa3e
0.3507353 0.1894244 -0.25408465 0.2983837 0.27724007 0.00029528272 0.14050032 0.34499815
0.25976714 -0.00031478025 0.18315239 -0.008089258 0.1318893 0.13968554 0.19232921 0.42267784
0.62388694 0.34033942 0.13613193 -0.07338392 0.13672411 0.35110444 0.052837472 0.29095024
-0.051032368 -0.21711002 0.25324696 0.10813003 0.2646849 0.17161834 0.35418448 0.0336453
0.2474619 0.1373586 0.2232463 0.30582395 0.18024404 0.2627003 0.24762483 0.20399185
0.035776604 0.107008256 0.52274466 0.27762267 0.026407078 0.11850655 0.24139129 0.15553641
0.3760947 0.41942367 0.16069615 0.42395127 0.04425788 0.30751374 0.20314524 0.25713384
0.3177742 0.2750528 -0.038139045 0.36645174 0.2347729 0.063673355 0.17515649 0.33255568

W3 (column-major) f4 [10, 64]
00000000: d169 25be 36e3 783e cda3 4ebe 77de 4d3c
00000010: 6ae2 3dbe fcb0 91be 618f 11be 6293 873e
00000020: 970a 683e 0c1a 633e fe2a ebbd e6a8 50be
00000030: d8e7 873e 7a8f 813e 42cb b2be 108a 93bc
00000040: a553 5abe 40cd 893e 83f7 703e 9a6e 96be
00000050: 2153 a6bd 90c5 3ebd e35e 253e 76fc 19be
00000060: c2d6 663e 0d15 d5bc 9d1c ddbe 3267 49bd
00000070: 6f25 58be fbd5 0bbd 1cc4 a7be 07af 9c3e
00000080: 3ba1 123e c438 803e 5d4d f3bc d709 11be
00000090: f081 28bd 5a55 9bbd 540e a1bd 393b 0d3c
000000a0: e0f2 70bc bc25 70bc ad13 8a3e e489 5dbe
000000b0: 9813 7f3e a8f2 2abe 3b06 4b3e 477c 9d3e
000000c0: f7e1 04be 40a2 56be b92b 973e b199 36bc
000000d0: ec30 a53e b6a9 06be c63f 85bd 7e61 fb3d
000000e0: 98a2 2dba d36b 46be 9433 1cbe 7e14 febd
000000f0: 2307 a8be 5d91 bbbe 4328 cabe 88b6 77be
00000100: c6b7 dc3d 5a03 b63d 9d70 71be 16a4 a9be
00000110: 92a5 c43d 9c77 dd3d a9b6 ad3e 653c 82be
00000120: 3f20 81bd 01e7 75be 2971 373d 1b25 963e
00000130: fee6 823e 288b 31be a1ec 793e c39d 88be
00000140: f8f6 5abe d170 a73e 2466 78be 14b6 6bbe
00000150: 3ff1 9e3e 7835 47be 42bc 4e3e be89 80be
00000160: 0915 333e 7f1f 793d 956a d33e ce2d b3be
00000170: 817c 8a3e 7934 7b3e 98fe 49be f8b3 a9bd
00000180: 9f1f 3ebe 4309 71be 8711 a53d 9fd9 4dbd
00000190: 2a76 44be c0ca 9e3e 007f 863e 3819 30be
000001a0: cce3 b7bd d619 24be 8bcc e23e d889 32be
000001b0: 2357 0cbe e431 52be ec39 023f ef86 9b3e
000001c0: 3bcc 13bc 4138 7ebd a7e8 74bd 43bd a2bd
000001d0: 0b7d 883e e768 f9bd ca7c 0abe 71b4 8ebb
000001e0: fe5e e6be 3a0a d73d a0c6 8e3d ac54 143e
000001f0: 39b9 05be e910 b93e cc3f fa3d b2b2 8cbe
00000200: 0517 25be ad52 62be 8df7 c53e a88a 7ebe
00000210: 1c5f 39be 15ff 853e 68d8 2abd 911a 20be
00000220: c0c6 963e 6d63 08be 511f c0bd 9618 cdbd
00000230: d76d 533e 985b 37be c6cf 81bd 2050 23be
00000240: 4a56 6bbe e4f9 f6bd a460 853c f7f0 a13e
00000250: a467 87be c282 7a3e d78b 83bd a85c b23e
00000260: 5b52 04be 8aca 933e 60bc 59bd 1e7d 833e
00000270: 8e1b 2a3d 937a 1e3e 763b 8fbe 5093 14be
00000280: c949 b53e bc89 bd3d 40b7 72be 05ee 8cbe
00000290: 0f50 843e 571c 84be c1b3 2dbe 9e4f 233e
000002a0: 191b 4ebe bcab 3d3d 7f81 173e 6f91 8b3e
000002b0: c4e7 7bbe 3981 603e 4f6d 2dbe 1d5f 6fbe
000002c0: 9620 01be 080f 8dbe 0f5f f2bd a605 3dbe
000002d0: 2ed1 9f3b 5d25 3c3e 5a1c 9bbe 3325 523e
000002e0: dba2 e3bd 1d90 043e fa78 31be ffd6 913b
000002f0: b664 953e 4bd3 503e 38e9 013e 7e6d a4be
00000300: e382 603e 2087 2e3e 1bec 98be 6bbc b2bd
00000310: aec6 aebe 6daa 27be e3d0 603e 64b4 52be
00000320: 1480 81bd 9d16 b13e dd70 3d3e 72fe d2bd
00000330: a624 6abe f052 17bd cfe3 26be 4940 9f3e
00000340: 0030 70bb 4bed 16be bd64 cabe 90ee 7a3d
00000350: 0140 fd3d 1575 0abe 4edb dcbe d108 4bbe
00000360: a375 343e 8475 69be edd6 023e 4adb e0be
00000370: 5ef4 f8bd c7d5 bbbe 07a8 b0bd cfda 15be
00000380: c10c 2c3e 1024 853e c892 03bf 5814 603e
00000390: f55b 25be 74e9 fbba 899f edbc 5b8e 47be
000003a0: 06d8 553e 9fd1 47be a2f8 7e3e 60f1 46be
000003b0: c1d8 453e 497d 66be b883 8e3e 48ef 88be
000003c0: cc13 b9bd 4219 a13e 053e bfbd a6ed 6bbe
000003d0: a413 a13e 30c5 813e 8732 1bbe 907a c33d
000003e0: 7ad4 27be 46ff 0e3e 4a51 213c c939 9f3e
000003f0: cec1 46be d0c3 8dbe aab0 47bd 45e2 1bbe
-0.16153647 0.24305424 -0.20179673 0.012565247 -0.18543401 -0.2845534 -0.14214851 0.26479632
0.2266029 0.22177905 -0.114828095 -0.2037693 0.2654407 0.25304776 -0.34920698 -0.01801017
-0.2132097 0.26914406 0.23531918 -0.29381257 -0.08121324 -0.04657513 0.16149478 -0.15037712
0.22542861 -0.026011014 -0.43185893 -0.04917068 -0.2110803 -0.034139615 -0.32766807 0.30602285
0.14319317 0.2504331 -0.029699976 -0.1416391 -0.041139543 -0.07584639 -0.07864061 0.008620077
-0.014706343 -0.014657434 0.26968136 -0.21634632 0.24909818 -0.16694129 0.19826595 0.3075888
-0.12976824 -0.20960331 0.29525545 -0.011145041 0.32263887 -0.13150677 -0.065063044 0.122744545
-0.00066236546 -0.19377069 -0.1525405 -0.12406252 -0.32817945 -0.3663434 -0.39483842 -0.24190724
0.107772395 0.08887358 -0.23578115 -0.33133 0.096018925 0.10813829 0.3392842 -0.25436702
-0.063049786 -0.24013902 0.044785652 0.29325184 0.25566858 -0.1733824 0.24406673 -0.26682863
-0.21383274 0.3270326 -0.24257714 -0.23018676 0.3104343 -0.1945399 0.20189002 -0.2510509
0.17488493 0.060821053 0.41292253 -0.34995884 0.27048114 0.24531735 -0.19726026 -0.082862794
-0.1856675 -0.2353869 0.08059984 -0.050256368 -0.19185701 0.3101406 0.26268768 -0.1719712
-0.08978996 -0.1602548 0.4429668 -0.17435396 -0.13705115 -0.20526844 0.5086963 0.30376384
-0.00902086 -0.062065367 -0.059792187 -0.07946255 0.266579 -0.12178212 -0.13524166 -0.0043550064
-0.44994348 0.104999974 0.069714785 0.14485425 -0.13058938 0.36145714 0.122191995 -0.27480084
-0.16122063 -0.22101851 0.3866543 -0.2485758 -0.18102688 0.26171175 -0.041710287 -0.15635134
0.2944851 -0.13319178 -0.09380973 -0.10014455 0.2064737 -0.17906034 -0.06338458 -0.15948534
-0.22982135 -0.120593816 0.016281433 0.31629154 -0.2644626 0.24463943 -0.06423157 0.34836316
-0.12922041 0.28865463 -0.053158164 0.25681394 0.041530184 0.15476446 -0.27975053 -0.1450932
0.35407856 0.09254786 -0.23702717 -0.27525344 0.2584233 -0.25802872 -0.16963102 0.1594834
-0.20127524 0.046306357 0.14795493 0.27259395 -0.2460013 0.21924295 -0.16936229 -0.23376127
-0.12610087 -0.2755053 -0.11834537 -0.18459186 0.004877231 0.18373628 -0.30295068 0.20522003
-0.111150466 0.129456 -0.17331305 0.0044506784 0.291784 0.20393102 0.12686622 -0.32114786
0.2192493 0.17043734 -0.29867634 -0.08727344 -0.34135956 -0.16373606 0.21954684 -0.20576626
-0.06323257 0.34587565 0.18500085 -0.10302438 -0.22865543 -0.03694433 -0.1629784 0.31103733
-0.0036649704 -0.14738958 -0.39529982 0.061262667 0.123657234 -0.13521226 -0.43136066 -0.19827582
0.17623 -0.22798735 0.127773 -0.43917304 -0.12155984 -0.36686537 -0.08625799 -0.1463425
0.1680174 0.26004076 -0.51395845 0.2188276 -0.1614836 -0.0019219355 -0.029006736 -0.19487898
0.20883188 -0.19513558 0.24899533 -0.19428015 0.19320966 -0.2250873 0.27834868 -0.26745057
-0.09036979 0.31464583 -0.09338001 -0.23039874 0.31460297 0.25345755 -0.15155993 0.09544861
-0.16389647 0.13964567 0.009846041 0.31098774 -0.19409868 -0.27688456 -0.048752464 -0.15223034

b3 f4 [10]
00000000: 6d53 80be 3a40 edbc 8326 673e 3766 2c3e
00000010: 02cd f0bd aa3f 033e a98a 83be 5df6 163c
00000020: 05c5 093d 5544 7ebc
-0.2506365 -0.02896129 0.22573285 0.16835867 -0.11757852 0.12817255 -0.25691727 0.009214011
0.033635158 -0.015519221
