neural_net/mnist_mlp_weights.npz (npz, 569542 bytes, 6 tensors)

W1 (column-major) f4 [160, 784]
0.04808001 -0.07156173 -0.0061663426 0.027048612 0.025325814 -0.08441425 -0.078775905 -0.006496058
0.007099161 -0.09754035 0.019739669 -0.032996323 0.043121632 -0.0820059 -0.05844979 0.06289923
0.053043913 0.02205939 0.051710617 0.04253974 0.0035306632 0.03194341 -0.01300955 -0.095093444
-0.046793796 0.08625801 0.003183666 -0.06903678 -0.008929211 0.03591708 0.08463573 0.018652707
-0.01647239 -0.01727445 0.025688265 0.08283689 -0.09328738 0.024143837 -0.041185018 0.0007109079
-0.015135596 -0.028283576 -0.047421876 -0.068975374 -0.005461048 0.063227475 -0.039054066 -0.03305414
-0.10470789 0.037118398 0.113324516 0.09006091 0.030062078 -0.037073966 0.060053263 -0.014017227
-0.08963957 0.023692776 -0.08214777 -0.035870954 0.01736844 0.026465418 -0.0029693218 -0.09078607
0.07858976 -0.012936043 -0.024098158 -0.050068576 -0.03643198 -0.011957492 0.03993303 -0.05262436
0.01677779 0.04279358 -0.023900999 -0.09991369 0.043116473 0.039307628 -0.05381993 -0.06641608
0.022357713 0.00837355 0.021816615 0.026517577 0.0016903596 0.033938624 0.0192309 0.023046983
-0.042367894 -0.04857027 0.056499496 0.021044431 -0.038712658 -0.015736068 0.011030019 0.07478762
-0.008805751 0.09490839 0.10232998 -0.095229894 -0.016231835 0.102307655 0.020716785 0.0035574874
-0.04883473 -0.02711241 -0.05696233 0.06441112 -0.052975927 -0.022016028 -0.07117723 0.061385512
-0.050885327 -0.025622457 -0.056999397 -0.02431603 0.038152777 -0.009825849 0.015663471 0.02719286
-0.056985218 0.060820438 -0.014564711 -0.080299735 -0.015135123 -0.09485718 -0.06624793 0.00060220755
0.022568325 -0.04705824 -0.061837938 0.09110187 0.09276198 0.010295128 -0.0103389565 -0.044749748
-0.003173943 -0.028179089 0.05880643 0.018596696 -0.009990912 0.015509903 -0.04457135 -0.049222447
0.041228883 -0.066341355 -0.07584148 0.05445351 -0.04960251 0.03758355 0.0743448 0.007042871
0.099640146 -0.027845748 0.0093356995 0.06170084 0.016871458 0.027155789 -0.05150804 0.060756236
0.047703836 -0.020652264 0.0092875995 0.0005255142 0.022764923 -0.0032376712 -0.041023932 0.076891646
0.07505381 0.054962713 0.04526341 -0.04377516 0.026870666 -0.0021586055 -0.046475124 -0.044640597
0.052628983 -0.0058295405 -0.0055594873 -0.030801605 0.06158802 0.0067244684 -0.008184064 0.0031217695
-0.085506104 0.0069073937 -0.06650537 -0.01689742 0.056772463 0.08000189 -0.060886964 -0.06999873
0.015611561 0.0047454974 0.026000235 0.03130613 -0.06799382 0.093387626 0.034691546 0.09017656
0.07781219 0.07777047 0.10116412 -0.010793134 -0.024310175 -0.015474196 -0.0023632455 -0.059571702
0.09687401 0.029905237 0.06786797 -0.041411646 -0.05806894 -0.034379534 0.09680966 0.049521457
-0.021067401 0.06623926 -0.042729285 0.0573753 0.035138033 -0.01834471 0.027600933 0.02515654
0.020913906 -0.08079055 0.052046098 0.055150483 -0.0459265 0.0214131 -0.027609393 0.029701052
0.028436657 -0.10360981 -0.032323774 0.09862419 0.009265501 0.013296827 0.015246617 0.10301558
-0.021317996 -0.016380275 0.044691894 -0.054027732 0.062136922 -0.04077742 -0.05361505 -0.011815658
-0.010972643 -0.01672082 0.00543642 0.0003347049 0.0072061466 -0.031988405 -0.09385756 -0.025729213
00000000: 8bef 443d f58e 92bd 080f cabb 0d95 dd3c
00000010: 1578 cf3c 61e1 acbd 4355 a1bd e2dc d4bb
00000020: 14a0 e83b 3cc3 c7bd 16b5 a13c 2727 07bd
00000030: 4fa0 303d b6f2 a7bd 0c69 6fbd 50d1 803d
00000040: 9344 593d e5b5 b43c 83ce 533d 273e 2e3d
00000050: b362 673b 18d7 023d 0226 55bc 5ac0 c2bd
00000060: daaa 3fbd 0aa8 b03d 0da5 503b 2863 8dbd
00000070: d34b 12bc ca1d 133d 7f55 ad3d 90cd 983c
00000080: 1bf1 86bc 2683 8dbc 3270 d23c 63a6 a93d
00000090: 740d bfbd 4cc9 c53c 9fb1 28bd 395c 3a3a
000000a0: 4afb 77bc f5b2 e7bc 713d 42bd f642 8dbd
000000b0: 97f2 b2bb 687d 813d 28f7 1fbd c763 07bd
000000c0: 1771 d6bd 7609 183d af16 e83d db71 b83d
000000d0: bf44 f63c dfda 17bd 69fa 753d 83a8 65bc
000000e0: f394 b7bd 5a17 c23c 173d a8bd 6ced 12bd
000000f0: 4248 8e3c 01ce d83c f498 42bb 0cee b9bd
00000100: abf3 a03d b2f1 53bc 8069 c5bc b514 4dbd
00000110: b339 15bd 5be9 43bc d190 233d a48c 57bd
00000120: 9371 893c 5248 2f3d 07cc c3bc 8c9f ccbd
00000130: e69a 303d 0901 213d 4972 5cbd 2705 88bd
00000140: 8627 b73c 3731 093c c2b8 b23c 643b d93c
00000150: 0e8f dd3a 3a03 0b3d 1f8a 9d3c 07cd bc3c
00000160: f589 2dbd 9ff1 46bd 046c 673d 5f65 ac3c
00000170: 2a91 1ebd ede8 80bc 41b7 343c 402a 993d
00000180: ff45 10bc 545f c23d 6192 d13d e407 c3bd
00000190: a0f8 84bc ad86 d13d 3fb6 a93c bc24 693b
000001a0: ed06 48bd d81a debc 5551 69bd fae9 833d
000001b0: 49fd 58bd f55a b4bc 5ec5 91bd 606f 7b3d
000001c0: 226d 50bd 30e6 d1bc 3378 69bd 6932 c7bc
000001d0: 1646 1c3d 99fc 20bc ae50 803c 90c3 de3c
000001e0: 5569 69bd da1e 793d d3a0 6ebc 3074 a4bd
000001f0: 4ff9 77bc 7b44 c2bd ffac 87bd 77dd 1d3a
00000200: 35e1 b83c 24c0 40bd c749 7dbd 9e93 ba3d
00000210: fef9 bd3d e6ac 283c ba64 29bc 834b 37bd
00000220: ed01 50bb d5d7 e6bc 03df 703d 1958 983c
00000230: ecb0 23bc 401d 7e3c 7390 36bd 7a9d 49bd
00000240: 9edf 283d fadd 87bd c752 9bbd a50a 5f3d
00000250: 002c 4bbd 35f1 193d 1642 983d e2c7 e63b
00000260: 2210 cc3d c41c e4bc c3f4 183c 05ba 7c3d
00000270: 0336 8a3c d175 de3c 18fa 52bd 88db 783d
00000280: 1965 433d f02e a9bc 042b 183c a9c2 093a
00000290: 817d ba3c 1c2f 54bb b608 28bd 5e79 9d3d
000002a0: d0b5 993d 9520 613d 2066 393d 954d 33bd
000002b0: df1f dc3c 6477 0dbb b35c 3ebd 0fd9 36bd
000002c0: 7d91 573d bb05 bfbb 5c2c b6bb a653 fcbc
000002d0: b843 7c3d ee58 dc3b 7416 06bc 9a96 4c3b
000002e0: d31d afbd 6b57 e23b f833 88bd 756c 8abc
000002f0: 3e8a 683d 08d8 a33d 9c64 79bd 7f5b 8fbd
00000300: a2c7 7f3c 1e80 9b3b 72fe d43c db3a 003d
00000310: 5840 8bbd 0342 bf3d b918 0e3d 7dae b83d
00000320: ff5b 9f3d 2046 9f3d 222f cf3d afd5 30bc
00000330: 2226 c7bc 7b87 7dbc aee0 1abb 7501 74bd
00000340: e265 c63d d4fb f43c 5dfe 8a3d 429f 29bd
00000350: b2d9 6dbd 8ed1 0cbd 2544 c63d 03d7 4a3d
00000360: 8b95 acbc 73a8 873d e704 2fbd 5d02 6b3d
00000370: e6ec 0f3d a547 96bc 5a1b e23c 1715 ce3c
00000380: a453 ab3c 8475 a5bd 4a2e 553d 79e5 613d
00000390: 6d1d 3cbd 876a af3c 182d e2bc 9f4f f33c
000003a0: fef3 e83c 6131 d4bd ef65 04bd 7bfb c93d
000003b0: 54ce 173c efda 593c f2cc 793c d5f9 d23d
000003c0: 14a3 aebc ed2f 86bc d90e 373d 2f4c 5dbd
000003d0: 4983 7e3d 3906 27bd 749b 5bbd 7696 41bc
000003e0: 9ac6 33bc 1afa 88bc ff23 b23b 557b af39
000003f0: 8a21 ec3b 4606 03bd 6438 c0bd 12c6 d2bc

b1 f4 [160]
0.10232184 0.05299594 -0.0456502 0.010161543 0.02494171 0.118303224 -0.029317098 0.051530022
0.08341108 -0.0030210374 -0.035376094 0.07630499 -0.0039298045 0.018918341 -0.11931324 -0.026157184
0.047348127 0.06089356 -0.061306767 -0.06066942 0.0063270465 0.013678965 0.041142292 0.04229853
0.04660051 0.032553013 0.07846474 -0.036081523 -0.0060398453 -0.0005873722 0.06368002 0.00076246425
0.03401452 -0.009800939 0.14548683 0.039135445 -0.010153969 -0.06383001 -0.00061922916 0.006682155
-0.07975026 -0.09954451 0.029014366 0.021623049 -0.054034866 0.056211744 0.014032956 0.047939625
0.024068106 -0.050574478 0.06537718 0.055228595 -0.005816209 0.032702457 0.038559545 -0.039823595
0.017296769 0.018942835 -0.059408244 0.0036787216 0.032494623 0.046096336 0.07291326 0.005255179
-0.030123282 0.00052144326 0.078723066 -0.0047245813 0.029621312 0.011024209 0.079954505 -0.056963846
0.031751763 0.14362596 0.063077375 0.119628526 0.10855859 0.00010480003 -0.07502754 0.020077834
0.053229667 0.06078335 0.04093837 0.04103064 0.0105663845 0.0053172843 0.027604694 -0.024243338
0.07483278 0.022989884 -0.04346026 0.021120243 0.043286785 0.022882458 0.019957751 0.025626449
0.043267217 0.048838496 0.0041550673 0.07477591 0.0774616 -0.061469663 0.0276321 0.092913724
0.06427748 0.09719888 0.019588852 0.03674303 0.0144313285 -0.027951444 0.032592937 -0.012419904
0.060342554 0.09802834 0.04136945 0.042743854 -0.018412285 0.017461458 0.06934921 -0.023708787
0.019368852 0.018031377 0.038535617 0.057290357 0.06771694 -0.013568315 -0.015739031 0.020016294
0.0836045 -0.054602183 0.053784236 0.010255797 0.06836246 0.056359306 0.0040780148 -0.003081787
0.048082415 -0.015979217 -0.0035424184 0.078475356 0.019652942 0.043067794 0.046077847 0.010118327
-0.0079079475 0.11315155 -0.07015797 -0.0018787952 0.07635996 0.02885498 0.07055759 -0.033807907
0.04611587 -0.065826766 0.033268627 0.14258814 0.09783265 0.019693475 0.10609297 0.045195095
00000000: 1d8e d13d 4512 593d b4fb 3abd 9a7c 263c
00000010: 8f52 cc3c f648 f23d 692a f0bc 2511 533d
00000020: 6ed3 aa3d 99fc 45bb 86e6 10bd ca45 9c3d
00000030: 97c5 80bb a3fa 9a3c 805a f4bd 9747 d6bc
00000040: 1cf0 413d 876b 793d ce1c 7bbd 7f80 78bd
00000050: 1d53 cf3b bd1d 603c d284 283d 3941 2d3d
00000060: 2de0 3e3d 4f56 053d 1fb2 a03d 38ca 13bd
00000070: e5e9 c5bb e2f9 19ba ac6a 823d 1ce0 473a
00000080: cf52 0b3d 1e94 20bc 80fa 143e 7d4c 203d
00000090: d55c 26bc 4fb9 82bd c453 22ba fbf5 da3b
000000a0: 1b54 a3bd fedd cbbd 89af ed3c d222 b13c
000000b0: aa53 5dbd 493e 663d 7cea 653c 575c 443d
000000c0: 7a2a c53c 2f27 4fbd 79e4 853d 6137 623d
000000d0: e695 bebb 03f3 053d 9df0 1d3d 111e 23bd
000000e0: f4b1 8d3c 012e 9b3c 0f56 73bd b516 713b
000000f0: 1519 053d 83cf 3c3d 8c53 953d a333 ac3b
00000100: 1ac5 f6bc 77b1 083a 8f39 a13d a9d0 9abb
00000110: 65a8 f23c e29e 343c 30bf a33d ec52 69bd
00000120: 230e 023d af12 133e b62e 813d cdff f43d
00000130: f753 de3d 16c8 db38 0aa8 99bd 457a a43c
00000140: 5a07 5a3d f6f7 783d feae 273d bf0f 283d
00000150: a11e 2d3c 9d3c ae3b 3d23 e23c f799 c6bc
00000160: ee41 993d 4855 bc3c 6303 32bd 5c04 ad3c
00000170: 7c4d 313d fe73 bb3c 707e a33c 8fee d13c
00000180: f738 313d e00a 483d 3b27 883b 1d24 993d
00000190: 30a4 9e3d 9dc7 7bbd b75c e23c 8d49 be3d
000001a0: e9a3 833d 3510 c73d cd78 a03c dc7f 163d
000001b0: 6171 6c3c 6dfa e4bc 2c80 053d da7c 4bbc
000001c0: c129 773d 15c3 c83d 0373 293d 2e14 2f3d
000001d0: 5cd5 96bc 550b 8f3c f506 8e3d ee38 c2bc
000001e0: 6dab 9e3c 8ab6 933c 86d7 1d3d 4ba9 6a3d
000001f0: 2eaf 8a3d a34d 5ebc 24ef 80bc 36f9 a33c
00000200: d638 ab3d 8aa6 5fbd dc4c 5c3d ee07 283c
00000210: 9e01 8c3d 04d9 663d dea0 853b cef7 49bb
00000220: 11f2 443d d9e6 82bc eb27 68bb b0b7 a03d
00000230: 35ff a03c db67 303d 20bc 3c3d 57c7 253c
00000240: 5690 01bc 00bc e73d fbae 8fbd e841 f6ba
00000250: 9c62 9c3d 4761 ec3c 7f80 903d 297a 0abd
00000260: ffe3 3c3d 2fd0 86bd af44 083d a002 123e
00000270: 7c5c c83d 3654 a13c 4547 d93d 7e1e 393d

W2 (column-major) f4 [96, 160]
-0.014693907 -0.115356535 -0.0979744 -0.17753546 0.32589 -0.059049178 -0.08899884 0.048209477
0.12296658 0.03457152 -0.16688906 -0.0037785487 0.0021496783 0.020780038 0.1616886 0.08474716
-0.004558771 0.12414473 -0.00464261 0.14727113 0.033954073 -0.18512338 -0.14959314 0.003222928
-0.072997734 -0.01523068 0.18828046 -0.05559846 0.029893003 0.2860188 0.02654181 -0.050250847
-0.10865976 0.09777597 0.08613224 -0.079735614 0.030337187 -0.026524808 -0.21676359 0.19134513
0.07392545 0.013315132 0.096614525 -0.0891876 -0.11187077 -0.04743175 -0.016339848 -0.09286335
0.2601586 0.042520095 -0.1665696 -0.2361737 0.16668501 -0.066948585 0.0069659986 -0.085040025
0.0028867065 -0.20037526 -0.065981805 0.14833565 -0.12651971 -0.19984145 -0.018777203 -0.24654445
-0.1185015 -0.007921839 -0.1372785 0.08143373 0.1751556 0.1663592 0.065045014 0.078650646
0.019233393 0.118088834 0.055627383 -0.3895213 0.03724563 0.061231226 0.07491644 -0.11451213
-0.040799897 -0.12048267 -0.22591595 -0.12802914 0.090448834 0.05592738 0.103370085 -0.14811908
0.15023631 -0.06852641 0.29862255 -0.11550638 0.12376031 -0.23989396 0.2849483 0.08988915
0.18931657 -0.011160377 0.23229438 -0.060113862 0.10936499 -0.06825558 0.22754073 -0.056435876
0.0791244 -0.23075804 -0.13188104 -0.093940556 0.30843297 0.0541072 0.20664 0.13336678
-0.18631871 0.03730272 0.030421233 0.04909439 -0.16725196 0.109419905 -0.16904157 0.06298728
-0.018650992 0.05678389 -0.45543128 0.12011269 0.21374193 0.06642038 -0.10929848 0.31730324
0.15150855 -0.21112317 0.49177843 0.024549752 -0.15804064 -0.0975577 0.114145584 0.128121
-0.061727714 0.17774074 -0.09544623 -0.24694796 -0.22752713 0.013452835 0.062870845 0.006167329
0.1409343 0.0058946703 -0.21270163 -0.4141775 -0.03679973 -0.33330613 0.14107227 -0.36013398
-0.18477908 0.055849303 0.026684908 0.13838339 0.26910526 -0.09127281 0.0276623 -0.29357263
-0.11504658 -0.25263762 0.2488189 0.4807811 0.040170837 0.27659187 0.05136728 -0.12188052
-0.16553438 -0.49483937 0.11106979 -0.00059966685 -0.18903308 0.06561028 -0.12475333 0.011994686
0.35119247 0.039137684 0.10220789 0.07026384 0.017923629 0.09505558 -0.001705258 0.016121991
-0.27194044 -0.08344659 -0.02904708 -0.14813022 0.1172751 -0.017672 -0.012759426 -0.18157378
0.18783149 0.006586312 0.24638917 -0.35968423 -0.109527364 -0.44881365 0.32547444 0.39435062
-0.10789247 -0.22062267 0.22761533 0.030441804 0.17453 0.087772265 0.21503454 -0.3256788
-0.312554 -0.13359179 0.18791202 -0.09527336 -0.36021107 -0.2130472 -0.022460794 -0.096396744
-0.0874014 -0.11976063 -0.22040273 0.2636143 0.37282747 0.25705263 -0.081334874 -0.1431051
0.18640503 -0.43319452 0.3789955 0.14995362 -0.09573769 -0.12168344 0.03727834 -0.12793134
0.32437044 0.17452024 0.0085241655 0.015262187 0.030180952 0.06795374 -0.014511562 -0.08093022
0.32842916 -0.19905664 -0.1808937 -0.19800489 0.22397085 0.09540474 0.20662849 -0.045344893
-0.010874236 0.27126253 -0.28773597 0.04833377 0.28638747 -0.13488705 -0.091433674 -0.16523036
00000000: b7be 70bc 0c40 ecbd cda6 c8bd dbcb 35be
00000010: 0edb a63e 8ddd 71bd 0645 b6bd 4d77 453d
00000020: e7d5 fb3d de9a 0d3d f7e4 2abe 87a1 77bb
00000030: 9ee1 0c3b e63a aa3c b291 253e eb8f ad3d
00000040: be61 95bb 983f fe3d 0921 98bb 3ece 163e
00000050: 6d13 0b3d fc90 3dbe f22e 19be c237 533b
00000060: d67f 95bd 1a8a 79bc 98cc 403e 36bb 63bd
00000070: 2ce2 f43c 0e71 923e 366e d93c d5d3 4dbd
00000080: 0289 debd c53e c83d 1a66 b03d 6d4c a3bd
00000090: b185 f83c 8e4a d9bc 46f7 5dbe faef 433e
000000a0: 3a66 973d b627 5a3c d6dd c53d fda7 b6bd
000000b0: 811c e5bd cb47 42bd 25db 85bc 242f bebd
000000c0: 8233 853e 8d29 2e3d 3991 2abe 85d7 71be
000000d0: 7aaf 2a3e 571c 89bd 0843 e43b 7729 aebd
000000e0: e62e 3d3b 2c2f 4dbe 7821 87bd 4de5 173e
000000f0: 628e 01be 3da3 4cbe a6d2 99bc 2676 7cbe
00000100: eab0 f2bd 9aca 01bc bc92 0cbe bac6 a63d
00000110: fd5b 333e 115a 2a3e 5236 853d 9713 a13d
00000120: 598f 9d3c 8fd8 f13d 8ad9 633d 566f c7be
00000130: e08e 183d 98cd 7a3d ca6d 993d 5685 eabd
00000140: cb1d 27bd 9ebf f6bd 8356 67be 121a 03be
00000150: 3d3d b93d 1c14 653d b2b3 d33d 87ac 17be
00000160: 8cd7 193e 9357 8cbd 0ee5 983e 9c8e ecbd
00000170: 0c76 fd3d c3a6 75be bee4 913e cd17 b83d
00000180: 34dc 413e 04da 36bc 94de 6d3e f439 76bd
00000190: c0fa df3d 95c9 8bbd 7000 693e 4e29 67bd
000001a0: f90b a23d d64b 6cbe d30b 07be e863 c0bd
000001b0: edea 9d3e 839f 5d3d 7099 533e 4d91 083e
000001c0: 55ca 3ebe bdca 183d f335 f93c 3317 493d
000001d0: 1944 2bbe 8b17 e03d 3c19 2dbe 7aff 803d
000001e0: f7c9 98bc 3996 683d 4a2e e9be a4fd f53d
000001f0: 2adf 5a3e 6807 883d e2d7 dfbd 9275 a23e
00000200: 0f25 1b3e ac30 58be 62ca fb3e 901c c93c
00000210: 68d5 21be 55cc c7bd 29c5 e93d 2732 033e
00000220: 33d6 7cbd ab01 363e 5079 c3bd eddf 7cbe
00000230: dffc 68be 4869 5c3c 6ec2 803d 4e17 ca3b
00000240: 1551 103e 1428 c13b 75ce 59be 130f d4be
00000250: 50bb 16bd 1aa7 aabe 4075 103e 7b63 b8be
00000260: ba36 3dbe 3dc2 643d 4f9a da3c 60b4 0d3e
00000270: 2ac8 893e 3ded babd 0c9c e23c 274f 96be
00000280: 8b9d ebbd b859 81be 62ca 7e3e f128 f63e
00000290: 2d8a 243d 739d 8d3e 7f66 523d 7e9c f9bd
000002a0: d881 29be 965b fdbe 8f78 e33d f632 1dba
000002b0: e391 41be af5e 863d ad7e ffbd 5c85 443c
000002c0: 80cf b33e d64e 203d 5f52 d13d 7de6 8f3d
000002d0: 93d4 923c 80ac c23d f782 dfba 4412 843c
000002e0: c73b 8bbe 0ce6 aabd 24f4 edbc 73af 17be
000002f0: ed2d f03d dfc4 90bc e90c 51bc 7aee 39be
00000300: e656 403e fdd1 d73b 714d 7c3e 8828 b8be
00000310: e24f e0bd e7ca e5be 96a4 a63e 53e8 c93e
00000320: baf6 dcbd e9ea 61be fe13 693e 1761 f93c
00000330: feb7 323e f2c1 b33d 0432 5c3e 5fbf a6be
00000340: 1407 a0be 49cc 08be 026c 403e ae1e c3bd
00000350: 966d b8be 0c29 5abe b3ff b7bc a86b c5bd
00000360: 81ff b2bd 1045 f5bd 41b1 61be 74f8 863e
00000370: 3ee3 be3e 679c 833e e692 a6bd 258a 12be
00000380: f6e0 3e3e accb ddbe b30b c23e 718d 193e
00000390: 1f12 c4bd 2b35 f9bd 2cb1 183d 6f00 03be
000003a0: e213 a63e 6fb5 323e f1a8 0b3c 410e 7a3c
000003b0: 0b3e f73c 552b 8b3d e7c1 6dbc bebe a5bd
000003c0: de27 a83e 81d5 4bbe 333c 39be cbc1 4abe
000003d0: 9d58 653e 8f63 c33d 6b96 533e 91bb 39bd
000003e0: da29 32bc ece2 8a3e 2152 93be a2f9 453d
000003f0: 61a1 923e d51f 0abe 9441 bbbd 2632 29be

b2 f4 [96]
0.042847123 0.016956268 0.043484464 0.075173706 0.056974962 0.07606281 -0.03777362 -0.03279659
-0.024807893 -0.055864707 0.0046977224 -0.0069174757 -0.043824796 0.0063876603 0.018682491 0.08807743
-0.019163808 0.079824924 -0.005925576 -0.05322126 0.15913118 0.10997855 0.052020255 -0.009704333
-0.020353125 0.008399288 0.068358004 0.093147606 0.02795674 0.07222687 -0.030543486 0.008200758
-0.0067244293 0.09285631 0.06886923 0.14279325 0.09976753 0.053258784 0.08676045 0.101165146
0.042661384 0.03636697 0.1341356 -0.009699799 -0.031494882 0.02511684 0.00559567 -0.018211683
0.015770813 -0.045142245 0.06874648 -0.002579168 0.016098777 -0.010886673 0.04197401 -0.01755303
-0.0046521765 0.11261489 -0.054940056 -0.0033387893 0.05098154 0.00015889526 0.011414431 0.0609876
0.06372506 0.0045021693 -0.02846769 0.042574573 0.03025443 0.00805524 0.06486484 0.03992262
0.079808205 0.042513628 -0.016939124 0.03856947 0.07560999 0.0054396824 -0.004148892 -0.006492598
0.12464438 0.007627826 -0.02523554 -0.04959636 -0.021393362 0.08217246 0.0017537181 0.08478497
-0.046022594 0.0057548946 0.022803713 0.070149265 0.020623162 0.06325263 0.08276667 -0.02176958
00000000: 7780 2f3d dfe7 8a3c c41c 323d acf4 993d
00000010: 945e 693d d2c6 9b3d 83b8 1abd b855 06bd
00000020: ec39 cbbc 64d2 64bd 5aef 993b feab e2bb
00000030: a181 33bd 944f d13b 060c 993c f161 b43d
00000040: 6bfd 9cbc 407b a33d 562b c2bb 89fe 59bd
00000050: 49f3 223e 6f3c e13d 3113 553d ecfe 1ebc
00000060: 99bb a6bc 2b9d 093c 48ff 8b3d 2cc4 be3d
00000070: 8905 e53c aeeb 933d 5536 fabc 795c 063c
00000080: 9a58 dcbb 732b be3d 500b 8d3d 6538 123e
00000090: eb52 cc3d e225 5a3d 76af b13d ac2f cf3d
000000a0: b4bd 2e3d 88f5 143d d85a 093e e8eb 1ebc
000000b0: c700 01bd d5c1 cd3c e25b b73b ab30 95bc
000000c0: cb31 813c 13e7 38bd f4ca 8c3d 4207 29bb
000000d0: 95e1 833c 045e 32bc f1ec 2b3d 5fcb 8fbc
000000e0: 4971 98bb a3a2 e63d d308 61bd 97cf 5abb
000000f0: 05d2 503d 1f9d 2639 9803 3b3c 22ce 793d
00000100: 4982 823d ef86 933b 1335 e9bc ad62 2e3d
00000110: 23d8 f73c 20fa 033c dbd7 843d e785 233d
00000120: 7c72 a33d c522 2e3d ebc3 8abc 05fb 1d3d
00000130: 69d9 9a3d 5d3f b23b 6ef3 87bb dcbf d4bb
00000140: 8d45 ff3d d8f2 f93b c3ba cebc 8e25 4bbd
00000150: 2241 afbc 094a a83d 04dd e53a bea3 ad3d
00000160: 3082 3cbd 8e93 bc3b dace ba3c 6baa 8f3d
00000170: e8f1 a83c 988a 813d 9281 a93d 1e56 b2bc

W3 (column-major) f4 [10, 96]
0.20037583 -0.3555545 -0.2712633 0.177966 0.21413782 -0.11453201 0.11553277 0.16487762
0.13063323 0.18233001 0.15585251 -0.20882368 -0.19894643 -0.2853531 -0.2409707 0.16671784
-0.35481107 -0.20036802 -0.20969881 0.1514148 0.09262234 -0.3761328 -0.0012192163 0.017257428
0.20414095 0.058589537 0.2676948 -0.12152046 -0.5603352 0.22014116 -0.2484136 0.18941675
0.039295778 0.12926567 -0.40592557 0.029863225 0.024304293 -0.01618874 0.24498625 0.07708582
0.253877 -0.18680508 -0.28925014 0.14982921 -0.4265303 0.020478746 -0.06254394 -0.14313574
0.055821314 0.24333736 -0.38068092 -0.43916503 -0.29759148 0.18728149 -0.35154817 0.33007765
0.42301548 0.4654987 0.076570354 -0.5833113 -0.5632246 0.06441533 0.18115377 -0.44825616
-0.10782487 -0.16109551 0.13047108 0.3970764 0.17977178 -0.36444092 0.12303131 0.16286184
0.13288648 -0.22427689 -0.013009876 -0.48822916 -0.37556338 -0.26527205 -0.6136409 0.51172614
0.1001081 -0.20641994 0.15091558 0.04546937 0.05538215 -0.12284834 0.15255107 -0.13976589
-0.18243581 0.14252271 -0.036020968 0.25285846 0.3152087 0.38480148 0.24289161 -0.41405615
-0.11408951 0.22090286 -0.23084222 -0.3224786 0.14877433 -0.31422967 -0.031891618 0.37221092
-0.4660016 -0.34451056 0.2952869 0.29264697 -0.33428842 0.30944118 0.013926333 -0.02655076
-0.21375045 -0.19255514 -0.16540147 -0.10745108 0.099070884 0.24007002 -0.018401895 -0.020708665
-0.07805077 -0.053542536 -0.3621716 0.098945364 -0.00656071 -0.5237458 -0.13770378 0.3034694
-0.35991877 0.20151807 -0.42972565 -0.23388797 0.051672786 0.058691103 0.30932203 0.3931924
-0.34448782 -0.36703473 -0.2606716 0.3502564 0.2207959 0.169592 -0.03228432 0.0937915
-0.5075899 0.15890935 -0.24245447 0.082270704 0.031001592 0.16398221 -0.54496723 -0.35908946
-0.004110721 0.05761376 -0.513657 0.39735848 0.19208984 -0.41968036 0.23377554 0.15226394
0.08142088 0.26564178 0.07755249 0.11713652 -0.1336441 0.12078445 -0.26314795 -0.008826032
-0.10555994 -0.23870386 0.25030488 -0.32271257 0.14103386 -0.042076472 -0.48648795 0.23801905
0.16701946 -0.236693 0.10217977 0.24380016 -0.09348581 0.23713526 0.21382232 -0.35054395
0.18661502 -0.0191539 0.32940745 0.34678477 -0.25610796 -0.1221467 -0.30307534 0.2957709
-0.3390208 0.23855798 -0.1182537 -0.04981944 0.20337075 -0.018376136 -0.25182995 -0.07447907
-0.36971372 -0.34132108 -0.15217708 0.2633719 -0.22957335 0.251798 0.057273448 -0.4847465
0.23344919 -0.14089146 -0.384035 0.12513974 0.06918789 0.23842256 -0.021946704 0.101896025
-0.33163285 0.06560298 0.33156037 -0.27566063 -0.24930404 0.01691781 0.20410989 0.18631695
0.19437718 -0.34088042 0.03417091 -0.2861058 -0.07071165 0.07287504 -0.036905497 0.42392167
-0.26055974 -0.105811425 -0.072708845 0.0485169 -0.03657601 -0.46600452 -0.21784088 -0.26607433
-0.18289256 -0.16607168 -0.107114494 0.2221935 -0.22681451 -0.222801 -0.119290166 -0.05509179
0.16692224 0.22003303 -0.081626385 0.00040063148 -0.21389884 -0.084310554 -0.13698056 0.25845915
00000000: 522f 4d3e 3d0b b6be 06e3 8abe b83c 363e
00000010: f246 5b3e c28f eabd 729c ec3d aed5 283e
00000020: b8c4 053e b8b4 3a3e cd97 1f3e e0d5 55be
00000030: 9db8 4bbe cd19 92be 06c1 76be 15b8 2a3e
00000040: cca9 b5be 462d 4dbe 49bb 56be 7b0c 1b3e
00000050: c8b0 bd3d 7a94 c0be 1cce 9fba 735f 8d3c
00000060: 530a 513e 95fb 6f3d 4b0f 893e b8df f8bd
00000070: 2172 0fbf af6c 613e 2260 7ebe 77f6 413e
00000080: 9cf4 203d 385e 043e 7ad5 cfbe b9a3 f43c
00000090: cc19 c73c 409e 84bc addd 7a3e 2cdf 9d3d
000000a0: 2bfc 813e d549 3fbe 9818 94be d46c 193e
000000b0: 2e62 dabe 0bc3 a73c 0a17 80bd 2d92 12be
000000c0: e4a4 643d 6e2d 793e 9ce8 c2be 3dda e0be
000000d0: e95d 98be b8c6 3f3e 1ffe b3be f0ff a83e
000000e0: 7c95 d83e d855 ee3e ebd0 9c3d e453 15bf
000000f0: 7d2f 10bf 2fec 833d 6080 393e d581 e5be
00000100: 49d3 dcbd 39f6 24be 369a 053e 994d cb3e
00000110: 1816 383e 0098 babe d7f7 fb3d 41c5 263e
00000120: 6513 083e d7a8 65be 6027 55bc 2cf9 f9be
00000130: d849 c0be bdd1 87be 9217 1dbf 7c00 033f
00000140: 7a05 cd3d c05f 53be 9d89 1a3e 173e 3a3d
00000150: 65d8 623d e997 fbbd 5936 1c3e ca1e 0fbe
00000160: 74d0 3abe 79f1 113e b98a 13bd aa76 813e
00000170: 0963 a13e b304 c53e 94b8 783e 2bff d3be
00000180: c3a7 e9bd 5c34 623e e761 6cbe ea1b a5be
00000190: 4c58 183e b6e2 a0be c9a0 02bd 6e92 be3e
000001a0: c397 eebe b063 b0be d82f 973e d3d5 953e
000001b0: da27 abbe 136f 9e3e 462b 643c fb80 d9bc
000001c0: 66e1 5abe 2d2d 45be 015f 29be 500f dcbd
000001d0: ade5 ca3d ead4 753e 92bf 96bc 38a5 a9bc
000001e0: 15d9 9fbd 6b4f 5bbd 8e6e b9be dea3 ca3d
000001f0: 39fb d6bb 3414 06bf 3802 0dbe 5760 9b3e
00000200: 4647 b8be c15a 4e3e 0005 dcbe 5480 6fbe
00000210: d8a6 533d 1566 703d 755f 9e3e 8450 c93e
00000220: b560 b0be faeb bbbe bf76 85be cf54 b33e
00000230: 5218 623e 86a9 2d3e 903c 04bd c215 c03d
00000240: 69f1 01bf 22b9 223e fc45 78be 8b7d a83d
00000250: 0df7 fd3c f4ea 273e f982 0bbf 93da b7be
00000260: 3ab3 86bb 68fc 6b3d 067f 03bf 9272 cb3e
00000270: 33b3 443e 58e0 d6be db62 6f3e 14eb 1b3e
00000280: febf a63d 3302 883e d7d3 9e3d 46e5 ef3d
00000290: 00da 08be d65d f73d 54bb 86be 109b 10bc
000002a0: cf2f d8bd c96e 74be f627 803e 953a a5be
000002b0: 2e6b 103e 6158 2cbd f314 f9be 44bb 733e
000002c0: 2607 2b3e a65f 72be a143 d13d c0a6 793e
000002d0: 7d75 bfbd 96d3 723e 3df4 5a3e 7f7a b3be
000002e0: 0218 3f3e a4e8 9cbc 18a8 a83e c68d b13e
000002f0: 9520 83be 0d28 fabd b12c 9bbe 496f 973e
00000300: 2294 adbe 8b48 743e ff2e f2bd 780f 4cbd
00000310: 6c40 503e 8d89 96bc dbef 80be 7c88 98bd
00000320: 1e4b bdbe a3c1 aebe 4fd4 1bbe afd8 863e
00000330: 4715 6bbe abeb 803e 9097 6a3d b130 f8be
00000340: 4e0d 6f3e da45 10be 3ca0 c4be a224 003e
00000350: 61b2 8d3d 0b25 743e 93c9 b3bc ddae d03d
00000360: c8cb a9be db5a 863d 48c2 a93e 6423 8dbe
00000370: 8f49 7fbe 3897 8a3c 2f02 513e dfc9 3e3e
00000380: d00a 473e e187 aebe ccf6 0b3d 767c 92be
00000390: 45d1 90bd 823f 953d 382a 17bd 430c d93e
000003a0: 1668 85be a9b3 d8bd 60e8 94bd a8b9 463d
000003b0: bad0 15bd 2598 eebe ae11 5fbe e53a 88be
000003c0: 3048 3bbe b20e 2abe d85e dbbd b186 633e
000003d0: 1042 68be f225 64be 674e f4bd eea7 61bd
000003e0: aaed 2a3e 5750 613e bc2b a7bd d90b d239
000003f0: 4c08 5bbe 03ab acbd a244 0cbe c254 843e

b3 f4 [10]
-0.033213772 -0.055750683 -0.010187153 -0.037419446 -0.008925816 0.01644923 0.00020900456 -0.03895937
0.09671002 0.011905714
00000000: 2a0b 08bd d45a 64bd 04e8 26bc 2245 19bd
00000010: 963d 12bc 89c0 863c 3c28 5b39 dc93 1fbd
00000020: e70f c63d 2f10 433c
