neural_net/mnist_mlp_weights.npz (npz, 255862 bytes, 10 tensors)

W1 (column-major) f4 [64, 784]
0.08090172 -0.12968105 -0.2096387 0.21506052 0.14974552 0.039883472 -0.113787204 0.0967612
-0.0011011619 0.08374699 -0.08588122 -0.16569997 -0.062890716 -0.030486686 -0.06295778 0.07259199
0.09440429 -0.06118011 -0.06060864 0.014272719 -0.037770562 -0.26097816 0.17115822 -0.10816791
0.1259214 -0.06427836 0.08976999 -0.0617043 -0.09281954 -0.010300439 -0.02153742 0.13766675
-0.0027890585 -0.09268714 0.10039002 0.21001238 0.06572811 -0.1680769 0.036924403 -0.09367074
-0.03062063 -0.11680689 -0.09421819 -0.1814987 0.18384695 0.0058748624 -0.10673431 -0.10180265
-0.023731329 0.15163285 0.13903615 -0.05597556 -0.046938036 0.07638493 -0.0078037065 0.06921073
-0.041233655 0.03318445 0.026102675 -0.024729518 -0.09262613 -0.07932506 0.044252027 0.022322603
-0.05598025 -0.051641025 -0.10522711 0.19661981 0.18360096 0.05255505 -0.05277311 -0.07090617
-0.0503634 0.1383742 0.04590014 -0.010691733 -0.049082123 0.049008675 -0.25567177 -0.07208188
-0.0077468506 0.06131606 -0.06459824 -0.022637503 -0.06736231 -0.1384073 0.17815621 -0.21318233
0.15761667 -0.10250649 0.13611765 -0.011561624 0.022039864 -0.10140622 -0.04236899 0.17039122
-0.15588571 -0.084657654 0.039752617 0.23124406 0.01218962 -0.1523491 0.079928 -0.006346275
-0.0148348585 -0.16029318 -0.047239225 -0.17674316 0.05889115 0.07142963 -0.2179256 -0.0654546
-0.16414028 -0.0048400466 0.15538156 -0.073343374 -0.034787625 0.061725516 0.013391926 0.011673434
0.07276443 0.030095361 -0.10881817 -0.041325867 -0.1406119 -0.09352792 -0.02754855 0.0035359527
-0.08282589 -0.09449786 -0.13990155 0.090433665 -0.030749107 -0.0120588485 -0.009913022 0.028878918
-0.062447134 0.13392974 0.009256363 -0.061789867 -0.012502562 0.030312642 -0.118686005 0.014368049
0.061288424 0.009721545 -0.1971894 -0.0986753 0.0053135934 -0.20902036 0.15035258 -0.12755862
-0.01606543 -0.075527094 0.09545797 -0.08829951 0.03346998 -0.13432094 0.006214203 -0.006086884
-0.06417539 -0.033334475 0.032699827 0.0648574 -0.12600991 -0.06363222 0.011718495 0.0797973
-0.047171656 -0.016805239 0.07377035 -0.118080035 0.019986896 -0.09535342 -0.21602386 0.059286814
-0.06683832 0.04543666 0.10732146 0.007169908 -0.06086206 0.09092309 0.009513427 0.028713942
0.037801992 0.011319897 0.058623545 -0.012363503 -0.105251916 -0.019989349 -0.009994492 0.06032554
-0.06661567 -0.15762891 -0.15993297 0.018386506 0.12962934 -0.13329662 -0.00013469368 -0.10991635
-0.073241964 0.10224666 0.06878258 -0.08351169 -0.019386355 -0.011252419 -0.14876091 0.016664393
0.17062685 0.009916832 -0.03802111 -0.090046145 -0.08012538 -0.14193894 0.057114158 -0.13010962
0.09970119 -0.08498439 0.061141465 -0.016427485 -0.012449578 -0.0686938 -0.01815395 0.03194461
-0.13396671 -0.12984236 0.13891852 0.20399883 -0.0058887564 -0.1569939 0.0068277144 -0.04413327
0.022534871 0.010319323 -0.049891114 -0.19295879 0.12089366 -0.112052865 -0.06628585 -0.031292606
-0.044486053 0.084553055 0.09775706 -0.01951423 -0.045756478 0.06155462 -0.005710918 0.09924902
-0.03164898 -0.020517183 0.056627866 -0.03349765 -0.05759363 -0.13382383 0.072636984 -0.023477709
00000000: cdaf a53d 1ccb 04be 87ab 56be d338 5c3e
00000010: e456 193e da5c 233d 4409 e9bd bc2a c63d
00000020: dd54 90ba 8b83 ab3d 7ee2 afbd 41ad 29be
00000030: d9cc 80bd 37bf f9bc 02f0 80bd 1cab 943d
00000040: 0957 c13d ff97 7abd c440 78bd 1fd8 693c
00000050: 4eb5 1abd ee9e 85be 1a44 2f3e 2387 ddbd
00000060: 8af1 003e 5fa4 83bd 54d9 b73d a6bd 7cbd
00000070: 2c18 bebd 2cc3 28bc 3e6f b0bc 83f8 0c3e
00000080: a3c8 36bb c1d2 bdbd 4899 cd3d 7c0d 573e
00000090: 769c 863d 5a1c 2cbe 0b3e 173d 72d6 bfbd
000000a0: 1ed8 fabc 7338 efbd 77f5 c0bd ccda 39be
000000b0: 6042 3c3e eb81 c03b 8597 dabd e87d d0bd
000000c0: 3468 c2bc a445 1b3e 7e5f 0e3e a146 65bd
000000d0: 1942 40bd b46f 9c3d 3cb6 ffbb 5bbe 8d3d
000000e0: 9fe4 28bd 6bec 073d 47d5 d53c 8f95 cabc
000000f0: c5b2 bdbd 2d75 a2bd 9d41 353d e4dd b63c
00000100: 8c4b 65bd 8a85 53bd 5081 d7bd b456 493e
00000110: e401 3c3e f743 573d 9e28 58bd 4137 91bd
00000120: da49 4ebd f7b1 0d3e c901 3c3d 612c 2fbc
00000130: 560a 49bd 52bd 483d 69e7 82be aa9f 93bd
00000140: 4bd9 fdbb 8d26 7b3d 154c 84bd 4972 b9bc
00000150: 40f5 89bd a5ba 0dbe 956e 363e 784c 5abe
00000160: 4466 213e ecee d1bd 6d62 0b3e f76c 3dbc
00000170: f28c b43c 10ae cfbd 1b8b 2dbd 097b 2e3e
00000180: 81a0 1fbe fe60 adbd a4d3 223d 3ecb 6c3e
00000190: f9b6 473c 6701 1cbe 4bb1 a33d 6af4 cfbb
000001a0: e80d 73bc e523 24be eb7d 41bd 29fc 34be
000001b0: d937 713d b349 923d e327 5fbe 100d 86bd
000001c0: 6414 28be 4199 9ebb 581c 1f3e 0d35 96bd
000001d0: 787d 0ebd e5d3 7c3d cf69 5b3c ee41 3f3c
000001e0: 8405 953d 8c8a f63c 10dc debd 5045 29bd
000001f0: 91fc 0fbe 918b bfbd 7fad e1bc 71bb 673b
00000200: 9fa0 a9bd 1888 c1bd 5a42 0fbe 4935 b93d
00000210: 8de5 fbbc 7a92 45bc 3a6a 22bc 7b93 ec3c
00000220: 91c8 7fbd e124 093e 00a8 173c 5f17 7dbd
00000230: 8cd7 4cbc 3852 f83c a611 f3bd f767 6b3c
00000240: 9209 7b3d 1d47 1f3c 05ec 49be 4716 cabd
00000250: a71d ae3b 6f09 56be 07f6 193e ba9e 02be
00000260: a69b 83bc f3ad 9abd 787f c33d 60d6 b4bd
00000270: d117 093d 6e8b 09be 83a0 cb3b 7c74 c7bb
00000280: 636e 83bd bb89 08bd 41f0 053d f5d3 843d
00000290: be08 01be 9c51 82bd eefe 3f3c c46c a33d
000002a0: 1137 41bd 24ab 89bc e914 973d f2d3 f1bd
000002b0: 8fbb a33c a748 c3bd 5c35 5dbe bbd6 723d
000002c0: 87e2 88bd cb1b 3a3d 5bcb db3d 8cf1 ea3b
000002d0: 7f4a 79bd e335 ba3d 34de 1b3c 8039 eb3c
000002e0: 43d6 1a3d 1777 393c 3e1f 703d 4a90 4abc
000002f0: 518e d7bd b4c0 a3bc f0bf 23bc ea17 773d
00000300: cc6d 88bd 7969 21be 78c5 23be 4c9f 963c
00000310: 8ebd 043e e97e 08be 8f3c 0db9 d31b e1bd
00000320: e2ff 95bd b266 d13d e2dd 8c3d 2d08 abbd
00000330: 22d0 9ebc 115c 38bc c854 18be c483 883c
00000340: ceb8 2e3e 357a 223c 06bc 1bbd 1d6a b8bd
00000350: c618 a4bd 7158 11be 89f0 693d 753b 05be
00000360: 2330 cc3d 4c0c aebd 796f 7a3d ef92 86bc
00000370: 51f9 4bbc 56af 8cbd 98b7 94bc 5ad8 023d
00000380: 922e 09be 65f5 04be a840 0e3e 12e5 503e
00000390: 78f6 c0bb 02c3 20be 05bb df3b 16c5 34bd
000003a0: 0d9b b83c 6112 293c a05a 4cbd fd96 45be
000003b0: 1897 f73d f97b e5bd e0c0 87bd ad2c 00bd
000003c0: 0237 36bd 272a ad3d da34 c83d 4edc 9fbc
000003d0: 256b 3bbd b220 7c3d a722 bbbb 1243 cb3d
000003e0: 5ca2 01bd a713 a8bc 9ff2 673d d534 09bd
000003f0: 4ce7 6bbd 1d09 09be b3c2 943d 5354 c0bc

b1 f4 [64]
-0.03857687 0.14605293 0.1690516 0.36872798 0.10468162 0.07101974 -0.027971204 -0.03369195
0.07116733 0.1378889 0.027594395 0.14440916 0.1418898 0.02077746 0.10864399 -0.16925879
0.20335406 -0.046288624 0.16045988 -0.16473065 -0.1218909 0.26254153 0.21860076 0.2938352
0.36127955 0.055799473 0.23481178 -0.02817292 -0.032434795 -0.17082396 0.09422561 0.16949904
0.114592604 0.21868281 -0.0076996046 0.21907748 -0.08719654 0.23984417 0.2631774 0.13898431
-0.048735812 0.06568209 -0.057866238 0.19965123 0.25695246 0.13826859 0.24013044 0.106154904
0.28417945 0.13254035 0.329651 0.073637314 0.020212466 0.16948107 -0.0027561113 -0.020287141
-0.0052124583 -0.048040107 -0.081018746 0.0072733 0.14197633 0.10682203 0.015462632 0.114350654
00000000: c802 1ebd e68e 153e dd1b 2d3e eac9 bc3e
00000010: 5163 d63d cc72 913d de23 e5bc 9200 0abd
00000020: 2dc0 913d bf32 0d3e a40d e23c ffdf 133e
00000030: 8f4b 113e 7e35 aa3c bd80 de3d 2d52 2dbe
00000040: 0c3c 503e 2499 3dbd 984f 243e 27af 28be
00000050: f0a1 f9bd d86b 863e e1d8 5f3e 9171 963e
00000060: a2f9 b83e fd8d 643d 8072 703e e5ca e6bc
00000070: 59da 04bd 7aec 2ebe 5bf9 c03d 2891 2d3e
00000080: 87af ea3d 63ee 5f3e f74c fcbb d955 603e
00000090: 1994 b2bd b699 753e 30bf 863e e751 0e3e
000000a0: 349f 47bd 5584 863d 2605 6dbd 5f71 4c3e
000000b0: 468f 833e 4896 0d3e c1e4 753e be67 d93d
000000c0: f87f 913e a8b8 073e 04c8 a83e 29cf 963d
000000d0: 9d94 a53c 728c 2d3e e09f 34bb 3831 a6bc
000000e0: 45cd aabb b4c5 44bd 28ed a5bd dd54 ee3b
000000f0: 3e62 113e 82c5 da3d fb56 7d3c ad30 ea3d

W2 (column-major) f4 [64, 64]
-0.17667395 0.04514487 -0.13409927 0.13920256 0.22381134 -0.335519 -0.0055574677 -0.011875634
0.039507944 0.17228948 0.0889065 0.12585773 -0.14202562 -0.0603575 -0.12220213 -0.27393726
-0.047855455 -0.3083443 -0.06443055 -0.26628575 0.041738678 0.028422816 -0.17990091 -0.14689575
0.024209732 -0.32214472 0.23333922 -0.181908 0.23444392 -0.11432636 -0.11718224 -0.17398624
0.1653758 0.20719023 -0.19145228 -0.039485488 -0.14562835 0.2544186 0.13692874 0.024268825
0.15057789 -0.10258999 0.10796778 -0.1955042 -0.25595048 -0.29640558 0.039105915 -0.11205923
0.017298173 -0.16973603 0.24340087 -0.23054422 0.023066275 0.11514624 -0.40959814 -0.053902768
-0.03797863 -0.18973126 -0.24501501 0.009396167 -0.32010242 -0.31479117 -0.17990938 0.072137006
0.025712388 0.13405687 0.2785116 -0.18153355 0.23144887 -0.28841084 -0.38959903 0.14732021
0.14166984 -0.006063618 0.026359428 0.1193718 -0.08320931 0.14845754 -0.3299138 0.038995415
0.23003615 -0.05202876 0.120695665 -0.18576206 0.1485159 -0.21154152 0.13230178 0.31124467
-0.23389925 0.02311051 0.21398467 0.26218084 -0.07056126 0.15837348 0.1221569 -0.047129992
0.37663376 0.024727678 0.19776306 0.21296449 0.07868581 0.025541274 -0.30967164 -0.16673702
0.1402751 0.38355246 0.013758457 0.08842695 -0.09372627 -0.11779242 -0.07353202 0.06554523
0.17434461 -0.032345906 -0.13915329 -0.18538363 -0.1749536 -0.20980917 -0.060361367 0.16987863
-0.076268956 -0.17646419 -0.034653716 0.23467651 0.03418574 -0.16100559 -0.012995256 -0.51932764
0.14126518 0.26895195 0.03823102 0.19926853 -0.24519281 -0.19030248 0.06086759 0.08098142
0.24014825 -0.3357872 -0.09329703 0.075818524 -0.11795601 0.291495 0.07793545 0.09016931
-0.23589927 -0.25998697 -0.17643471 0.052669853 -0.15958802 0.20769985 -0.3099255 0.009676703
-0.081822544 -0.106725246 0.008151231 -0.32598507 -0.039537303 -0.2173684 0.17478466 0.16787642
-0.4016101 -0.024841707 -0.020506987 -0.16961326 0.24113843 -0.11215287 -0.2757589 0.169154
-0.07807556 -0.1273678 0.24110143 -0.61690843 0.14689505 -0.44333908 -0.18856983 -0.41287988
-0.11398721 -0.32221702 0.30871278 0.15657572 0.14233808 -0.40294203 0.14970648 0.018966394
-0.0763789 -0.17240202 -0.4655566 -0.09122684 -0.06985288 0.2911599 -0.13339922 -0.30343437
0.12920001 0.060880385 0.072196715 0.3010362 -0.055234574 0.11987728 -0.1906518 0.09373744
0.17417479 -0.71949834 -0.092406064 -0.14416912 -0.06791932 0.05162358 0.18158258 0.041148182
-0.010077978 0.047329336 0.24631824 -0.061262142 -0.074581794 0.0054135737 0.17712085 0.113631204
0.22237732 -0.10725707 0.042792942 0.15780298 -0.18990858 0.22358455 0.2416329 -0.0977099
-0.17151864 -0.21988803 -0.0025302009 0.4576732 0.3655633 -0.40440804 -0.06889498 -0.25014743
0.07899326 -0.011650298 0.25738525 0.034295164 0.058225527 0.03848194 0.01797478 0.05589186
-0.00063609047 -0.12425935 -0.11782437 0.117179826 -0.09926853 0.0041425484 0.06703548 -0.16259095
0.0109899 0.08029286 0.20801042 0.1271518 -0.25066128 0.035941284 -0.34313607 -0.09298071
00000000: 04ea 34be d4e9 383d 5251 09be 1e8b 0e3e
00000010: cd2e 653e 25c9 abbe 6b1b b6bb 0592 42bc
00000020: 15d3 213d a76c 303e 9c14 b63d d9e0 003e
00000030: 2a6f 11be 6d39 77bd 1c45 fabd 8141 8cbe
00000040: 1504 44bd 4edf 9dbe 2af4 83bd 9b56 88be
00000050: 2df6 2a3d f7d6 e83c f237 38be d76b 16be
00000060: 7d53 c63c 27f0 a4be 7af0 6e3e 1746 3abe
00000070: 1112 703e f023 eabd 3efd efbd 7329 32be
00000080: 4658 293e ad29 543e 110c 44be 89bb 21bd
00000090: 991f 15be 2843 823e 0c37 0c3e 6acf c63c
000000a0: 1731 1a3e b31a d2bd 361e dd3d 4132 48be
000000b0: f10b 83be 79c2 97be 862d 203d 4f7f e5bd
000000c0: e6b4 8d3c 48cf 2dbe 143e 793e c913 6cbe
000000d0: 7cf5 bc3c cbd1 eb3d d9b6 d1be 26c9 5cbd
000000e0: 7b8f 1bbd e948 42be 37e5 7abe 61f2 193c
000000f0: 77e4 a3be 4f2c a1be 2a3a 38be 91bc 933d
00000100: c9a2 d23c 3446 093e 1399 8e3e eee3 39be
00000110: ef00 6d3e 96aa 93be 8679 c7be 1cdb 163e
00000120: e611 113e 51b1 c6bb baef d73c 3479 f43d
00000130: a569 aabd 4105 183e 76ea a8be a8b9 1f3d
00000140: 998e 6b3e 1c1c 55bd 4a2f f73d 6938 3ebe
00000150: 8d14 183e 579e 58be 1e7a 073e 765b 9f3e
00000160: 4983 6fbe 4152 bd3c cc1e 5b3e 913c 863e
00000170: 6c82 90bd a82c 223e 662d fa3d 610b 41bd
00000180: 24d6 c03e b391 ca3c 6682 4a3e 5d13 5a3e
00000190: 0726 a13d ef3b d13c 488d 9ebe 1cbd 2abe
000001a0: 47a4 0f3e fd60 c43e 276b 613c 3019 b53d
000001b0: 8ff3 bfbd 273d f1bd f597 96bd 943c 863d
000001c0: 6587 323e 247d 04bd 337e 0ebe 35d5 3dbe
000001d0: 0927 33be 37d8 56be 7b3d 77bd aaf4 2d3e
000001e0: e632 9cbd 07b3 34be 0ef1 0dbd 0a4f 703e
000001f0: 5906 0c3d a6de 24be 0eea 54bc a8f2 04bf
00000200: d2a7 103e 12b4 893e 2198 1c3d 0d0d 4c3e
00000210: d313 7bbe a7de 42be 4b50 793d 96d9 a53d
00000220: 6ce9 753e 4dec abbe 8312 bfbd be46 9b3d
00000230: ec92 f1bd d53e 953e 9f9c 9f3d b0aa b83d
00000240: 948f 71be 031d 85be 4dab 34be 58bc 573d
00000250: 0b6b 23be 45af 543e 8eae 9ebe 098b 1e3c
00000260: 9492 a7bd c492 dabd be8c 053c 84e7 a6be
00000270: def1 21bd d295 5ebe c0fa 323e cce7 2b3e
00000280: d79f cdbe d680 cbbc 45fe a7bc 19af 2dbe
00000290: feec 763e 67b0 e5bd 4530 8dbe b536 2d3e
000002a0: 14e6 9fbd b46c 02be 4be3 763e b6ed 1dbf
000002b0: a86b 163e 57fd e2be 7318 41be fe64 d3be
000002c0: 2072 e9bd a1f9 a4be 9a0f 9e3e 6355 203e
000002d0: 13c1 113e 6b4e cebe a84c 193e 695f 9b3c
000002e0: 8a6c 9cbd 288a 30be 6f5d eebe 23d5 babd
000002f0: 070f 8fbd e912 953e ce99 08be c05b 9bbe
00000300: 024d 043e b65d 793d dfdb 933d 6b21 9a3e
00000310: a63d 62bd 3882 f53d 3a3a 43be 6af9 bf3d
00000320: e05a 323e 0b31 38bf 643f bdbd 12a1 13be
00000330: 4919 8bbd 3f73 533d c9f0 393e ff8a 283d
00000340: 1a1e 25bc 68dc 413d d93a 7c3e 03ee 7abd
00000350: 57be 98bd 5964 b13b 2b5f 353e 7ab7 e83d
00000360: e1b6 633e 98a9 dbbd a747 2f3d 1b97 213e
00000370: 6577 42be 59f3 643e 9d6e 773e 211c c8bd
00000380: 95a2 2fbe 542a 61be bad1 25bb 2454 ea3e
00000390: 1d2b bb3e 920e cfbe d018 8dbd 5313 80be
000003a0: 38c7 a13d e4e0 3ebc 00c8 833e 1679 0c3d
000003b0: e47d 6e3d 3d9f 1d3d d93f 933c ddee 643d
000003c0: 4fbf 26ba b07b febd e74d f1bd fafb ef3d
000003d0: 4d4d cbbd 37be 873b e649 893d 3e7e 26be
000003e0: fb0e 343c 9570 a43d af00 553e 1534 023e
000003f0: ad56 80be 2b37 133d 88af afbe ac6c bebd

b2 f4 [64]
0.04251288 0.070362456 0.1264911 -0.041082673 0.35797504 0.06241478 -0.056074254 0.14335942
0.11595003 0.082541294 0.19806209 -0.011521975 -0.032177154 0.19829716 0.15377466 0.21136352
-0.015542854 0.008192293 0.25619707 0.02307448 0.44168007 0.18531859 0.24108528 0.1439012
0.14111876 -0.021938162 0.19645648 0.1652636 0.2384743 0.16922724 0.029902989 -0.001853422
0.13013475 0.3340335 -0.03781704 0.11381575 0.24070613 0.012422105 0.109060735 -0.1719428
0.0121727055 -0.034264132 -0.20845586 -0.005430245 0.026537731 0.02945871 0.21652186 -0.131572
0.03307503 -0.14616868 0.11487676 0.06698323 0.19163166 0.062487353 0.19393617 0.15091959
0.0047181845 0.32692188 0.3663542 0.3390877 0.038537897 -0.08719881 0.109352894 0.04750915
00000000: fc21 2e3d 311a 903d e286 013e 4e46 28bd
00000010: 8148 b73e a4a6 7f3d 1eae 65bd d0cc 123e
00000020: 3677 ed3d 690b a93d cad0 4a3e aac6 3cbc
00000030: 31cc 03bd 690e 4b3e 1b77 1d3e ae6f 583e
00000040: 74a7 7ebc f838 063c 432c 833e b106 bd3c
00000050: e423 e23e 28c4 3d3e 0fdf 763e d65a 133e
00000060: 7081 103e a9b7 b3bc e32b 493e dc3a 293e
00000070: 9b32 743e e849 2d3e 1df7 f43c 86ee f2ba
00000080: 0b42 053e 7006 ab3e 0ae6 1abd 3b18 e93d
00000090: ab7b 763e 1686 4b3c 3c5b df3d c611 30be
000000a0: 0770 473c 8c58 0cbd 7475 55be 32f0 b1bb
000000b0: a865 d93c 6553 f13c e8b7 5d3e cfba 06be
000000c0: af79 073d 3ead 15be 8244 eb3d 812e 893d
000000d0: 173b 443e bdf2 7f3d 3497 463e aa8a 1a3e
000000e0: 009b 9a3b 4e62 a73e c792 bb3e e79c ad3e
000000f0: ead9 1d3d 4a95 b2bd 69f4 df3d f498 423d

W3 (column-major) f4 [64, 64]
-0.15694037 -0.11630086 -0.01596956 -0.10230093 0.2860443 0.13944645 -0.26634002 -0.44557014
-0.05297071 -0.16454919 0.060461182 -0.1930485 -0.35293332 -0.032481868 0.38719925 -0.26296198
-0.05542127 -0.08258892 -0.123079486 0.055348027 -0.17933154 -0.19813283 0.19669673 0.11990047
-0.09582083 -0.5435688 0.1591928 0.11313937 0.25759766 -0.0483803 -0.12680183 -0.3830338
0.060887896 -0.32762036 0.34762684 -0.024412464 0.39271 0.09230484 -0.123746 0.11255919
0.31189486 -0.04127192 0.21028064 -0.23156232 0.07800747 -0.0010461862 0.030469928 -0.087553985
-0.2553428 -0.48107862 -0.13860066 0.030949824 -0.08150026 0.09734065 -0.2043477 -0.24118772
0.12165967 0.1578093 -0.01631048 0.015478473 -0.28830886 0.38206214 0.10107769 0.001652954
0.2513776 0.10222083 -0.11149948 0.07098662 -0.20827006 0.101401985 -0.17398342 -0.34121165
0.032955326 0.11586275 0.075382575 0.3136065 0.18844372 0.14848019 -0.039929587 -0.3307386
-0.0027782044 -0.14958136 -0.35421962 -0.6446009 0.1326831 0.02547388 -0.33174232 0.16415818
-0.49541226 0.20175248 0.037092082 -0.16970138 -0.21992514 0.4404756 0.08402773 0.12888467
0.10580819 -0.034277253 -0.16574526 -0.026057733 -0.13642652 -0.14816247 0.3331726 0.2031103
-0.096788906 0.20673242 0.0010611385 0.17589702 -0.116645046 0.040224824 0.18387741 0.087563284
-0.45740476 0.10290305 -0.01300603 0.3176704 -0.21318269 0.046639863 0.023281977 -0.23453486
-0.18720342 0.17305897 -0.0947701 -0.29490244 0.26593888 0.26425302 -0.10099623 0.10137098
0.39339545 -0.3099577 -0.00017931097 0.38840795 -0.026414134 -0.25638095 0.16052593 -0.35908738
-0.14696981 0.09767034 -0.083142854 0.0027367952 0.04955537 0.23336373 0.26168868 -0.06174153
-0.27144682 -0.33421227 -0.08366387 -0.16160634 0.18059345 0.2646084 0.21566673 -0.33718497
0.025212964 0.23423095 0.2069628 0.12765458 -0.109681755 0.13301477 0.17124528 0.16360554
-0.18550579 -0.015901985 0.32524246 0.34566778 0.12459347 -0.027798021 0.27645934 0.17010765
0.10372492 0.16997807 -0.07852459 -0.21812905 -0.10691797 0.042116504 -0.23306222 -0.2816812
-0.06291929 0.03843482 0.2054196 -0.25226977 0.10381993 -0.2072506 -0.14177494 -0.31369233
-0.15127456 0.1400015 -0.34783655 -0.22726035 -0.25306275 0.1310238 -0.0117012 -0.08844056
-0.07349286 0.046251446 0.039996196 0.17737596 -0.30603057 -0.024498692 0.22392528 0.035791893
0.18054265 -0.110332415 0.034772273 0.042792436 0.034793153 0.011068227 0.049281895 -0.46368825
-0.06241648 -0.21827915 -0.49970058 -0.39949533 -0.027122451 0.18643562 -0.04946365 -0.16229883
-0.37120914 0.46848077 -0.1083583 -0.105447575 -0.0056794104 0.28252655 -0.05366704 -0.11332686
0.25618795 0.05143788 -0.17171355 -0.34381518 -0.46633086 -0.20967622 0.43687713 0.13854852
0.016591322 0.035348892 -0.054741025 0.24896492 -0.09476379 0.004460183 -0.1392745 0.14020804
-0.35678494 0.09571058 0.041793667 0.24546069 -0.51775527 0.0047665774 0.2823397 -0.16058615
0.25593215 0.38512012 -0.3727684 0.13350278 0.3944775 -0.081864454 0.14958419 0.51037306
00000000: fab4 20be 252f eebd 98d2 82bc 2683 d1bd
00000010: 6674 923e 0dcb 0e3e b85d 88be c521 e4be
00000020: d1f7 58bd 957f 28be 25a6 773d 82ae 45be
00000030: adb3 b4be b50b 05bd fb3e c63e f4a2 86be
00000040: 6a01 63bd 6124 a9bd 1911 fcbd 9db4 623d
00000050: b0a2 37be 55e3 4abe de6a 493e 618e f53d
00000060: b63d c4bd 5327 0bbf 7003 233e 9db5 e73d
00000070: d7e3 833e 6c2a 46bd 57d8 01be 021d c4be
00000080: 9665 793d dbbd a7be 25fc b13e a6fc c7bc
00000090: 4911 c93e 520a bd3d 8b6e fdbd 6f85 e63d
000000a0: afb0 9f3e bf0c 29bd cf53 573e ac1e 6dbe
000000b0: 61c2 9f3d 2f20 89ba 129c f93c 814f b3bd
000000c0: 4bbc 82be f04f f6be 55ed 0dbe 7c8a fd3c
000000d0: 9ce9 a6bd 895a c73d 8640 51be eaf9 76be
000000e0: b428 f93d c398 213e 8e9d 85bc 6c99 7d3c
000000f0: 389d 93be a69d c33e d201 cf3d efa7 d83a
00000100: 91b4 803e 2859 d13d d759 e4bd 6f61 913d
00000110: bf44 55be d8ab cf3d b628 32be 4bb3 aebe
00000120: 2afc 063d 7349 ed3d 2e62 9a3d 0891 a03e
00000130: 64f7 403e 310b 183e 358d 23bd 9256 a9be
00000140: 8912 36bb db2b 19be 465c b5be 9104 25bf
00000150: 14de 073e 99ae d03c 21da a9be 1519 283e
00000160: ada6 fdbe 3498 4e3e deed 173d 33c6 2dbe
00000170: 0e34 61be 0586 e13e bb16 ac3d 58fa 033e
00000180: f7b1 d83d 4e66 0cbd 20b9 29be 0777 d5bc
00000190: 65b3 0bbe e7b7 17be 9995 aa3e 25fc 4f3e
000001a0: 4339 c6bd aab1 533e e615 8b3a 591e 343e
000001b0: 99e3 eebd c9c2 243d 5c4a 3c3e 6154 b33d
000001c0: f530 eabe d6be d23d 3e17 55bc b2a5 a23e
000001d0: 904c 5abe 7109 3f3d d8b9 be3c e829 70be
000001e0: 41b2 3fbe 5f36 313e d416 c2bd 74fd 96be
000001f0: 2429 883e 2c4c 873e 1dd7 cebd 979b cf3d
00000200: 216b c93e c7b2 9ebe 6c05 3cb9 68dd c63e
00000210: 7462 d8bc 5d44 83be e960 243e 4dda b7be
00000220: 417f 16be 6307 c83d cd46 aabd ce5b 333b
00000230: 92fa 4a3d e7f6 6e3e 0ffc 853e b0e4 7cbd
00000240: 14fb 8abe df1d abbe f757 abbd 227c 25be
00000250: 7ded 383e c17a 873e bdd7 5c3e 82a3 acbe
00000260: 6b8b ce3c 3dda 6f3e 0eee 533e e2b7 023e
00000270: d4a0 e0bd 0635 083e ec5a 2f3e 3688 273e
00000280: 3bf5 3dbe e144 82bc 2e86 a63e 5efb b03e
00000290: dc2a ff3d adb8 e3bc 148c 8d3e b330 2e3e
000002a0: bb6d d43d bb0e 2e3e 80d1 a0bd 395d 5fbe
000002b0: cff7 dabd 5b82 2c3d dda7 6ebe 8538 90be
000002c0: d4db 80bd d46d 1d3d 8459 523e 8129 81be
000002d0: 8b9f d43d 8039 54be 732d 11be 489c a0be
000002e0: b8e7 1abe 8e5c 0f3e a217 b2be f0b6 68be
000002f0: 7191 81be 1a2b 063e 64b6 3fbc 5320 b5bd
00000300: 6d83 96bd 2872 3d3d 0dd3 233d 0ba2 353e
00000310: 0ab0 9cbe 7bb1 c8bc ab4c 653e 859a 123d
00000320: 2ce0 383e f6f5 e1bd 5f6d 0e3d 1f47 2f3d
00000330: 4483 0e3d 8257 353c d0db 493d 8c68 edbe
00000340: 6ca8 7fbd 9284 5fbe c1d8 ffbe a78a ccbe
00000350: e72f debc fbe8 3e3e 659a 4abd aa31 26be
00000360: 200f bebe b6dc ef3e f5ea ddbd e6f4 d7bd
00000370: 591a babb 52a7 903e f8d1 5bbd ea17 e8bd
00000380: 112b 833e 87b0 523d add5 2fbe 8b08 b0be
00000390: ebc2 eebe 5db5 56be 5cae df3e aadf 0d3e
000003a0: 86ea 873c 00ca 103d 2038 60bd a9f0 7e3e
000003b0: 8513 c2bd ba26 923b f99d 0ebe b292 0f3e
000003c0: 84ac b6be e903 c43d d62f 2b3d 0c5a 7b3e
000003d0: 9c8b 04bf f330 9c3b d48e 903e b270 24be
000003e0: 8a09 833e 772e c53e 80db bebe f4b4 083e
000003f0: f4f8 c93e 8da8 a7bd 992c 193e cfa7 023f

b3 f4 [64]
0.053131346 0.2515351 0.21510085 0.08347698 0.46477038 0.18670708 0.32672513 0.32672852
0.41622597 0.083316 0.18405354 0.38647717 0.2781095 0.3614521 -0.01153528 0.17680122
0.17308088 0.29052636 0.1368501 0.059000053 0.3203488 0.43038458 0.29890552 0.08191278
0.38771307 0.29677263 0.24290763 0.17558141 0.23832902 0.2490848 0.22667891 0.19604416
0.41740853 0.17606315 0.22163874 0.43261775 0.33174786 0.3517681 0.21358424 0.10776505
0.4929511 0.40060267 0.38327056 0.06331363 0.15340123 0.14172162 0.11779008 0.2944068
0.20908001 0.22474259 0.35405448 0.23743255 0.19632463 0.22834018 0.30875075 0.19387041
0.15808348 0.2646298 0.0967451 0.14002824 0.41146404 0.40631598 0.18015821 0.26661736
00000000: 41a0 593d 35c9 803e 6643 5c3e fbf5 aa3d
00000010: 62f6 ed3e 2430 3f3e 8448 a73e f648 a73e
00000020: 921b d53e 94a1 aa3d 8878 3c3e 56e0 c53e
00000030: 5e64 8e3e 4010 b93e 79fe 3cbc 610b 353e
00000040: 1d3c 313e dfbf 943e 6f22 0c3e 0aaa 713d
00000050: c204 a43e 5e5b dc3e 250a 993e e3c1 a73d
00000060: 5482 c63e 95f2 973e c7bc 783e 9dcb 333e
00000070: 860c 743e 1610 7f3e 841e 683e cdbf 483e
00000080: 92b6 d53e e649 343e 44f5 623e 1380 dd3e
00000090: dbda a93e f31a b43e d4b5 5a3e ecb3 dc3d
000000a0: 1664 fc3e cb1b cd3e 0a3c c43e 94aa 813d
000000b0: 3615 1d3e 791f 113e ed3b f13d 7dbc 963e
000000c0: 1219 563e ec22 663e a146 b53e 8521 733e
000000d0: 5309 493e 02d2 693e 9414 9e3e f785 463e
000000e0: a3e0 213e 8f7d 873e 4c22 c63d 9063 0f3e
000000f0: 6aab d23e a608 d03e 657b 383e 1282 883e

W4 (column-major) f4 [64, 64]
-0.044828366 -0.022637121 0.22162966 -0.1933302 -0.08056999 -0.020999357 0.18176635 0.017356552
0.19172674 -0.10912965 0.06849222 -0.06542958 0.037639204 0.21549459 0.15862547 -0.08533808
-0.08295283 -0.010462323 -0.21990757 -0.038132075 -0.35179487 0.29461285 0.09619371 0.20509413
0.015570094 -0.54677606 0.23194584 -0.40157798 -0.0417546 0.19015613 -0.020581359 -0.20414177
0.26519382 0.07373116 0.070460096 -0.20162629 -0.20013556 0.16938381 0.031715993 -0.08759219
0.079460576 0.008425741 -0.18524775 -0.19864139 0.35910106 -0.08309936 -0.35805944 0.1397908
-0.10916992 -0.1469515 -0.3654616 -0.3368583 -0.046830762 -0.16119857 -0.45838007 -0.24956678
-0.17760326 -0.40768453 -0.41563368 -0.27770492 -0.008953139 0.37984157 0.0553631 0.1542188
-0.016160568 -0.19634055 -0.0035553523 0.03782956 0.30649763 -0.06891952 -0.052635048 -0.032025605
-0.043618977 0.0870856 -0.26782647 0.016673092 -0.1823016 0.30489802 0.12865975 -0.18910164
-0.20575897 -0.14381494 -0.54558146 -0.11800381 0.008574428 0.08038144 0.011908769 -0.008122032
0.13568278 0.38995886 0.19501768 0.11706339 -0.14022405 -0.0015989434 -0.09997054 -0.4507178
-0.0023057743 -0.18008816 -0.14386947 -0.45289052 0.15051782 -0.056474622 0.17408185 -0.22382016
0.09708786 -0.06880367 -0.017613461 0.1291501 -0.17479374 0.2631601 0.0027515246 -0.054739747
0.18158638 0.22601664 -0.36682248 -0.43349588 0.10088963 0.07234722 0.15128985 -0.005278638
0.14329238 -0.29232076 -0.14426516 -0.032725986 0.028630035 -0.22325698 0.0012672661 0.053223595
0.10293551 -0.28407156 0.09259795 -0.1897786 0.0898247 0.068712205 0.16739693 -0.10501798
-0.33511811 -0.2043609 0.2509155 -0.122677155 -0.08538444 -0.090212 -0.26856002 0.06083079
-0.17359346 0.46898887 -0.1645826 -0.3645882 0.092003256 0.39991874 -0.09960267 -0.15004583
0.028752282 -0.3393894 -0.4350355 0.14858055 0.112341374 -0.043492477 -0.23978928 0.07122759
0.124395326 0.16485187 -0.10523633 0.31691483 -0.12700722 0.10147963 -0.124640465 0.15795287
-0.057936653 -0.030752372 -0.19397856 0.088568285 0.08901356 0.08323338 -0.10899726 0.24395572
0.19339103 -0.30204213 0.23866995 -0.108902864 -0.20119128 -0.043323714 -0.16543558 -0.03315999
0.13136643 0.30879834 -0.26913068 -0.048798718 -0.038804166 -0.0010107665 -0.19077829 0.00868051
-0.14227396 -0.031592906 0.21265656 -0.20255755 -0.13205652 0.51116747 0.083641015 -0.06406323
0.13298532 -0.058775388 0.046348922 0.28878453 -0.028761953 0.37737343 -0.11499317 0.021182502
-0.14958428 -0.08613522 0.09568777 0.06727305 0.00523284 0.08469155 0.036923766 0.42312098
0.28622732 -0.11825013 0.026072329 0.486684 -0.019127704 -0.089539096 0.03177788 0.27606153
0.21746948 0.16648096 -0.44228104 0.16386394 -0.09007877 -0.2413043 -0.15516557 -0.054032844
-0.30257922 -0.21339612 -0.16268909 0.1299697 -0.022103272 0.0550616 -0.22032635 -0.19916508
0.10721366 -0.21961637 0.10237313 -0.04659574 -0.06666338 -0.008764166 -0.03760827 -0.36108425
0.07822627 0.29188895 0.38356972 0.06351772 -0.26206842 0.27175438 -0.19518068 0.057394013
00000000: f39d 37bd 7c71 b9bc e3f2 623e 5af8 45be
00000010: e101 a5bd d806 acbc f520 3a3e 542f 8e3c
00000020: 0454 443e 5e7f dfbd a645 8c3d f2ff 85bd
00000030: 912b 1a3d 9daa 5c3e b76e 223e bbc5 aebd
00000040: 2ce3 a9bd 2a6a 2bbc 732f 61be 6130 1cbd
00000050: 751e b4be 7fd7 963e 3501 c53d 3204 523e
00000060: b519 7f3c 84f9 0bbf 3683 6d3e a19b cdbe
00000070: df06 2bbd 4ab8 423e 3d9a a8bc 8a0a 51be
00000080: 7cc7 873e 5d00 973d 624d 903d 1f77 4ebe
00000090: 56f0 4cbe f372 2d3e a1e8 013d 8963 b3bd
000000a0: 3abc a23d 1f0c 0a3c 96b1 3dbe a668 4bbe
000000b0: 18dc b73e ff2f aabd 9153 b7be 5225 0f3e
000000c0: 7b94 dfbd 747a 16be c81d bbbe b178 acbe
000000d0: 9dd1 3fbd 3d11 25be cbb0 eabe 6f8e 7fbe
000000e0: a1dd 35be 07bc d0be f0cd d4be 572f 8ebe
000000f0: 30b0 12bc 987a c23e 6bc4 623d 88eb 1d3e
00000100: 2b63 84bc 7f0d 49be ea00 69bb 2bf3 1a3d
00000110: 42ed 9c3e ad25 8dbd d997 57bd 482d 03bd
00000120: d0a9 32bd ef59 b23d 8d20 89be 0296 883c
00000130: 45ad 3abe 981b 9c3e 62bf 033e dca3 41be
00000140: 7bb2 52be 3944 13be 3aab 0bbf fbab f1bd
00000150: c27b 0c3c 069f a43d ff1c 433c 4512 05bc
00000160: 6df0 0a3e b0a8 c73e b7b2 473e eebe ef3d
00000170: e596 0fbe a393 d1ba 5bbd ccbd 7cc4 e6be
00000180: 791c 17bb 0869 38be 8552 13be 44e1 e7be
00000190: 5821 1a3e ef51 67bd 8342 323e 1d31 65be
000001a0: 00d6 c63d f0e8 8cbd 1b4a 90bc ec3f 043e
000001b0: 21fd 32be ecbc 863e ec52 343b c936 60bd
000001c0: c8f1 393e e870 673e 28d0 bbbe 2cf3 ddbe
000001d0: 399f ce3d c72a 943d baeb 1a3e 6df8 acbb
000001e0: 3dbb 123e 11ab 95be 3fba 13be af0b 06bd
000001f0: 8989 ea3c 7a9d 64be 651a a63a fc00 5a3d
00000200: dacf d23d d471 91be fea3 bd3d 5255 42be
00000210: 03f6 b73d fcb8 8c3d 1a6a 2b3e ab13 d7bd
00000220: 9a94 abbe fc43 51be ff77 803e 293e fbbd
00000230: 0ade aebd 12c1 b8bd b380 89be b529 793d
00000240: 7cc2 31be 4f1f f03e 5788 28be 4eab babe
00000250: 346c bc3d 26c2 cc3e 7cfc cbbd 9da5 19be
00000260: e889 eb3c 73c4 adbe f9bc debe 8025 183e
00000270: 3c13 e63d 2b25 32bd 528b 75be c5df 913d
00000280: fac2 fe3d eece 283e 2586 d7bd a942 a23e
00000290: 2e0e 02be 8dd4 cf3d 8043 ffbd 66be 213e
000002a0: fc4e 6dbd 66ec fbbc 51a2 46be 4a63 b53d
000002b0: be4c b63d 4376 aa3d f539 dfbd 87cf 793e
000002c0: 4c08 463e 44a5 9abe e565 743e 7708 dfbd
000002d0: 1605 4ebe 3574 31bd f267 29be c5d2 07bd
000002e0: ec84 063e d11a 9e3e 7fcb 89be 2ae1 47bd
000002f0: 1ef1 1ebd b27b 84ba 625b 43be b338 0e3c
00000300: 44b0 11be 9067 01bd a4c2 593e 3f6b 4fbe
00000310: d339 07be dfdb 023f fb4b ab3d 9533 83bd
00000320: 4e2d 083e 76be 70bd 5ed8 3d3d 91db 933e
00000330: 309e ebbc 1737 c13e 8a81 ebbd ed86 ad3c
00000340: 9f2c 19be aa67 b0bd f3f7 c33d 74c6 893d
00000350: 3e78 ab3b c372 ad3d 603d 173d 50a3 d83e
00000360: 638c 923e 202d f2bd a395 d53c a52e f93e
00000370: b4b1 9cbc 4660 b7bd 8629 023d f057 8d3e
00000380: 52b0 5e3e fc79 2a3e a972 e2be f3cb 273e
00000390: 387b b8bd 7918 77be b9e3 1ebe 8b51 5dbd
000003a0: aaeb 9abe 8384 5abe f897 26be c716 053e
000003b0: ec11 b5bc 4688 613d 3b9d 61be eef1 4bbe
000003c0: d692 db3d 1de3 60be 01a9 d13d 2ddb 3ebd
000003d0: cf86 88bd 9497 0fbc 210b 1abd 09e0 b8be
000003e0: 1835 a03d 7872 953e 4063 c43e 9415 823d
000003f0: d52d 86be 6423 8b3e 72dd 47be fc15 6b3d

b4 f4 [64]
0.3197992 0.32291403 0.43656787 0.34227586 0.32972324 0.44972154 0.34761408 0.3054876
0.22462745 0.19329883 0.33968192 0.34957427 0.12604995 0.3962458 0.32919002 0.5903792
0.31936383 0.40614584 0.333195 0.2140436 0.45857573 0.37069923 0.14666592 0.40805557
0.1388503 0.35895538 0.20737681 0.199773 0.25774243 0.3365223 0.460443 0.15257974
0.26654738 0.24981488 0.3710508 0.23277117 0.38035926 0.31786975 0.57133126 0.22252019
0.45359826 0.38602728 0.23948698 0.38277787 0.45404994 0.577789 0.25434607 0.5045103
0.4492264 0.20008884 0.30837244 0.18485938 0.18220663 0.42838562 0.40165368 0.40661255
0.31288394 0.41288877 0.4254447 0.11990049 0.3785862 0.5025418 0.31393605 0.4863803
00000000: b9bc a33e fd54 a53e d385 df3e c83e af3e
00000010: 7cd1 a83e e741 e63e 79fa b13e df68 9c3e
00000020: bd04 663e 21f0 453e caea ad3e 66fb b23e
00000030: 3d13 013e bbe0 ca3e 988b a83e 1723 173f
00000040: a883 a33e 59f2 cf3e 8998 aa3e 3f2e 5b3e
00000050: 70ca ea3e 4acc bd3e 972f 163e a9ec d03e
00000060: c62e 0e3e 00c9 b73e 965a 543e 4b91 4c3e
00000070: d1f6 833e a74c ac3e 2fbf eb3e dd3d 1c3e
00000080: e678 883e 79cf 7f3e 5ffa bd3e 915b 6e3e
00000090: 73be c23e d3bf a23e c442 123f 55dc 633e
000000a0: 083e e83e 5ea5 c53e 133c 753e 76fb c33e
000000b0: 3c79 e83e fbe9 133f a639 823e 9627 013f
000000c0: 0101 e63e 17e4 4c3e fee2 9d3e c74b 3d3e
000000d0: 6094 3a3e 5c55 db3e 8da5 cd3e 852f d03e
000000e0: 5332 a03e 2866 d33e e3d3 d93e 638e f53d
000000f0: 0dd6 c13e 94a6 003f 3abc a03e d706 f93e

W5 (column-major) f4 [10, 64]
0.3829901 -0.1780609 -0.21468014 -0.10587124 -0.20130317 0.23087868 0.30236262 -0.17878641
-0.20566735 -0.22144666 -0.10140834 0.3421691 -0.13975063 -0.18421695 0.2587286 -0.09808585
-0.17552403 0.0445428 0.2886091 0.18775128 -0.15088403 0.2283385 0.24776362 0.08888596
0.22561887 -0.20168196 -0.20716889 -0.03454393 -0.17133565 0.2033674 0.35374597 -0.21436903
-0.13453518 -0.116203144 0.23229736 -0.13638096 0.27915055 -0.071572915 -0.10488989 0.059606664
-0.17786586 -0.14323944 -0.29222184 -0.25522703 0.19445057 -0.15001535 0.19933836 -0.21509996
-0.19692683 -0.19269101 -0.15536378 -0.19195648 0.10718808 0.12618461 0.18907845 -0.10020068
0.18732996 0.048149873 -0.1345195 -0.17334612 -0.26444632 -0.014013011 -0.23122765 0.21022446
-0.1629989 0.23722973 -0.006277959 -0.12427465 -0.15163162 0.15288381 0.21545868 -0.20268786
0.14580287 -0.1320364 0.28790545 0.212395 0.2884992 -0.17348635 -0.1451215 -0.016899137
-0.11832881 0.33761108 -0.09586924 -0.21181081 0.09399936 -0.12295757 -0.17266333 0.19072652
-0.2153974 0.030811947 -0.16382167 -0.062739685 0.14904726 0.21552636 -0.14993258 -0.1945099
-0.06729211 0.27027217 0.2198414 0.10000539 -0.15721881 -0.12460054 -0.21870828 0.12200655
-0.12530947 0.16795838 -0.24353088 -0.22763805 0.17982706 0.14717133 0.0007802702 -0.08605379
0.20865573 0.17009895 0.19444276 -0.14708875 -0.1278343 0.23753963 -0.19921993 -0.19973399
-0.12389464 -0.21724531 0.07784872 -0.09991921 0.18353342 -0.008218529 0.09373483 0.07074696
-0.25437182 0.250544 -0.097248204 -0.03110955 -0.1458131 0.02277172 0.29676723 -0.13572232
-0.13840356 0.2953148 -0.123617895 0.2943293 -0.24649367 0.34881338 0.2448413 -0.15782695
-0.19496386 -0.07646849 0.09831751 0.041565057 -0.06510896 0.052227918 -0.27576727 -0.1888756
0.06406629 0.22030939 -0.20756741 0.2125175 -0.0958713 -0.10702948 0.19822133 0.18210863
-0.05697409 0.33164313 0.08276708 -0.06957678 0.27126497 -0.11485528 -0.08966189 -0.119405724
0.22512284 -0.15721336 -0.16577065 0.10666956 0.2521244 0.2617329 -0.103835925 0.2768794
-0.087947145 -0.29613605 0.0601784 0.023517936 0.34072652 -0.1095704 -0.0074633467 -0.026237406
0.08522911 -0.0066081495 0.04288836 -0.18846439 0.29743597 0.26890054 -0.07907323 -0.18813093
-0.20345038 -0.1731743 0.18765199 -0.1721596 0.21319011 -0.12447935 -0.17613621 0.28391403
0.3236833 -0.040247515 -0.16914919 -0.098523654 -0.053538397 -0.16025053 0.20800857 -0.106596984
0.111969225 0.26915246 0.29116592 -0.22570805 -0.13072091 -0.20896152 -0.14611079 -0.015552596
-0.09737817 0.096212 -0.15012452 0.21208212 -0.020399997 -0.23134032 0.16053008 0.16988821
-0.19909744 -0.13879494 -0.25564978 -0.07860766 0.15288986 0.12714939 -0.2332957 -0.1594155
-0.10271537 0.19240129 0.11068103 0.015951084 0.0123816915 0.23068032 -0.20606302 0.22347274
-0.13145156 0.14904301 -0.19009227 0.19327804 0.02831351 -0.10918164 -0.041538075 0.1972025
-0.14909796 0.15918143 -0.19904198 0.3332632 0.19810642 -0.23180494 -0.19368808 -0.2641036
00000000: 4717 c43e 9955 36be 1cd5 5bbe 05d3 d8bd
00000010: 6b22 4ebe 766b 6c3e 46cf 9a3e c913 37be
00000020: 769a 52be eac2 62be 2daf cfbd ca30 af3e
00000030: ca1a 0fbe 5ea3 3cbe 1378 843e 3ce1 c8bd
00000040: 92bc 33be 8372 363d 92c4 933e df41 403e
00000050: 5881 1abe 91d1 693e bfb5 7d3e d809 b63d
00000060: a208 673e b785 4ebe 1524 54be f07d 0dbd
00000070: 9d72 2fbe 8b3f 503e 311e b53e 8e83 5bbe
00000080: 97c3 09be eafb edbd 5cdf 6d3e 73a7 0bbe
00000090: d2ec 8e3e d294 92bd 83d0 d6bd 1e26 743d
000000a0: 7822 36be 5cad 12be 1a9e 95be 1ead 82be
000000b0: 0d1e 473e a09d 19be 5b1f 4c3e 2a43 5cbe
000000c0: 30a7 49be cb50 45be af17 1fbe 3d90 44be
000000d0: 6d85 db3d 8a36 013e c89d 413e 0436 cdbd
000000e0: 6dd3 3f3e cd38 453d 7bbf 09be a581 31be
000000f0: 8265 87be d496 65bc f1c6 6cbe 1545 573e
00000100: 2fe9 26be 5aec 723e 56b7 cdbb b583 febd
00000110: 5245 1bbe 938d 1c3e 33a1 5c3e 688d 4fbe
00000120: 594d 153e 8d34 07be 5868 933e 137e 593e
00000130: 2bb6 933e 68a6 31be bb9a 14be 0f70 8abc
00000140: 6056 f2bd 5cdb ac3e 1857 c4bd efe4 58be
00000150: bd82 c03d 2ed1 fbbd a8ce 30be d04d 433e
00000160: 2391 5cbe 5669 fc3c dec0 27be aa7d 80bd
00000170: d89f 183e f1b2 5c3e ed87 19be 9a2d 47be
00000180: 72d0 89bd 1d61 8a3e 1b1e 613e a0cf cc3d
00000190: f8fd 20be 912e ffbd 10f5 5fbe 92de f93d
000001a0: 2051 00be 48fd 2b3e 2960 79be f319 69be
000001b0: 9624 383e 15b4 163e 0c8b 4c3a f83c b0bd
000001c0: d9a9 553e 6b2e 2e3e 011c 473e 6f9e 16be
000001d0: ffe6 02be 973d 733e 4f00 4cbe 1187 4cbe
000001e0: 79bc fdbd 8e75 5ebe 266f 9f3d 71a2 ccbd
000001f0: 2ff0 3b3e 02a7 06bc 0cf8 bf3d c8e3 903d
00000200: 063d 82be 4e47 803e 112a c7bd 74d9 febc
00000210: 0750 15be c28b ba3c e0f1 973e cbfa 0abe
00000220: aab9 0dbe 8033 973e 612b fdbd 54b2 963e
00000230: d668 7cbe ab97 b23e aeb7 7a3e 639d 21be
00000240: 9ba4 47be 839b 9cbd b15a c93d 1f40 2a3d
00000250: d957 85bd f1ec 553d 5e31 8dbe 9b68 41be
00000260: 3035 833d c998 613e 8d8c 54be 309e 593e
00000270: 2c58 c4bd 4632 dbbd 88fa 4a3e af7a 3a3e
00000280: aa5d 69bd 21cd a93e c981 a93d 457e 8ebd
00000290: 3ee3 8a3e 3f39 ebbd a7a0 b7bd fd8a f4bd
000002a0: 9a86 663e 8afc 20be c8bf 29be 9275 da3d
000002b0: 7316 813e db01 863e eea7 d4bd 23c3 8d3e
000002c0: a21d b4bd 259f 97be a07d 763d b0a8 c03c
000002d0: b573 ae3e 7266 e0bd 178f f4bb d4ef d6bc
000002e0: 9a8c ae3d 2d89 d8bb b4ab 2f3d cffc 40be
000002f0: 8749 983e 55ad 893e 25f1 a1bd 65a5 40be
00000300: 4c55 50be 9b54 31be d827 403e 9b4a 30be
00000310: 824e 5a3e 08ef febd 0d5d 34be 2e5d 913e
00000320: d1b9 a53e 94da 24bd 7235 2dbe c5c6 c9bd
00000330: 144b 5bbd b718 24be 3300 553e 854f dabd
00000340: 1f50 e53d 5ace 893e b313 953e 0320 67be
00000350: b4db 05be 02fa 55be 119e 15be 51d0 7ebc
00000360: 356e c7bd cc0a c53d 3eba 19be 0e2c 593e
00000370: e51d a7bc 7ae4 6cbe ff61 243e 2df7 2d3e
00000380: 33e0 4bbe 4320 0ebe 87e4 82be 0efd a0bd
00000390: 298f 1c3e 7333 023e 11e5 6ebe d13d 23be
000003a0: 705c d2bd d804 453e bcac e23d d9ab 823c
000003b0: 94dc 4a3c 7637 6c3e 2f02 53be 0ad6 643e
000003c0: 3d9b 06be bb9e 183e 8ca7 42be aeea 453e
000003d0: bcf1 e73c a09a dfbd d423 2abd 74ef 493e
000003e0: 23ad 18be 7500 233e a9d1 4bbe 79a1 aa3e
000003f0: 69dc 4a3e 465e 6dbe 2b56 46be 9638 87be

b5 f4 [10]
-0.25132617 -0.20164247 0.092440836 0.08876283 -0.041879814 0.058284484 -0.22451457 0.006814206
0.19710529 0.1356166
00000000: d3ad 80be 5d7b 4ebe 9f51 bd3d 49c9 b53d
00000010: 2b8a 2bbd b6bb 6e3d 26e7 65be b449 df3b
00000020: f8d5 493e 14df 0a3e
