neural_net/mnist_mlp_weights.npz (npz, 255862 bytes, 10 tensors)

W1 (column-major) f4 [64, 784]
0	0x3bb5afd0	0.00554464
1	0xbd2fa76a	-0.042884268
2	0xbc8091f2	-0.015694592
3	0xbe060591	-0.13088061
4	0x3d1bcdf1	0.038038198
5	0x3ca490a9	0.02008851
6	0xbd4d06b8	-0.050055236
7	0x3d811f16	0.06304757
8	0x3c58734e	0.0132110845
9	0xbc82aa61	-0.015950384
10	0xbd9adde4	-0.075618535
11	0x3d2c696a	0.04209272
12	0x3d82e461	0.06391216
13	0xbde58105	-0.11206249
14	0xbbbdb42a	-0.0057892995
15	0xbdb77616	-0.0895807
16	0xbdbf4862	-0.09339978
17	0xbd923134	-0.07138291
18	0x3c943a36	0.018094163
19	0xbe71ee99	-0.23626174
20	0x3d646c03	0.05576707
21	0xbe0996c7	-0.13436423
22	0x3c926f08	0.01787521
23	0x3b846b91	0.004041143
24	0x3a1510b3	0.00056863873
25	0xbd0b68bd	-0.034035433
26	0xbd56168d	-0.0522676
27	0x3d974efc	0.07388112
28	0xbdd3318b	-0.10312184
29	0xbc18a21e	-0.0093159955
30	0x3cb9cd40	0.022680879
31	0x3d8447e5	0.06459025
32	0xbcc6bc0a	-0.024259586
33	0xbdc68779	-0.09693808
34	0xbd4bb38c	-0.049731776
35	0xbc3b0900	-0.01141572
36	0xbda50e81	-0.08059407
37	0xbdea0eb7	-0.11428588
38	0x3c4cd3fd	0.012501714
39	0xbd5035a2	-0.0508324
40	0xbd0806f1	-0.033209745
41	0x3cabe3e2	0.020982686
42	0xbc9be70e	-0.019031074
43	0x3dc292d1	0.09500659
44	0xbda18011	-0.07885755
45	0x3a8bb407	0.0010658511
46	0x3d405c80	0.046963215
47	0xbd51afa1	-0.051192883
48	0x3cd70114	0.026245631
49	0x3dada012	0.084777966
50	0x3d7126b1	0.05887479
51	0xbd261da1	-0.0405556
52	0xbd8ada9e	-0.06779979
53	0xbd64af94	-0.055831507
54	0xbe41ec82	-0.18937877
55	0xbd046200	-0.032320023
56	0xbc8e4674	-0.017367579
57	0xbd88bfbe	-0.06677197
58	0xbda1fadb	-0.07909175
59	0xbc9ea50d	-0.019365812
60	0xbdbbd7c0	-0.091720104
61	0x3a6a6bc0	0.00089424476
62	0xbdd976a0	-0.10618329
63	0x3d93cb9d	0.072165705
64	0xbd55d92d	-0.052209068
65	0xbda63335	-0.08115236
66	0x3d988abb	0.07448336
67	0xbd2ebc7d	-0.042660225
68	0x3db00bc1	0.08595992
69	0x3cc860f9	0.024460303
70	0xbdf54241	-0.119755276
71	0xbd8d8274	-0.069096476
72	0xbd11faa9	-0.03563944
73	0x3d91371e	0.07090591
74	0xbda10f46	-0.07864241
75	0xbd9f9142	-0.077913776
76	0xbc7590db	-0.0149881495
77	0xbe06dee7	-0.13170968
78	0x3d4c9a47	0.049951818
79	0x3ca579c1	0.020199658
80	0xbc851133	-0.016243553
81	0xbd591298	-0.052996248
82	0x3d3013ec	0.04298775
83	0xbe3b65b3	-0.18300514
84	0x3c92dea1	0.017928423
85	0xbbe61576	-0.0070216013
86	0xbc291cd2	-0.010321813
87	0xbcd86c83	-0.02641893
88	0xbd120cdb	-0.03565679
89	0xbd0c552d	-0.034260917
90	0x3d23bd86	0.039975666
91	0xbd282b52	-0.04105694
92	0xbc97329b	-0.018456748
93	0xbc93499b	-0.017979434
94	0x3dc7e97b	0.0976133
95	0x3cb7a7ce	0.022418883
96	0x3d5a9035	0.053360183
97	0x3d011785	0.03151657
98	0xbe15414d	-0.14575692
99	0xbd09b46c	-0.03361933
100	0x3d0b81e2	0.034059413
101	0x3db4ef14	0.08834663
102	0xbd3887ef	-0.04505151
103	0xbe256d20	-0.16154909
104	0xbd87e79e	-0.06635974
105	0xbe14f304	-0.14545828
106	0x3c8e7453	0.017389452
107	0x3d45ba94	0.048273638
108	0xbe2e38ec	-0.17013901
109	0x3d88960d	0.06669245
110	0xbdb51561	-0.08841968
111	0xbe1c0419	-0.15235938
112	0xb975f7c1	-0.00023457316
113	0x3d17b15f	0.03703439
114	0x3d516eec	0.051131174
115	0xbd120ce7	-0.035656836
116	0xbdb6bb76	-0.08922474
117	0x3cae7f54	0.02130095
118	0xbe3e25a3	-0.18569045
119	0xbdc9ca4a	-0.09853037
120	0xba92b9f1	-0.0011194331
121	0x3b5aa8d8	0.00333648
122	0x3986f19c	0.00025738485
123	0x3d23396e	0.03984969
124	0xbd911f34	-0.0708603
125	0xbd37ab85	-0.04484131
126	0x3c35e416	0.011101743
127	0x3dd20560	0.102549314
128	0x3c628501	0.013825656
129	0x3bb11b12	0.0054048384
130	0x3d5a35ae	0.05327385
131	0x3d99f2ea	0.07517035
132	0x3dcf4857	0.101212196
133	0x3d0a1972	0.033715673
134	0x3d8455dd	0.064616896
135	0x3c3bb843	0.011457506
136	0xbc34b279	-0.011028879
137	0x3ddabd73	0.10680666
138	0xbe00f863	-0.12594752
139	0xbb0e223e	-0.002168789
140	0x3df4206e	0.11920248
141	0xbd5a8e9d	-0.053358663
142	0xbd0b7fb4	-0.034057334
143	0x3be18a3d	0.0068829344
144	0xbbca7047	-0.0061779353
145	0x3d3522bf	0.04422259
146	0xbd1ad79b	-0.037803274
147	0xbdc9eb0a	-0.09859283
148	0xbd290b96	-0.041270815
149	0xbd4d6d13	-0.05015285
150	0xbd2a3ca1	-0.041561726
151	0xbc8b7fb0	-0.01702866
152	0xbd075267	-0.03303757
153	0xbdd06202	-0.101749435
154	0x3bf48c50	0.0074630156
155	0x3d97abe5	0.07405833
156	0x3b8eb41c	0.004354967
157	0x3cdbd89a	0.026836682
158	0x3db92f97	0.0904228
159	0xbd6cb9c2	-0.05779434
160	0x3c5c0e2a	0.013431111
161	0x3dac5872	0.08415307
162	0xbe06f1cf	-0.1317818
163	0x3d3bef1a	0.045882322
164	0x3d70dcc4	0.05880429
165	0xbd28dc2a	-0.04122559
166	0x3c8b58ae	0.01701006
167	0xbe0c8068	-0.13720858
168	0x3d01400f	0.03155523
169	0xbd832d36	-0.06405108
170	0x3d1ac39d	0.037784208
171	0xbc6cb69b	-0.014447833
172	0xbe219e08	-0.1578294
173	0x3da720f1	0.0816058
174	0x3baa1fce	0.0051917797
175	0xbd4c92ea	-0.049944796
176	0xbdd4a3ba	-0.10382791
177	0x3d2c25ea	0.042028345
178	0xbda1532e	-0.078771934
179	0xbc482c19	-0.012217545
180	0x3c4320a0	0.011909634
181	0xbe163906	-0.1467019
182	0xbddbbe53	-0.10729661
183	0xbcee76ea	-0.029109437
184	0xbdb14b9d	-0.08657
185	0xbc8dde86	-0.017318022
186	0xbe104721	-0.14089634
187	0x3ded9e43	0.11602452
188	0xbc4d2956	-0.012522062
189	0x3df2c04a	0.118530825
190	0x3d42cf56	0.047561012
191	0x3d698384	0.05701019
192	0xbd921b0f	-0.07134067
193	0xbdaa7900	-0.0832386
194	0x3dc4b8db	0.09605571
195	0x3c577730	0.013150975
196	0xbacf190b	-0.001580031
197	0x3da44f20	0.080229044
198	0xbd915a43	-0.07097294
199	0xbc739cc6	-0.014868921
200	0x3b0af44b	0.002120274
201	0x3d0a3e25	0.033750672
202	0x3dbc3b96	0.091910526
203	0x3bbcd111	0.0057622273
204	0xbd0ec0d0	-0.03485185
205	0xbe18dd94	-0.14928275
206	0xbe30e956	-0.1727651
207	0xbc764e59	-0.015033328
208	0x3db9bc5e	0.09069131
209	0xbca561a3	-0.020188158
210	0xbc21165a	-0.009831989
211	0xbe509d63	-0.20372538
212	0xb98fbde0	-0.00027416553
213	0xbdb0cecb	-0.08633193
214	0x3c96a35b	0.01838844
215	0x3cf09b77	0.029371006
216	0x3dabbd56	0.08385722
217	0xbcc3cf0f	-0.023902444
218	0xbdba9ecb	-0.091123186
219	0x3d228030	0.03967303
220	0xbd683732	-0.056693263
221	0xbd003b38	-0.031306475
222	0x3de8cc08	0.11367041
223	0xbcb94b62	-0.022618953
224	0xbcf7e83d	-0.030262107
225	0xbda0d8cb	-0.0785385
226	0xbe0229a8	-0.12711203
227	0xbcac6d11	-0.0210481
228	0xbd37875c	-0.044806823
229	0x3a3a1e59	0.0007099859
230	0xbd73a076	-0.0594792
231	0xbdd16776	-0.10224812
232	0xbca6e460	-0.02037257
233	0x3dcc084b	0.09962519
234	0x3c364f61	0.011127324
235	0xbcdb8ade	-0.026799615
236	0xbdd922ac	-0.10602316
237	0x3d809377	0.06278127
238	0xbd56ec82	-0.052471645
239	0x3d43a06c	0.047760412
240	0x3dc0bb1c	0.09410688
241	0xbd5c44ac	-0.053776428
242	0xbdef2122	-0.116762415
243	0xbd874e51	-0.066067345
244	0xbdd92181	-0.106020935
245	0xbd5aaf3b	-0.05338977
246	0xbd950384	-0.07276061
247	0xbe15071b	-0.14553492
248	0xbd28da3a	-0.041223742
249	0x3d9eb1ee	0.07748781
250	0xbdea6681	-0.11445332
251	0xbd32a2b0	-0.043612182
252	0xbce39ae2	-0.027783815
253	0x3c1fbf5c	0.0097502135
254	0x3c547954	0.01296838
255	0x3a809c3d	0.0009812188

b1 f4 [64]
0	0x3e34e656	0.17665991
1	0xbe001d79	-0.12511243
2	0x3ded6e19	0.11593265
3	0x3e4871c5	0.1957465
4	0xbc480fbc	-0.012210783
5	0xbe35ccec	-0.17753953
6	0xbcf12254	-0.029435314
7	0x3e1fc5fb	0.15602867
8	0xbe483e03	-0.19554906
9	0xbd362d92	-0.044477053
10	0xbdc80522	-0.09766604
11	0x3d625630	0.055257976
12	0x3e21f970	0.15817809
13	0x3e050313	0.12989454
14	0x3da1bb1f	0.07897019
15	0x3da53b51	0.08067954
16	0xbd076d68	-0.033063322
17	0x3c311378	0.010807864
18	0x3e6014aa	0.21882883
19	0x3e3d3c41	0.18480016
20	0x3bdc4ff4	0.0067233983
21	0x3dbd99c5	0.09257845
22	0xbe37df8e	-0.17956373
23	0x3d6764b5	0.056492526
24	0xbe33fd74	-0.17577153
25	0xbc97e9b2	-0.018544052
26	0x3d4712a4	0.04860176
27	0x3e90bbd3	0.28268299
28	0x3e646037	0.22302328
29	0x3e104111	0.14087321
30	0x3e9600f2	0.29297596
31	0xbdfbefc1	-0.12301589
32	0xbd621df6	-0.055204354
33	0xbe06372f	-0.13106988
34	0x3dcea315	0.10089699
35	0xbd4a5254	-0.04939492
36	0xbd109452	-0.0352977
37	0x3d85456c	0.06507382
38	0x3e34d876	0.17660698
39	0x3e651b30	0.22373652
40	0x3ca04cfe	0.019567963
41	0xbc86ed3c	-0.016470544
42	0x3e1d1f9b	0.15344088
43	0x3d9fa0e8	0.07794362
44	0x3e38a7c1	0.18032743
45	0xbcf645e8	-0.03006263
46	0xbda06ee4	-0.07833651
47	0x3e26968c	0.16268367
48	0xbd85d27d	-0.06534288
49	0x3e3507d7	0.17678772
50	0xbe39ac9b	-0.1813225
51	0x3d3249bb	0.043527346
52	0x3e29a66e	0.16567394
53	0x3e23306a	0.15936437
54	0x3e8eae06	0.27867144
55	0x3e380516	0.1797069
56	0x3e651377	0.22370706
57	0x3e555648	0.20833695
58	0x3d7d0c09	0.061779056
59	0x3e1ce4ea	0.15321699
60	0xbd2f200d	-0.042755175
61	0x3c4f6e9f	0.0126606515
62	0x3e1922d9	0.149547
63	0xbccc178b	-0.02491357

W2 (column-major) f4 [64, 64]
0	0x3e340fc7	0.17584144
1	0x3d53fb39	0.051753256
2	0x3d8cf861	0.06883312
3	0xbe8d79b8	-0.27631927
4	0xbe01d03b	-0.1267709
5	0xbd260276	-0.04052969
6	0x3e2d67a8	0.16934073
7	0x3e3f43f1	0.18678261
8	0xbe977881	-0.29584125
9	0xbf291d24	-0.6606009
10	0xbcf6702a	-0.03008278
11	0x3e434e0a	0.19072738
12	0xbe79c264	-0.2439056
13	0xbcc03a50	-0.023465306
14	0x3deee5e4	0.11664942
15	0xbd1b4ddf	-0.03791606
16	0xbef1fdb4	-0.47263873
17	0x3dcff40f	0.10153972
18	0xbec09d12	-0.37619835
19	0x3df6eb8c	0.12056646
20	0xbee055a5	-0.43815342
21	0x3cd9f520	0.026606143
22	0xbe779dce	-0.24181291
23	0x3e053dac	0.13011807
24	0x3d9ce4fc	0.07660863
25	0x3dbd4471	0.0924157
26	0xbd87ec87	-0.06636911
27	0xbeab5fc3	-0.33471498
28	0xbc2ac45e	-0.010422794
29	0x3e19724a	0.14985004
30	0x3de7e80c	0.11323556
31	0xbeaf7d4b	-0.34275278
32	0x3d2ba4e7	0.04190531
33	0x3e9d9e37	0.3078477
34	0x3e32c85d	0.17459245
35	0x3e1b491e	0.1516461
36	0xbc9a23f7	-0.018815977
37	0x3d3068f6	0.04306885
38	0x3dc1d27f	0.09463977
39	0xbdd5988f	-0.10429489
40	0x3e0e5cb8	0.13902557
41	0xbe9aa3b6	-0.30203027
42	0xbe4a676c	-0.19766015
43	0x3c8b437f	0.016999958
44	0xbe92b1c1	-0.2865124
45	0xbe2c2258	-0.16809976
46	0xbe05971a	-0.13045922
47	0x3d86b763	0.06577947
48	0x3e2aa047	0.16662703
49	0x3e83a1b9	0.25709322
50	0xbef975fc	-0.48722827
51	0xbd2e1acc	-0.042506024
52	0x3ddc730e	0.107641324
53	0xbe800b97	-0.25008842
54	0xbef9adb1	-0.4876533
55	0x3ea05993	0.3131834
56	0xbf0595a0	-0.52181435
57	0xbedcca85	-0.4312326
58	0xbe93419c	-0.28760993
59	0xbecc0a8c	-0.39851797
60	0xbdbd5604	-0.09244922
61	0x3e576e3d	0.21038146
62	0xbf162a81	-0.58658606
63	0x3ebf7717	0.37395546
64	0x3e052cc5	0.1300536
65	0xbd2dbcaa	-0.042416252
66	0x3e125440	0.14289951
67	0xbd856f6a	-0.06515391
68	0x3dcd3f89	0.10021884
69	0xbda0ce0c	-0.078518
70	0x3e573d11	0.21019389
71	0xbc5f0ef8	-0.013614409
72	0x3d201216	0.039079748
73	0xbdb58e57	-0.0886504
74	0x3e04cb23	0.12968116
75	0x3e4db8f3	0.20090084
76	0xbefb429b	-0.49074253
77	0xbd2419ea	-0.040063776
78	0x3d6e7d33	0.058224868
79	0xbdd8d4f9	-0.10587496
80	0x3e5cf283	0.21576886
81	0x3e1e4f54	0.15459949
82	0xbe946c3b	-0.28988823
83	0x3ce7229b	0.028214743
84	0xbf073f40	-0.52830887
85	0x3e0d1e08	0.13780987
86	0xbe8cf049	-0.27527073
87	0xbe165f07	-0.14684688
88	0xbd183ae6	-0.037165545
89	0x3e0a5b2d	0.13511343
90	0x3ca35c94	0.019941606
91	0xbdf44ef6	-0.11929123
92	0xbd92a0e2	-0.07159592
93	0x3db2fd83	0.0873976
94	0x3c3af258	0.011410318
95	0x3ea033f9	0.31289652
96	0x3cf80c1c	0.030279212
97	0x3df655b8	0.12028068
98	0xbd2eaa22	-0.04264272
99	0xbcf861e5	-0.030320117
100	0xbedba4ec	-0.42899263
101	0xbd68a6bb	-0.05679963
102	0xbe5f397b	-0.21799271
103	0xbd995476	-0.07486813
104	0x3e3c5d34	0.18394929
105	0xbe0c15d1	-0.13680197
106	0xbdd41200	-0.10354996
107	0x3b6e9657	0.0036405527
108	0xbe2b0b95	-0.16703637
109	0xbed437a7	-0.4144871
110	0x3c90ddff	0.017683981
111	0x3e6817b3	0.2266529
112	0x3d99fc97	0.07518881
113	0xbd4239e2	-0.047418483
114	0xbd1a8703	-0.037726413
115	0x3c431c1c	0.011908557
116	0x3d3b863b	0.04578231
117	0xbe79535b	-0.24348204
118	0xbe0217c9	-0.12704386
119	0x3ec7cf96	0.39025563
120	0xbe172f63	-0.1476417
121	0xbce848ce	-0.028355028
122	0xbd402034	-0.04690571
123	0xbee615af	-0.44938418
124	0xbdb05a19	-0.08610935
125	0x3d2ac759	0.04169402
126	0xbeb415fb	-0.3517302
127	0x3ca036f1	0.019557448
128	0xbd268ea7	-0.040663388
129	0x3d9106cc	0.070813745
130	0xbdcb6324	-0.09931019
131	0xbdd2aee4	-0.10287264
132	0xbda3c1e1	-0.07995964
133	0x3bc881cb	0.006118988
134	0x3e1cb47f	0.15303229
135	0x3d7d6a19	0.06186876
136	0xbec504ee	-0.38480324
137	0xbe50e2c3	-0.20399003
138	0x3cc3527a	0.023843039
139	0x3ceabac9	0.02865352
140	0xbcbcc847	-0.023044718
141	0x3e3999c0	0.18125057
142	0x3c95922c	0.018258177
143	0x3dfe0f87	0.12405305
144	0xbeb8293c	-0.3596896
145	0x3ce3fe22	0.02783114
146	0x3cc04e95	0.02347497
147	0xbd282181	-0.041047577
148	0x3e10cfbe	0.14141747
149	0xbce2358f	-0.02761343
150	0xbea3e968	-0.32014012
151	0x3dcef8a7	0.101060204
152	0x3d7205b7	0.05908748
153	0x3da63216	0.08115022
154	0xbe0db525	-0.13838632
155	0xbed55987	-0.41669866
156	0x3e51e7a1	0.20498516
157	0xbdea3578	-0.114359796
158	0xbb34cbec	-0.0027587367
159	0x3ec880bc	0.39160717
160	0xbe40b5cc	-0.1881935
161	0x3e946a9a	0.2898758
162	0xbd8ecefd	-0.06973074
163	0x3deb2fe4	0.11483744
164	0xbe4317aa	-0.19051996
165	0xbe52b34c	-0.20576209
166	0x3e3b211a	0.18274346
167	0xbf39b1ab	-0.72536725
168	0xbd5262fe	-0.051363938
169	0x3e864bb5	0.26229635
170	0xbed346d9	-0.4126499
171	0xbe394a0b	-0.18094651
172	0x3e1bedfa	0.152275
173	0xbe43f2cd	-0.1913559
174	0xbddf8f75	-0.10916034
175	0x3e0dd83c	0.13852018
176	0xbe4b96f4	-0.19881803
177	0xbcaecd6e	-0.02133819
178	0xbea9b020	-0.33142185
179	0x3e12c078	0.14331234
180	0x3ebc7872	0.36810642
181	0x3dbcad25	0.09212712
182	0xbe06c331	-0.13160397
183	0x3df41f75	0.119200625
184	0xbee1c110	-0.44092607
185	0xbde90d2e	-0.11379467
186	0xbd396ccb	-0.04526977
187	0x3d6e16fb	0.058127385
188	0xbcbeb5ef	-0.023280112
189	0x3dc7faea	0.09764655
190	0x3bc4a9b6	0.0060016764
191	0x3e840f24	0.257928
192	0xbde0ddd9	-0.10979814
193	0x3dcfb808	0.10142523
194	0x3e286baf	0.16447328
195	0xbeece9ab	-0.46272025
196	0x3ab9bb37	0.0014170174
197	0x3d4ba758	0.04972014
198	0x3dae7568	0.08518487
199	0xbe84e395	-0.2595488
200	0x3c35fdc6	0.011107868
201	0xbc7443b3	-0.014908719
202	0xbec5d6a6	-0.38640326
203	0xbebf5519	-0.37369612
204	0xbb980a60	-0.0046399087
205	0x3ed58306	0.41701525
206	0x3d3f9eed	0.046782423
207	0xbe763af2	-0.24045923
208	0xbd8fe617	-0.07026308
209	0xbe33bc1d	-0.17552228
210	0xbdd7e8e2	-0.10542466
211	0xbebf2240	-0.37330818
212	0x3de6b796	0.11265485
213	0xbd747a99	-0.05968723
214	0x3e155fb6	0.14587292
215	0x3e41964f	0.18904994
216	0x3e74387f	0.23849677
217	0x3e35cfe6	0.17755088
218	0xbe6a2ea6	-0.22869357
219	0xbe0e12ae	-0.13874313
220	0xbd8be881	-0.06831456
221	0x3bb2a145	0.0054513537
222	0x3ebeef52	0.37291962
223	0xbe724106	-0.23657617
224	0x3cc7bb60	0.02438134
225	0x3d3b7eaa	0.045775093
226	0x3eddbf62	0.43310076
227	0xbebf3331	-0.37343743
228	0x3cd54bac	0.02603706
229	0x3d79198d	0.060815383
230	0xbe4a408c	-0.19751185
231	0xbdeb93fd	-0.11502836
232	0xbd515d65	-0.05111446
233	0xbcccab16	-0.024983924
234	0xbd4bbe14	-0.04974182
235	0xbd957b3a	-0.07298894
236	0xbe4493a7	-0.1919695
237	0x3e1fe06e	0.15612957
238	0x3d8057f2	0.06266774
239	0xbe47c116	-0.1950725
240	0x3ea34523	0.31888685
241	0xbe5339cb	-0.20627515
242	0xbe2ecd8b	-0.17070596
243	0xbbdd6901	-0.006756902
244	0xbc78363c	-0.015149649
245	0xbf084648	-0.5323224
246	0xbce1beb2	-0.02755675
247	0xbca53c92	-0.020170484
248	0x3dcee571	0.10102356
249	0xbde99a74	-0.11406413
250	0xbd5d7740	-0.054068804
251	0xbd1faecf	-0.03898507
252	0xbe8206ec	-0.25395906
253	0x3e827b51	0.25484708
254	0xbe05e08c	-0.13073939
255	0x3cbd6b07	0.023122324

b2 f4 [64]
0	0x3e4ac7dc	0.19802803
1	0x3e531cb7	0.20616423
2	0x3e5741f5	0.21021254
3	0x3d3353b7	0.04378101
4	0x3eb028b9	0.3440607
5	0xbe9f5979	-0.3112295
6	0x3cea394a	0.02859177
7	0x3e3e3b95	0.18577416
8	0xbd73b9d3	-0.059503388
9	0x3e99dce8	0.3005135
10	0xbdc21e5e	-0.09478448
11	0x3e7779c1	0.24167539
12	0x3ea58a88	0.32332253
13	0x3ea57e57	0.32322952
14	0x3eaa2256	0.3322932
15	0x3e0e7e5c	0.1391539
16	0xbdba5a1c	-0.09099218
17	0x3ed89e67	0.4230835
18	0x3bbc5cc1	0.005748362
19	0x3e69baea	0.22825208
20	0x3e01c184	0.12671477
21	0x3e820453	0.25393924
22	0xbb50246a	-0.0031759986
23	0x3ea75012	0.32678276
24	0x3e5f3dff	0.21800993
25	0xbd8178bc	-0.063218564
26	0xbd932f2d	-0.071867324
27	0x3e9709fb	0.29499802
28	0x3d618764	0.05506076
29	0x3e59e43f	0.21278475
30	0x3e3447d9	0.17605533
31	0x3eecddac	0.46262872
32	0x3dadff19	0.08495922
33	0x3e877fab	0.2646459
34	0x3e4cef4c	0.2001316
35	0x3e1015ef	0.14070867
36	0x3d5e9b7d	0.054347504
37	0xbb0b0fca	-0.0021219128
38	0x3de2952f	0.11063611
39	0x3e8e6ae8	0.27815938
40	0x3e6cabb2	0.23112372
41	0x3dd9dc20	0.10637689
42	0x3e69ff95	0.22851403
43	0xbdf025d2	-0.11725964
44	0x3de3d835	0.111252226
45	0x3e30de6a	0.17272344
46	0x3e597223	0.21234946
47	0xbdbaee79	-0.09127516
48	0xbe222447	-0.15834151
49	0x3e054deb	0.13018005
50	0x3d3f3743	0.04668356
51	0x3da274dd	0.07932446
52	0x3d83a82f	0.06428563
53	0x3e093f5c	0.13403076
54	0x3d9b7d10	0.07592213
55	0x3dc7b663	0.097515844
56	0x3e965eca	0.29369193
57	0x3e18b509	0.1491281
58	0x3dcaeb11	0.099081166
59	0x3e45deb6	0.19323239
60	0x3e0cbf19	0.13744773
61	0x3e106466	0.14100799
62	0x3ea9d10f	0.33167312
63	0x3e0ba56d	0.13637324

W3 (column-major) f4 [64, 64]
0	0x3e0001b2	0.12500647
1	0xbd387811	-0.04503638
2	0x3cc744c5	0.024324784
3	0x3df98c98	0.12185019
4	0x3d477092	0.04869134
5	0xbec91cd4	-0.39279807
6	0xbe918158	-0.28418994
7	0xbc10bd59	-0.0088342065
8	0xbd4bb1c5	-0.04973008
9	0xbea3959a	-0.31950074
10	0x3e9f1fdf	0.31079003
11	0x3e51783d	0.20456024
12	0x3d0dc5ca	0.034612454
13	0x3eb4acf2	0.35288197
14	0xbdbe767f	-0.09299945
15	0xbe2c987a	-0.1685504
16	0xbd4a8004	-0.04943849
17	0x3c83af8d	0.01607492
18	0xbea5be5d	-0.32371798
19	0x3e40ca1f	0.18827103
20	0xbe19699a	-0.1498169
21	0xbf092460	-0.5357113
22	0x3e6bedeb	0.23039977
23	0x3d57c4a7	0.052677777
24	0x3da71391	0.08158029
25	0xbddfd2a0	-0.109288454
26	0x3e78525a	0.24250165
27	0xbe0d69e9	-0.13809933
28	0x3dbebaba	0.09312959
29	0x3e5c6352	0.21522263
30	0xbdb4572d	-0.0880569
31	0xbe7058e6	-0.23471412
32	0x3cf68ef2	0.030097459
33	0x3e053285	0.13007553
34	0x3c090331	0.008362577
35	0xbd687855	-0.056755383
36	0x3d9edd2f	0.07757031
37	0x3e230dd9	0.15923251
38	0xbee3c053	-0.4448267
39	0xbf02ace3	-0.51045054
40	0xbda72ea3	-0.08163192
41	0xbdc46747	-0.09590011
42	0xbe019e3f	-0.12658022
43	0xbd476e2b	-0.04868905
44	0x3dfac442	0.122444645
45	0xbe4f96e8	-0.2027241
46	0x3d46af7d	0.048507202
47	0x3c9d0953	0.019169485
48	0x3dfa945a	0.12235327
49	0xbcf1dd3d	-0.02952444
50	0xbeb1d66d	-0.34733906
51	0x3dac3ad1	0.08409656
52	0x3e430eb6	0.1904858
53	0x3c802c84	0.015646227
54	0xbe8bd8c7	-0.27313825
55	0x3df911b1	0.121615775
56	0xbd79eb03	-0.06101514
57	0x3e7e5f5d	0.24841066
58	0x3d378671	0.044805948
59	0xbd307478	-0.043079823
60	0x3e9ffc72	0.31247288
61	0xbe1d1da9	-0.15343346
62	0xbdcb7c58	-0.09935826
63	0x3c891c73	0.016737198
64	0x3e7a9f3c	0.24474806
65	0xbe6c5521	-0.23079349
66	0xbe07f86f	-0.13278364
67	0xbec05eef	-0.3757243
68	0xbeb7f8c8	-0.35931993
69	0x3df8adbb	0.121425115
70	0xbe1a3132	-0.15057829
71	0xbd751c8a	-0.05984167
72	0x3d506fbf	0.05088782
73	0xbe481560	-0.19539404
74	0xbd668803	-0.056282055
75	0xbe015593	-0.126303
76	0xbe248971	-0.16068055
77	0x3d2f2f49	0.042769704
78	0xbc10b28e	-0.008831633
79	0xbdb5ee42	-0.08883335
80	0xbd28fad9	-0.041254852
81	0xbe1377b8	-0.14401138
82	0xbd89c6ce	-0.06727372
83	0xbdd39c53	-0.10332551
84	0x3c99be1b	0.018767407
85	0x3dbe3eb2	0.09289302
86	0x3d38bd8f	0.045102652
87	0x3e407ba4	0.18797165
88	0xbe671b0e	-0.22568914
89	0xbe7d820a	-0.24756637
90	0x3e10a093	0.14123754
91	0xbeba49e4	-0.363845
92	0xbe820bf8	-0.25399756
93	0xbe8a4f05	-0.27013412
94	0x3da6d100	0.08145332
95	0xbd522701	-0.05130673
96	0x3e658695	0.2241462
97	0x3c7bf990	0.015379325
98	0x3d95228a	0.072819784
99	0x3e353b56	0.17698416
100	0xbd1a8ec5	-0.037733812
101	0xbddf29cf	-0.10896646
102	0x3ec28944	0.3799535
103	0x3e8b2c84	0.271824
104	0xbdaedfeb	-0.08538803
105	0x3dc39b67	0.09551125
106	0xbe0b0429	-0.13575806
107	0x3e87577d	0.26433936
108	0xbdd9483d	-0.106094815
109	0xbe36bbb4	-0.1784504
110	0xbe8ee0e6	-0.2790596
111	0x3e26287a	0.16226378
112	0xbdf58fb0	-0.11990297
113	0xbe641c8c	-0.22276515
114	0x3dfa8fd6	0.12234466
115	0xbe4cbe2e	-0.19994423
116	0xbdcda503	-0.10041239
117	0x3dce4b40	0.100729465
118	0xbcd4d47e	-0.02598023
119	0xbde191dd	-0.11014149
120	0xbb811f35	-0.0039404877
121	0xbe00dd2b	-0.12584369
122	0xbeb73220	-0.3578043
123	0x3e657efb	0.2241172
124	0x3e0c65ad	0.13710661
125	0xbdee7092	-0.11642565
126	0x3ef138c4	0.4711362
127	0xbed73593	-0.4203306
128	0xbce2985d	-0.027660543
129	0xbdd1028c	-0.10205564
130	0x3d8da9a2	0.069171205
131	0x3d98b5ad	0.07456527
132	0xbe64f431	-0.22358777
133	0x3e52071b	0.20510523
134	0xbeb5ed5f	-0.35532662
135	0xbc226a4b	-0.0099130375
136	0xbea1cbe6	-0.31600875
137	0xbea8fc11	-0.3300481
138	0x3e45bdd6	0.19310698
139	0x3e9eddce	0.310286
140	0xbe17f2c3	-0.148387
141	0xbe75fa31	-0.24021222
142	0xbeb6eaa0	-0.3572588
143	0x3dc5de9e	0.096616015
144	0xbe1f6f99	-0.15569915
145	0xbe0acfd3	-0.13555841
146	0xbe00a2a4	-0.12562042
147	0xbe8b7e67	-0.27244875
148	0x3e0e538a	0.13899055
149	0x3d061d7b	0.03274296
150	0xbe9978fc	-0.29975116
151	0xbe6f0dac	-0.23345059
152	0x3efab7c1	0.48968318
153	0x3e5961fb	0.21228783
154	0x3dc09d9d	0.09405062
155	0x3d0f93a9	0.03505293
156	0xbe003a32	-0.125222
157	0x3d68bb16	0.056819044
158	0x3d93a3d6	0.072089836
159	0x3e6b8ee5	0.23003729
160	0xbe5b9058	-0.21441782
161	0xbda319eb	-0.07963928
162	0x3df22935	0.11824266
163	0xbedb558e	-0.4283871
164	0xbda34632	-0.07972373
165	0x3e7408a8	0.23831427
166	0x3d709b7e	0.05874204
167	0x3eac0b34	0.33602297
168	0xbedab9d4	-0.427199
169	0x3eb4e3ac	0.3532995
170	0x3d761757	0.060080852
171	0x3d55d3ff	0.05220413
172	0xbdef2792	-0.11677469
173	0xbe0dc296	-0.1384376
174	0x3b3586b2	0.0027698693
175	0x3e3ef88b	0.18649499
176	0xbe298ea0	-0.16558313
177	0x3ea480d8	0.3212955
178	0x3d5992f5	0.053118665
179	0x3e85b23c	0.26112545
180	0xbd869449	-0.06571252
181	0x3de49541	0.111612804
182	0xbdded7aa	-0.108809784
183	0xbe6ce424	-0.23133904
184	0x3d23d92f	0.040002044
185	0xbd849c45	-0.064751185
186	0xbea31d9f	-0.31858537
187	0x3e04f9bc	0.12985891
188	0xbdc1a529	-0.0945533
189	0xbbe88179	-0.0070955125
190	0xbd0c7c00	-0.034297943
191	0xbe8effaa	-0.2792943
192	0xbc55df10	-0.0130536705
193	0xbe3c7a12	-0.18405941
194	0xbe5a9ac0	-0.21348095
195	0x3ce169ef	0.027516333
196	0xbe8a7c82	-0.27048117
197	0xbdc57bf3	-0.09642782
198	0x3e1c2765	0.15249403
199	0xbec9843c	-0.393587
200	0x3bd52547	0.006504688
201	0x3c621141	0.013798059
202	0xbe5f780d	-0.2182314
203	0x3e55646c	0.20839089
204	0xbd3ee792	-0.04660756
205	0xbe8ffc02	-0.28121954
206	0xbe8efe07	-0.27928182
207	0x3eae5eec	0.34056795
208	0x3e435867	0.19076692
209	0x3e556dd9	0.20842685
210	0x3e433f10	0.19067025
211	0xbe09907b	-0.13434021
212	0x3d14b718	0.036307424
213	0x3c869b08	0.016431347
214	0xbe08e3bc	-0.13368124
215	0xbe647fb6	-0.22314343
216	0xbd2eb78c	-0.042655513
217	0xbe16e227	-0.14734708
218	0x3dd656c5	0.10465769
219	0x3d235007	0.039871242
220	0xbd4a0973	-0.049325418
221	0xbe908c8e	-0.28232235
222	0x3cdd7a53	0.027035868
223	0x3e32df6d	0.17468043
224	0xbe3be9ea	-0.1835095
225	0xbeaa8a60	-0.33308697
226	0x3e0b3ed1	0.13598181
227	0xbe9fd1ee	-0.3121485
228	0x3e49748b	0.19673364
229	0xbe23cbc6	-0.15995702
230	0x3c094a48	0.008379526
231	0xbdd6febc	-0.104978055
232	0x3e848582	0.25883108
233	0xbc91d7fa	-0.017803181
234	0x3e3c474e	0.18386576
235	0x3d6dcbb8	0.05805561
236	0xbf16a5ed	-0.5884693
237	0xbd4a84d4	-0.04944308
238	0x3e6b4a3a	0.22977534
239	0xbe21d4bf	-0.15803812
240	0xbed9ff6f	-0.42577693
241	0xbe90766e	-0.28215355
242	0x3dec0219	0.115238376
243	0xbdf25fa8	-0.11834651
244	0x3e124fab	0.14288203
245	0xbc11f9ed	-0.008909685
246	0xbe561c2c	-0.20909184
247	0x3e1ea61b	0.15493052
248	0xbd1e8a6c	-0.038706228
249	0x3e049740	0.12948322
250	0x3cad99ac	0.02119144
251	0x3e20bf58	0.15697992
252	0xbe0dfa5a	-0.13865033
253	0xbe5f5e81	-0.21813394
254	0xbe0f9018	-0.14019811
255	0x3d1faec2	0.03898502

b3 f4 [64]
0	0x3e8c4709	0.27397946
1	0x3e6832c0	0.2267561
2	0x3e991eb3	0.29906234
3	0x3e8594db	0.2609013
4	0x3e0812af	0.13288377
5	0x3e407456	0.18794379
6	0x3e3fe863	0.18740992
7	0x3e874518	0.26419902
8	0x3d80e6ab	0.062939964
9	0x3e2f504e	0.17120478
10	0x3e0ef8e2	0.13962129
11	0x3dac8d8b	0.08425435
12	0x3e7f381d	0.2492375
13	0x3eb307eb	0.34966978
14	0x3da9291a	0.082597926
15	0xbdf84f8d	-0.12124548
16	0x3e5aad70	0.21355224
17	0x3e8e7900	0.2782669
18	0x3d962f8c	0.073332876
19	0x3d772ea5	0.060347218
20	0x3eacc21e	0.3374185
21	0x3e49a098	0.19690168
22	0x3e81c57a	0.25345975
23	0x3d83627f	0.06415271
24	0x3eca7e83	0.39549646
25	0x3ec3abfa	0.38217145
26	0x3e2c9648	0.16854203
27	0x3e94c8e6	0.29059523
28	0x3e85503e	0.26037782
29	0x3d64b6b6	0.05583831
30	0x3ed35604	0.41276562
31	0x3ea1fe92	0.31639534
32	0x3e833746	0.25628108
33	0x3e8a6ab5	0.27034536
34	0x3e7167a4	0.23574692
35	0x3d219371	0.03944725
36	0x3e4d5bca	0.20054546
37	0x3e07f0a7	0.13275395
38	0x3e8893cc	0.2667526
39	0xbd96cfa4	-0.07363823
40	0x3e19c3fe	0.15016171
41	0x3dfc5ace	0.12322007
42	0x3d958976	0.07301609
43	0x3ccce961	0.025013627
44	0x3e6acecd	0.2293045
45	0x3eb4a625	0.35283008
46	0x3e728a22	0.23685506
47	0x3de2a380	0.110663414
48	0x3eaa8162	0.33301836
49	0xbd33a807	-0.043861415
50	0x3b9e63f1	0.0048336913
51	0x3ec30e95	0.38097063
52	0x3e7b51d1	0.24542929
53	0x3dbeef15	0.09322945
54	0x3df4bd97	0.11950224
55	0x3e8e3cda	0.277808
56	0x3ef00276	0.46876878
57	0x3e45b084	0.19305617
58	0x3eb3f8a1	0.35150626
59	0x3df8416e	0.12121855
60	0x3e3d6ae9	0.18497814
61	0x3e5d4d7a	0.21611586
62	0x3e864700	0.26226044
63	0x3e36286c	0.17788857

W4 (column-major) f4 [64, 64]
0	0xbd9d14d3	-0.076699875
1	0xbbe1f1ab	-0.006895264
2	0x3daf03ea	0.085456684
3	0x3dbfbc97	0.093621425
4	0x3dabc861	0.083878286
5	0xbe343315	-0.17597611
6	0xbe1d154b	-0.15340154
7	0xbe237a3f	-0.15964602
8	0xbea4a443	-0.32156572
9	0xbcabb22b	-0.02095898
10	0xbd17d188	-0.03706506
11	0x3e932b6d	0.2874407
12	0xbd824c4d	-0.063622095
13	0xbdbe57fc	-0.092941254
14	0xbed99fee	-0.4250483
15	0x3cdbda13	0.026837384
16	0x3d8358cf	0.06413423
17	0xbed3ff49	-0.41405705
18	0xbe1ded5d	-0.15422578
19	0x3d89b84c	0.06724605
20	0xbe5e008b	-0.21679895
21	0x3d0d2d3c	0.034466967
22	0x3d08888f	0.033333357
23	0xbd81cb9a	-0.06337662
24	0x3eae0950	0.3399148
25	0xbe8d0104	-0.27539837
26	0xbe9faa1d	-0.31184474
27	0x3e1c8e42	0.15288642
28	0xbcff4043	-0.031158572
29	0x3dc4eb00	0.09615135
30	0xbe549619	-0.20760383
31	0x3e886c57	0.26645157
32	0x3e4994e1	0.19685699
33	0x3e774464	0.24147183
34	0xbdfd4352	-0.12366356
35	0x3e3212be	0.17389962
36	0xbe6fa61b	-0.23403208
37	0xbe8468de	-0.25861257
38	0xbd8ff9ee	-0.07030092
39	0xbe05f912	-0.13083294
40	0x3e2ff229	0.1718222
41	0xbeb2e77f	-0.34942243
42	0x3e2daf70	0.16961455
43	0xbe20b5e3	-0.15694384
44	0xbdc84c6b	-0.097802006
45	0x3f04f356	0.519338
46	0x3e697fe6	0.22802696
47	0x3d38fff4	0.04516597
48	0xbe505433	-0.2034462
49	0x3d0f1559	0.034932468
50	0xbe29758b	-0.16548745
51	0xbece5dc6	-0.40305918
52	0x3d5f4a46	0.054514192
53	0x3cb26782	0.021777872
54	0xbc98b2e0	-0.018639982
55	0xbd89a600	-0.06721115
56	0xbe7dc7bd	-0.24783225
57	0xbe8d37e1	-0.27581695
58	0xbef41fa0	-0.47680378
59	0x3cb57e8b	0.022155067
60	0xbd5bbedd	-0.05364882
61	0xbb6a0779	-0.003571002
62	0x3ac190b8	0.0014767861
63	0x3e2cd6ab	0.16878764
64	0xbe69c4aa	-0.22828928
65	0x3e15d1bc	0.14630789
66	0xbcd5af25	-0.026084492
67	0xbd95e9b5	-0.07319967
68	0xbe953426	-0.2914135
69	0x3d123280	0.03569269
70	0x3deac19e	0.11462711
71	0xbe7d1e5d	-0.24718614
72	0xbec674c8	-0.38760972
73	0xbe8e2eaa	-0.27769977
74	0x3c8e5422	0.017374102
75	0xbdee2f8a	-0.11630161
76	0xbe620263	-0.22071223
77	0xbc89e31b	-0.016831925
78	0x3d36ae0e	0.044599585
79	0x3e307444	0.17231852
80	0xbd22883a	-0.039680697
81	0xbe1d00ed	-0.15332384
82	0xbeeb2c79	-0.45932367
83	0xbd75cbae	-0.060008697
84	0x3d589d78	0.05288455
85	0x3d86ff6b	0.06591686
86	0xbe7db802	-0.24777225
87	0x3e9413bc	0.28921306
88	0xbe739110	-0.23785806
89	0xbee52792	-0.44756752
90	0xbe2ff8da	-0.17184773
91	0x3a9d5e88	0.0012006322
92	0xbe9648e0	-0.29352474
93	0xbdec3c94	-0.11534992
94	0x3d77566d	0.060385156
95	0xbc4ee148	-0.012626953
96	0x3dcf842c	0.10132632
97	0xbe0c3a0c	-0.13694018
98	0xbe653b39	-0.22385873
99	0xbe2a6d51	-0.16643263
100	0x3de3d809	0.1112519
101	0xbdb79cc2	-0.08965446
102	0x3d3f3d7d	0.0466895
103	0x3e0b80b5	0.13623317
104	0x3e89a059	0.26880148
105	0xbe7b4c84	-0.24540907
106	0xbea18129	-0.31543854
107	0x3d8cf5f1	0.06882847
108	0xbdd58c20	-0.10427117
109	0xbd934ab4	-0.07191983
110	0x3e823cfa	0.25437146
111	0xbe98816b	-0.29786238
112	0xbd8b293c	-0.06794974
113	0x3e4826ad	0.19546004
114	0xbe705dd8	-0.23473299
115	0xbe88a100	-0.26685333
116	0x3e157316	0.14594683
117	0x3dc7b2d3	0.09750905
118	0xbd2bdcd4	-0.041958645
119	0x3e49fd57	0.19725548
120	0xbe132ce0	-0.14372587
121	0x3d00245f	0.031284686
122	0x3c0bd39a	0.008534336
123	0xbddffcd7	-0.10936897
124	0x3e23c519	0.15993156
125	0xbd3dc4f7	-0.04633042
126	0xbd13b5d7	-0.036062088
127	0xbe4e48b9	-0.20144929
128	0xbe56e5fd	-0.20986171
129	0x3c782e27	0.015147722
130	0x3dea1c39	0.11431164
131	0x3df83c7a	0.1212091
132	0x3ed4ef7a	0.41588956
133	0x3d8a89f1	0.067645915
134	0xbce4a70d	-0.027911687
135	0x3d600023	0.05468763
136	0x3e506dd7	0.203544
137	0xbe630713	-0.22170667
138	0xbe7b95d7	-0.24568878
139	0xbeb5a2fb	-0.35475907
140	0xbc95161a	-0.018199015
141	0xbe38ca4f	-0.18045925
142	0x3cebd16a	0.02878638
143	0xbefe6af4	-0.49690974
144	0x3e04bee5	0.12963445
145	0xbec0e223	-0.3767253
146	0xbe1ca598	-0.15297544
147	0xbd8e8f9e	-0.069609866
148	0xbe746a0e	-0.23868582
149	0xbe1a3bc7	-0.15061866
150	0xbdfb28ba	-0.12263627
151	0xbe8a9256	-0.2706477
152	0x3e003ad3	0.1252244
153	0xbed4dedf	-0.41576287
154	0xbcc6a7ac	-0.024249874
155	0x3e0e7636	0.13912281
156	0x3eac773c	0.3368472
157	0x3e85a715	0.26104036
158	0xbe8df918	-0.27729106
159	0x3d7ad764	0.06124057
160	0x3de7ee74	0.11324778
161	0xbc924b97	-0.01785831
162	0x3e413e5c	0.18871444
163	0xbe5187cb	-0.20461957
164	0x3ced795a	0.028988529
165	0x3e8f03c6	0.27932566
166	0xbcd4a9a9	-0.025959807
167	0xbe5124cc	-0.20424193
168	0x3c5b8535	0.013398458
169	0x3dbf3846	0.09336905
170	0x3e3f1ac9	0.18662561
171	0x3da34b70	0.07973373
172	0x3dd35c24	0.10320309
173	0xbda631c1	-0.081149586
174	0xbe90417b	-0.28174958
175	0x3d059e51	0.032621685
176	0xbe073ca8	-0.13206732
177	0xbe9f86cf	-0.31157538
178	0x3e0aab9a	0.13542023
179	0x3ea07189	0.3133662
180	0xbe4e4a53	-0.2014554
181	0x3ce443b8	0.027864322
182	0xbdc7843b	-0.09742018
183	0xbe950f19	-0.2911308
184	0x3d440e09	0.047864947
185	0xbea0e093	-0.31421337
186	0xbe6dc823	-0.23220877
187	0x3c34cef0	0.011035666
188	0xbe3a7f66	-0.18212661
189	0xbe1379a7	-0.14401875
190	0xbe70f8ab	-0.2353236
191	0x3cf450da	0.02982371
192	0x3e4178ac	0.18893689
193	0x3e82c2f6	0.25539368
194	0xbe4756f5	-0.19466765
195	0xbe899d1e	-0.26877683
196	0xbe1587c3	-0.1460257
197	0xbdeeee39	-0.11666531
198	0x3e4e5860	0.201509
199	0xbd463009	-0.048385654
200	0x3e025702	0.12728503
201	0xbe18b98c	-0.1491453
202	0x3e171e42	0.14757636
203	0x3e928ffd	0.2862548
204	0xbe7a3b92	-0.24436787
205	0xbd201b5d	-0.039088596
206	0x3e916e6f	0.28404567
207	0x3e9354f8	0.28775764
208	0xbd117e71	-0.035520975
209	0x3d010389	0.031497512
210	0x3e0af6a1	0.13570644
211	0xbd38bd2b	-0.04510228
212	0x3dd42662	0.103588834
213	0x3dc42d12	0.09578909
214	0xbda39c76	-0.07988827
215	0x3d340be6	0.04395666
216	0x3e2112c7	0.15729819
217	0x3d982fc2	0.07430984
218	0xbe986ab4	-0.29768908
219	0x3b96530a	0.0045875357
220	0xbe218eac	-0.15777081
221	0x3e2678dc	0.16257042
222	0x3c0207d1	0.007936434
223	0xbd81fe6c	-0.06347355
224	0xbd380a24	-0.044931546
225	0xbe332335	-0.17493899
226	0x3e859d83	0.26096734
227	0x3f17929f	0.592081
228	0xbd7b2d50	-0.06132251
229	0xbeafc33c	-0.3432864
230	0xbe0e4ff4	-0.13897687
231	0xbc18a7b1	-0.0093173245
232	0xbe3db2c3	-0.18525223
233	0xbd211cc3	-0.03933407
234	0x3e4f6819	0.20254554
235	0x3e8a6c60	0.2703581
236	0x3ba459e1	0.005015597
237	0xbd003943	-0.03130461
238	0xbda862fe	-0.08222006
239	0x3f053866	0.5203918
240	0x3e270d27	0.16313611
241	0x3e841a65	0.25801387
242	0xbdcff215	-0.10153595
243	0xbecbfbc7	-0.39840528
244	0xbe793cb2	-0.2433956
245	0x3d0ffcf8	0.03515336
246	0x3e0e37fa	0.13888541
247	0x3e970206	0.2949373
248	0xbe6d7ad7	-0.23191391
249	0xbdcc89b8	-0.09987205
250	0xbdbe96d2	-0.093061104
251	0x3e317ee0	0.17333555
252	0x3d8690aa	0.06570561
253	0x3e475739	0.19466867
254	0xbe36e1c0	-0.17859554
255	0xbdfe2054	-0.1240851

b4 f4 [64]
0	0x3f0b4508	0.5440221
1	0x3d9a64ae	0.075387344
2	0x3e7fdb1d	0.24985929
3	0x3e56c6f0	0.20974326
4	0x3ee4a6e2	0.4465857
5	0x3e9d4c8a	0.30722457
6	0x3e96f498	0.29483485
7	0x3e569757	0.20956169
8	0x3ddec065	0.1087654
9	0x3e3f12b1	0.18659474
10	0x3e8f7b0e	0.2802357
11	0x3f00db1a	0.5033432
12	0x3ec3048f	0.38089415
13	0x3edb801f	0.42871186
14	0x3eb97c93	0.36227855
15	0x3e991a8c	0.29903066
16	0x3e7a2063	0.24426417
17	0x3e739502	0.2378731
18	0x3ef72d52	0.48276764
19	0x3c187185	0.009304409
20	0x3ea4dd62	0.32200152
21	0x3eb635e3	0.35587987
22	0x3f01d752	0.5071918
23	0x3e8dd25d	0.27699557
24	0x3e6006fb	0.21877663
25	0x3e859ee8	0.26097798
26	0x3e94cb13	0.29061183
27	0x3ec35053	0.3814722
28	0x3ef91e95	0.48656145
29	0x3eb0e9d2	0.3455339
30	0x3e27090e	0.16312048
31	0x3e8056bb	0.2506617
32	0x3e52ced4	0.20586711
33	0x3e8e8679	0.2783697
34	0x3e44ee1c	0.19231457
35	0x3e55adbe	0.20867059
36	0x3ea8df62	0.32982928
37	0x3ee05857	0.43817398
38	0x3ee1545c	0.44009674
39	0x3e4d3fa7	0.20043813
40	0x3e56514d	0.20929451
41	0x3ea67b58	0.3251598
42	0x3ebc888c	0.36822927
43	0x3e97367b	0.29533753
44	0x3ea47fc3	0.32128724
45	0x3ecb5fcd	0.39721528
46	0x3e9b3405	0.30313125
47	0x3e56d8a2	0.20981076
48	0x3ec2a9fc	0.38020313
49	0x3def2c3e	0.116783604
50	0x3ea9df0b	0.3317798
51	0x3ea3f92f	0.3202605
52	0x3eaa9809	0.3331912
53	0x3e931d36	0.28733224
54	0x3e192a6b	0.14957587
55	0x3e935ed0	0.28783274
56	0x3f2adb0a	0.6674048
57	0x3ebe92e8	0.37221456
58	0x3e7c742f	0.24653696
59	0x3e8134ae	0.25235504
60	0x3ea42cc1	0.32065395
61	0x3ea1b380	0.3158226
62	0x3edc9f59	0.43090323
63	0x3e61bfc2	0.22045806

W5 (column-major) f4 [10, 64]
0	0x3e364d46	0.17802915
1	0x3e137706	0.14400873
2	0xbe2f8347	-0.17139922
3	0xbe52a316	-0.20570025
4	0x3db31a11	0.08745206
5	0x3cc864d1	0.024462136
6	0xbe118019	-0.14209022
7	0xbe65a94c	-0.22427863
8	0x3dee4c4b	0.116356455
9	0x3e01e3c6	0.12684545
10	0xbdc5fb52	-0.09667076
11	0xbea104b2	-0.31448895
12	0xbe9ab62a	-0.30217105
13	0x3e2ad502	0.16682819
14	0xbe19448d	-0.14967556
15	0x3e105737	0.1409577
16	0xbe47f799	-0.19528045
17	0xbc2d81bf	-0.010590016
18	0xbd866126	-0.06561498
19	0x3e584606	0.21120462
20	0xbe8e5132	-0.27796322
21	0x3ddd3d5a	0.108027175
22	0x3e387953	0.18015032
23	0x3e446d25	0.1918226
24	0xbd9c3b8d	-0.07628546
25	0xbda59afe	-0.08086203
26	0xbea16f19	-0.31530073
27	0x3e2438c4	0.1603728
28	0xbea296a6	-0.3175556
29	0xbe862df4	-0.26206934
30	0x3ead294f	0.33820578
31	0x3dd5afcb	0.104339205
32	0x3db90d2e	0.09035717
33	0xbdc70166	-0.097170636
34	0xbdd22aaf	-0.102620475
35	0x3d4ffa6c	0.05077593
36	0x3e805d25	0.25071064
37	0x3e8cf240	0.27528572
38	0xbdc472bc	-0.09592196
39	0xbd94ad38	-0.07259601
40	0x3e0c6130	0.13708949
41	0x3c0e20bd	0.008674798
42	0x3e5f0055	0.2177747
43	0x3bb93414	0.00565196
44	0x3a230b5f	0.0006219651
45	0x3d8400a6	0.06445436
46	0x3e46c805	0.19412239
47	0xbe857599	-0.26066282
48	0x3d4005dc	0.046880588
49	0xbe880975	-0.26569715
50	0x3e822b61	0.2542372
51	0xbe0c1ec8	-0.13683617
52	0x3b41cebb	0.0029572684
53	0xbdeccaa9	-0.11562092
54	0xbe4ddda4	-0.2010408
55	0x3e539f38	0.20666206
56	0x3e485164	0.19562298
57	0x3d389d4c	0.045071885
58	0x3e83d6c0	0.2574978
59	0xbd0be28c	-0.0341516
60	0xbd31fbf2	-0.043453164
61	0xbe28095d	-0.16409822
62	0xbe5270db	-0.20550863
63	0xbe1abc72	-0.15110949
64	0xbda82ead	-0.08212028
65	0x3e3ba25e	0.18323657
66	0xbd733d07	-0.059384372
67	0x3e308876	0.17239556
68	0xbe36f489	-0.1786672
69	0x3e3c2d3d	0.18376632
70	0xbe462bce	-0.19352648
71	0xbe04bb7e	-0.12962148
72	0xbdd21101	-0.102571495
73	0xbe299c3e	-0.16563508
74	0x3e785ba1	0.24253704
75	0x3b876ce3	0.0041328534
76	0x3e385bc0	0.1800375
77	0xbe58724d	-0.21137352
78	0x3d607122	0.05479539
79	0x3e3040a8	0.17212164
80	0xbe43a9f4	-0.191078
81	0x3cb40633	0.021975612
82	0x3e53baf3	0.20676784
83	0xbd87be39	-0.06628079
84	0xbe105005	-0.14093025
85	0x3e9eb515	0.3099753
86	0x3e2ee7e5	0.17080648
87	0xbe113f64	-0.14184338
88	0x3e8d73c8	0.27627397
89	0x3ce8d624	0.028422423
90	0xbe3e9b04	-0.18613821
91	0x3d3bf5be	0.045888655
92	0xbe376085	-0.17907913
93	0x38c1d4ec	9.242617e-05
94	0x3de4f2a7	0.11179095
95	0xbe6d7601	-0.23189546
96	0xbc4eeafe	-0.012629269
97	0x3e34c897	0.17654644
98	0xbe8740f2	-0.26416737
99	0x3dbc5ea7	0.09197741
100	0x3e3015af	0.17195772
101	0xbe6fec1b	-0.23429911
102	0xbe49c615	-0.19704469
103	0xbd184ceb	-0.03718273
104	0xbe8079f3	-0.2509304
105	0xbda25fd0	-0.07928431
106	0xbe83ec0b	-0.25766024
107	0x3e0d5942	0.1380358
108	0xbe2b2da1	-0.16716625
109	0x3e27e649	0.1639644
110	0xbd59fa35	-0.05321713
111	0x3e6d8de8	0.23198664
112	0xbe5127e6	-0.20425376
113	0x3d858bb1	0.06520785
114	0xbe7ce190	-0.2469542
115	0x3e562878	0.20913875
116	0xbcbf70bc	-0.023369186
117	0xbe9844a7	-0.29739878
118	0x3e08bb41	0.13352682
119	0xbe65c0fb	-0.22436897
120	0xbe66182d	-0.2247016
121	0x3dc6c885	0.09706215
122	0x3e19caaf	0.15018724
123	0xbe31ec77	-0.1737536
124	0x3dfa7f14	0.122312695
125	0xbe26bbd7	-0.16282593
126	0xbe5b7b35	-0.21433719
127	0xbe052dd8	-0.13005769
128	0xbd8b3e02	-0.067989364
129	0xbe59be71	-0.21264054
130	0x3e185b41	0.1487856
131	0xbe2ae780	-0.16689873
132	0xbdf03ef9	-0.11730761
133	0xbd3754c7	-0.044758584
134	0x3e9ab23e	0.30214113
135	0x3ca5cb37	0.020238502
136	0x3e9fc5f2	0.31205708
137	0xbd863a9e	-0.06554149
138	0xbe0286f8	-0.12746799
139	0x3e87f2dd	0.26552477
140	0xbe9a43fc	-0.30129993
141	0xbe25dc99	-0.16197433
142	0x3e113a5c	0.14182419
143	0x3e28fc88	0.16502583
144	0xbea688d4	-0.32526267
145	0x3e12bd0b	0.14329927
146	0xbdd92433	-0.106026076
147	0xbea1203c	-0.31469905
148	0x3e1423d9	0.144668
149	0xbd8cbb69	-0.06871683
150	0xbe108884	-0.14114577
151	0xbea7540d	-0.32681313
152	0xbe3fa1c4	-0.18714052
153	0x3df0c0e9	0.11755545
154	0x3dc86112	0.0978414
155	0x3d95ff94	0.07324138
156	0xbe093400	-0.13398743
157	0xbea1eac0	-0.31624413
158	0x3d8f6ff4	0.07003775
159	0x3d957e9d	0.0729954
160	0xbdc5f59f	-0.09665989
161	0x3e159ff0	0.14611793
162	0xbd8d673c	-0.06904456
163	0xbcddccaf	-0.02707514
164	0x3ec097e6	0.3761589
165	0x3c7c49a6	0.0153984185
166	0x3ec11dc3	0.3771802
167	0x3ca506e1	0.020144882
168	0xbb9fb888	-0.0048742928
169	0x3cb05d2c	0.021528803
170	0xbe84425c	-0.25831878
171	0xbe948848	-0.29010224
172	0xbe2062f3	-0.15662746
173	0x3d5f41fd	0.05450629
174	0x3e6b1b8c	0.22959727
175	0x3e193d4a	0.14964786
176	0xbe600e2a	-0.21880403
177	0x3e86bb83	0.26314935
178	0xbe3e59e0	-0.18588972
179	0x3d85da3d	0.06535766
180	0xbe457cf2	-0.19285944
181	0x3e54cf80	0.2078228
182	0xbd21ac76	-0.039471112
183	0xbdd7ab74	-0.10530749
184	0xbe2729c6	-0.16324529
185	0x3e7a88c9	0.24466242
186	0x3e8f9e6b	0.2805055
187	0xbe4d4e74	-0.20049459
188	0xbc5c84db	-0.01345941
189	0x3e4dde98	0.20104444
190	0x3e891e3f	0.26780888
191	0x3d28f380	0.041247845
192	0x3e0540cf	0.13013004
193	0x3e16a2e1	0.14710571
194	0x3c9f9d6d	0.019484246
195	0x3e754198	0.23950803
196	0xbdf4a313	-0.119451664
197	0xbdb45d47	-0.08806854
198	0xbe67aad7	-0.22623764
199	0x3dafdbdc	0.08586857
200	0xbe867b9c	-0.2626618
201	0x3dc6aebc	0.09701297
202	0xbe066d03	-0.13127522
203	0x3e3f9cf0	0.1871221
204	0xbe85b36f	-0.2611346
205	0xbe01f31a	-0.12690392
206	0xbdf5c77c	-0.12000939
207	0x3e0f0694	0.13967353
208	0x3e36fdd4	0.17870265
209	0xbe3cabe8	-0.18424952
210	0xbea123d3	-0.31472644
211	0x3e309bb9	0.17246903
212	0xbe4392f8	-0.19099033
213	0x3dd39d79	0.1033277
214	0xbe85b06a	-0.26111156
215	0x3e119172	0.14215639
216	0x3dee29c9	0.11629064
217	0xbe7ae740	-0.24502277
218	0xbde5f557	-0.112284355
219	0xbd441269	-0.04786912
220	0xbe1a534c	-0.15070838
221	0x3e6a55cd	0.22884293
222	0x3e2cd816	0.16879305
223	0xbe39058f	-0.18068527
224	0x3e551a15	0.20810731
225	0xbe22c8e0	-0.1589694
226	0xbe351d86	-0.17687044
227	0x3e603760	0.21896124
228	0xbe11c05a	-0.14233533
229	0x3df5be96	0.11999242
230	0x3e59ecae	0.21281692
231	0xbe118327	-0.14210187
232	0xbda9489c	-0.08265802
233	0x3e944903	0.28961954
234	0xbc3bf101	-0.011471034
235	0x3e24a6cf	0.16079257
236	0x3e9c09bd	0.3047618
237	0xbe802ebc	-0.25035655
238	0xbdad4d29	-0.08461983
239	0xbd0ca86b	-0.034340303
240	0xbe1abff2	-0.15112284
241	0x3d5b9e28	0.053617626
242	0xbe1153b8	-0.14192092
243	0x3dbadbdc	0.09123966
244	0x3e6f019c	0.23340458
245	0xbe99f8f1	-0.3007274
246	0xbda742bb	-0.08167025
247	0xbddaa0d7	-0.10675209
248	0xbe512fe1	-0.2042842
249	0x3e30af87	0.17254458
250	0xbe1ea31e	-0.15491912
251	0x3da592df	0.08084654
252	0xbe463289	-0.19355215
253	0xbd6feff2	-0.05857844
254	0x3e4e1eaf	0.20128892
255	0x3e62f162	0.22162393

b5 f4 [10]
0	0xbe6b1d99	-0.2296051
1	0xbde855f6	-0.11344521
2	0x3de046c7	0.10951
3	0x3ce61611	0.028086694
4	0xbdb57851	-0.08860839
5	0x3dcc6639	0.09980435
6	0xbe350502	-0.17677692
7	0xbd452fb1	-0.048141185
8	0x3e2ba510	0.16762185
9	0x3ded2d4e	0.11580907
