neural_net/mnist_mlp_weights.npz (npz, 102766 bytes, 4 tensors)

W1 (column-major) f4 [32, 784]
000000 70 b9 0b ba fb 4a b2 3d 96 93 89 3c 96 a1 67 bd
       -0.00053300615 0.08705708 0.016794007 -0.056550585
000010 c5 58 cb bc 2c 32 96 bc cb 95 6b bb 30 70 81 bb
       -0.024822602 -0.01833447 -0.0035947438 -0.0039501414
000020 54 72 5d bd d0 01 04 3d 4d 43 e5 3d 65 46 06 3c
       -0.05406411 0.03222829 0.11194477 0.008195494
000030 ed 9d 15 3c 71 9b 3a 3d 46 a5 ca bc d6 e9 67 bd
       0.009131891 0.045558397 -0.024737012 -0.056619488
000040 83 88 8a bd 27 2b f0 bc 51 7c af 3d 9a ce aa bc
       -0.06764319 -0.029317452 0.08568633 -0.020850468
000050 2f 4b 43 3d a9 4b 59 bd 12 7e aa bd bf 40 86 3d
       0.047679123 -0.05305067 -0.08324827 0.06555318
000060 0e b2 a7 bd 05 1e 15 bd 1a 53 05 bc 2c ee c0 bd
       -0.08188258 -0.036405582 -0.008137489 -0.09420428
000070 6c 6a 9b bc 6b ec 45 3d 8b 0e 1a 3d 84 83 86 3d
       -0.018971644 0.04832117 0.037611526 0.06568053
000080 41 74 f6 bc 11 cb 02 3d ca 64 3c 3d 24 de cf bd
       -0.030084731 0.03193194 0.045994557 -0.10149792
000090 00 e3 c9 3c 1e 88 d8 bc 93 0b b0 3c b7 24 78 bd
       0.024644375 -0.026432093 0.021489894 -0.06058189
0000a0 32 22 ab bc 68 42 6b bb 9b 5b d3 3c 15 f9 9f 3c
       -0.020890329 -0.0035897736 0.025800517 0.019527951
0000b0 36 35 8e bd 7b 9b c2 3c ce f1 59 3d 5b d6 01 3c
       -0.06943743 0.02375578 0.05320912 0.0079246415
0000c0 cf cc 0f 3d 07 17 b5 bc 0f 38 9d bc 45 a1 e4 3c
       0.03510743 -0.022105707 -0.01919177 0.02790893
0000d0 38 b0 92 bc a8 a4 64 3c 92 d3 46 3d e5 97 75 3d
       -0.017906293 0.013955273 0.048541613 0.05995931
0000e0 82 0a 6f bd c5 e8 b6 3c 0f ec 6f bd b3 48 ca 3c
       -0.05835963 0.02232779 -0.058574732 0.024692869
0000f0 3a d4 ae bc 7d 2e 1c bd 08 23 8b bd eb e6 9c 3d
       -0.021341432 -0.038130272 -0.06793791 0.076612316
000100 97 9f fa 3b 3e 77 27 3c 82 d2 d5 3c 4c 21 69 bd
       0.007648419 0.010221301 0.026101355 -0.05691652
000110 44 6f df 3c 90 03 11 bb 9b 3f db bd ef fc 9b bc
       0.027274735 -0.0022127368 -0.10705491 -0.019041507
000120 76 24 4e bd da 77 8c 3d c0 92 62 3c dd 94 8c bc
       -0.05032774 0.06858797 0.013828933 -0.017160827
000130 21 a1 8c 3d ab 8b 8f 3b ef d1 0b 3c 62 5e 3b bd
       0.068666704 0.0043806634 0.008533939 -0.045744307
000140 50 d6 a7 3c a7 08 43 3d 80 b1 1f 3d 3e 14 f9 3c
       0.020487934 0.047615673 0.038987637 0.03040516
000150 77 a7 46 bb 92 f2 39 bd 32 6f 02 3d 3d ba ec bc
       -0.003031222 -0.04539735 0.031844325 -0.0288974
000160 e9 84 20 bd ef 31 44 bc f2 15 9a 3d 50 33 15 39
       -0.039189253 -0.011974796 0.07523717 0.00014228863
000170 f0 65 45 bd 78 76 12 bd 0b a6 09 3d 74 2f e2 3c
       -0.04819292 -0.03575751 0.033605617 0.027610518
000180 1f 39 fe bc ee 09 02 3d f9 8a a5 bb 8c 33 54 3d
       -0.031033097 0.03174775 -0.005051967 0.05180697
000190 42 bb bc 3c a2 72 11 bd 88 89 6f 3d 97 39 91 bc
       0.02303851 -0.035509713 0.05848077 -0.017727656
0001a0 7a f5 8e 3c d4 ff ac 3d 1e e6 a8 3d 82 81 d8 bc
       0.017451037 0.08447233 0.08247016 -0.026428942
0001b0 c2 49 39 3d e9 9f bb 3c ce 09 02 3c 0f f7 94 bb
       0.045236357 0.0229034 0.007936908 -0.0045460532
0001c0 74 d9 16 bd d5 10 de bc ec 31 87 bd 6e 49 2d 3d
       -0.036828473 -0.027107636 -0.06601319 0.042306356
0001d0 91 da a9 3d 5b d9 fe bb 3b 50 79 bc 63 00 da 3d
       0.08293641 -0.0077773756 -0.015216882 0.10644605
0001e0 15 34 11 bd 52 ab 54 3d 86 61 43 3c bb 0d ee 3c
       -0.03545006 0.051921196 0.011925107 0.029059282
0001f0 e7 29 95 bd 0f fd bd bb 4b 8b 84 bc 9f b0 84 bd
       -0.07283383 -0.005797989 -0.016179701 -0.06479
000200 9b 2f 93 3d 46 29 5c 3d 85 34 16 bd 59 07 c3 3c
       0.071868144 0.0537503 -0.03667118 0.023807215
000210 a3 6a 16 3d eb a9 80 3d 9f aa 52 bd 01 33 45 bd
       0.03672279 0.06282409 -0.05143225 -0.048144344
000220 ff 14 e4 bd 79 f0 85 3d b1 6d 56 bc 2b d7 02 3d
       -0.11136817 0.06540007 -0.013087676 0.03194348
000230 76 03 bf 3c 7e a3 bd bc e2 6d c8 3d 64 b2 fe 3c
       0.02331708 -0.023149248 0.097865835 0.031090923
000240 9d 47 94 bc 83 f7 3d 3d 75 4f 53 bd 72 26 ab 3d
       -0.018100554 0.046378624 -0.051589448 0.08356942
000250 de 43 8c bd 63 46 6f 3c 38 24 36 bd 98 bb e9 3c
       -0.06848882 0.014604184 -0.044468135 0.028531834
000260 51 20 20 3d b0 01 15 bd 3d 04 6f bd 81 79 bf 3c
       0.03909332 -0.036378562 -0.05835365 0.023373367
000270 e6 b0 19 3c 98 e3 b5 3c 5b ea c3 bd 6b e1 63 3c
       0.009380555 0.022203252 -0.09566184 0.013908724
000280 4a 76 de 3c 44 f1 f5 bc d4 38 a9 3d 58 31 b6 bd
       0.027156014 -0.030022271 0.08262792 -0.0889613
000290 32 ea 9a bc f1 82 10 bd 17 fd 7d bc 7d 56 d2 bc
       -0.018910501 -0.035281125 -0.015502236 -0.025676006
0002a0 a7 b2 cb bd 1a 8e 9d bd bb a7 67 3c 1e d0 8c bd
       -0.099461846 -0.07693119 0.014139111 -0.06875633
0002b0 24 5f 0e 3d 29 1c 85 3c 75 da 90 bd f1 ef 6b 3d
       0.034758702 0.01624878 -0.07072917 0.057601873
0002c0 6d fb ba 3d bc 83 1f 3d 2e 4b cc 3d b2 25 87 3c
       0.09129987 0.03894399 0.09975277 0.016497467
0002d0 fe 0b 5f 3d 73 e6 0b bd f7 e3 14 3d 4e 4f 84 bd
       0.054454796 -0.03415532 0.036350217 -0.06460439
0002e0 f0 f7 df 3d 5e b8 a4 bb 98 da 1f 3d e7 8b a4 bd
       0.10935962 -0.005026861 0.039026827 -0.08034497
0002f0 18 67 88 3c 3e 87 f2 bc 81 5d 0e bd 81 12 c5 3d
       0.016650721 -0.029605504 -0.03475714 0.0962267
000300 e8 f1 f2 3c d5 1a 2f bc 62 40 bb bc ac fa 98 3c
       0.029656366 -0.01068755 -0.022857849 0.018674217
000310 3f be a2 3d e1 a4 09 bd 51 2c 72 3d b4 94 8e 3d
       0.07946443 -0.033604506 0.059124295 0.069619566
000320 4a b5 88 39 1c f0 9d bd 1d 5d 92 3c 61 6f 3b 3c
       0.00026075012 -0.07711813 0.017866665 0.011440129
000330 93 af 55 3b f3 aa 89 3c c9 aa 75 3d 4f 81 88 bc
       0.003260587 0.016805148 0.059977327 -0.016663222
000340 88 ff 3f bb 39 39 72 bd 9b 8f d4 3c 7a d0 00 bc
       -0.0029296596 -0.059136603 0.025947383 -0.007862205
000350 b1 82 81 3c 51 c8 c1 3d d8 17 b5 bc 60 dc 69 bc
       0.015809389 0.094620354 -0.022106096 -0.014273733
000360 e6 c7 fd bc 50 9d d2 3c d8 b7 c7 3d 20 59 ba 3c
       -0.030979108 0.025709778 0.09751862 0.022747576
000370 cd 0d 53 bc 7e e7 12 3d 5a 5c 12 bd fc d1 68 3c
       -0.012881708 0.0358653 -0.035732605 0.01421022
000380 3b c0 91 bc 5c 2b 74 3c dd 69 a0 bd 45 1f 92 3d
       -0.017791858 0.014902916 -0.07832692 0.071348704
000390 cc f9 b3 bc 9c cc 7e bc 99 05 6b bb 28 61 88 3d
       -0.021969698 -0.015551712 -0.003586149 0.06659156
0003a0 d5 88 83 3d e2 4d 04 3d c0 4a a5 bd 21 c1 e1 3c
       0.06422583 0.032300837 -0.08070898 0.027557911
0003b0 a4 0e 75 3a 0e a3 ad 3d 79 6e be bd b5 2a 26 3c
       0.000934819 0.08478366 -0.09298415 0.010142018
0003c0 9b c3 cc 3d df fc 44 3c db 0d 2e bd ee f9 00 3c
       0.09998246 0.01202318 -0.042493682 0.007872088
0003d0 92 9a 46 bb 94 96 e0 bc 9f 25 9f 3c 13 30 84 bc
       -0.0030304533 -0.027415551 0.019427119 -0.016136205
0003e0 fd 37 75 bc db 56 8a bd 06 c6 3e 3b be a1 68 3d
       -0.014966962 -0.067548476 0.002910973 0.056794874
0003f0 62 ae eb bc b8 60 30 3d ce 26 72 3d 82 29 05 bc
       -0.028769676 0.04306099 0.05911904 -0.008127572

b1 f4 [32]
000000 c8 27 9b be 00 05 be bc ad 67 28 3d 59 6b 60 3e
       -0.30303788 -0.023195744 0.041114498 0.2191595
000010 d9 70 b5 3e 07 76 fc 3d 93 ad 6f be 2f bf b1 3e
       0.35437658 0.123271994 -0.23406057 0.34716174
000020 1d 5c ec 3d 3f af 9f be 17 4f e5 bd f3 f4 63 3e
       0.11541007 -0.3118839 -0.11196726 0.2226141
000030 43 31 d3 3c a7 d0 48 3e 9b fd 26 be 8f 45 4f bd
       0.025780326 0.19610845 -0.1630768 -0.050603446
000040 fd 9b 1d be ae 9d ad 3e 87 c4 61 be 02 be 2b 3e
       -0.15391536 0.33909363 -0.22047625 0.16771701
000050 f9 40 25 3e 1f 32 fb 3d 15 d0 92 3b 53 9a 7d 3d
       0.16138066 0.12265419 0.0044803717 0.061914753
000060 75 ff 8d bc 82 90 9d bd 97 9f a8 3e c3 53 54 bc
       -0.017333725 -0.07693578 0.32934257 -0.0129594235
000070 6b 69 a2 bc 43 30 68 be a7 68 c0 3e 5b 99 83 bd
       -0.019825658 -0.2267466 0.37579843 -0.064257346

W2 (column-major) f4 [10, 32]
000000 18 2b af bf b3 be 3c be ad f9 a0 3d 25 3f 0d 3f
       -1.3685026 -0.18432121 0.07860122 0.55174476
000010 25 26 cb bc f4 63 3b 3f 5b ba 7f bf 67 71 ab bf
       -0.024798462 0.7319939 -0.9989373 -1.3393983
000020 f6 f8 57 3e 80 d9 cd 3e 5d 71 2c bc 18 98 c1 3e
       0.21091065 0.40205002 -0.010525075 0.3781135
000030 1c ae e3 be 31 bb 3e 3f 72 e8 24 3f 6c 31 a7 bf
       -0.44468772 0.7450438 0.64417183 -1.3061957
000040 21 56 c8 3e ab 5a a1 3e 65 e4 cb bb 87 04 86 3e
       0.3912821 0.31514487 -0.006222295 0.2617533
000050 5e 81 23 bf 26 d3 f5 3e 91 fa c9 3e dd dc 2e 3e
       -0.63869274 0.48012656 0.3944898 0.1707644
000060 b8 ec 21 bf f8 8a c8 3d 71 df ca bc b9 97 92 3e
       -0.6325183 0.09792131 -0.024764748 0.2863138
000070 32 e8 5e 3e b7 df 9a bf 97 35 b3 3e 42 fe 96 bc
       0.21768263 -1.2099522 0.35001823 -0.018431786
000080 80 df 29 3f 06 2f 38 be 99 c4 fa 3d 82 ee 03 3f
       0.6635666 -0.17986688 0.12244529 0.5153581
000090 8d f5 64 3f c8 31 12 3f de d8 ed be 10 da 86 bf
       0.8943718 0.5710721 -0.4645452 -1.0535297
0000a0 90 79 80 bf 93 66 40 3e f2 db 3b 3f f9 49 60 bf
       -1.0037098 0.18789129 0.73382485 -0.87612873
0000b0 69 57 1a bf f2 b4 d2 3e f4 c0 e7 3e d1 dd a5 be
       -0.6028963 0.41153675 0.452644 -0.32395795
0000c0 07 1f 85 3e a2 ad f2 3e 2d 0c a4 bf 58 6a 1f 3f
       0.26000234 0.47398096 -1.2816216 0.6227164
0000d0 83 28 00 bd 06 11 1b 3f 37 fb 6b 3f 51 b8 7c 3d
       -0.031288635 0.6057285 0.921802 0.061699215
0000e0 6a c8 14 bc 52 8e 17 3e 05 57 ea be 95 70 03 bf
       -0.009080986 0.14800385 -0.45769516 -0.5134366
0000f0 95 26 ee 3e 2c 1b da be ea f9 26 3f 37 45 af 3e
       0.4651381 -0.42598855 0.6522509 0.34232494
000100 e2 bc f5 bf 0c a6 b1 3e 0c 8b 72 bf 6c 80 b4 3e
       -1.9198267 0.34696996 -0.9474342 0.35254228
000110 2a db 9a be 8a 48 7b 3d c5 5d dc 3e 19 73 89 bf
       -0.30245334 0.061348476 0.4304029 -1.073825
000120 f4 8d 64 3f 26 01 0f bf 8b 91 36 be 18 d8 08 3e
       0.89279103 -0.5586113 -0.17828958 0.13363683
000130 43 5c 23 3e 23 31 ea 3e 10 43 e8 be ba e7 90 3e
       0.15953164 0.45740613 -0.45363665 0.28301793
000140 87 84 7f bd 9a 58 ac bf 51 a9 f8 3d 0a 36 30 bf
       -0.062382247 -1.3464539 0.121416695 -0.6883246
000150 f8 d6 90 3e 23 ed 05 3f 83 dc 00 3f 14 f7 85 bf
       0.28289008 0.52314967 0.50336474 -1.0466027
000160 b3 69 23 3f 80 37 a7 be 33 4d d7 3e 06 0b ed 3d
       0.6383316 -0.3265953 0.42051086 0.11574368
000170 7e d7 e9 3e 84 18 1c 3e e8 da a7 bf 5d 42 a8 be
       0.4567222 0.15243727 -1.311368 -0.3286313
000180 73 a0 81 3e 45 44 41 bf 77 e3 d2 3e 19 be 71 bf
       0.25317726 -0.75494796 0.41189167 -0.9443069
000190 c7 24 07 3d 38 98 a8 be 80 6a 1f bf 6c e4 ac 3e
       0.032994058 -0.32928634 -0.6227188 0.33768022
0001a0 b7 97 8e be e3 3e 10 be 7d b6 38 bf 34 a1 84 3e
       -0.27850124 -0.1408649 -0.72153455 0.25904238
0001b0 47 84 cc 3e 7e 6c b6 3e 08 7c 13 3f c9 80 13 bf
       0.3994467 0.35629648 0.5761113 -0.57618386
0001c0 75 bb d7 3e 5b 9d 11 bf 8c 37 96 bf ae e0 ba 3e
       0.42135206 -0.5688073 -1.1735702 0.36499542
0001d0 f9 1b 0c 3f 1c 90 20 bf 5a 62 49 3e 70 81 65 bf
       0.5473018 -0.62719893 0.19666424 -0.8965063
0001e0 05 59 a7 3d 3d 25 5e 3f 09 82 75 3e b0 30 98 be
       0.08171276 0.8677557 0.23975386 -0.29724646
0001f0 c6 3d 30 3f 10 f2 27 bf 50 82 87 3e 5a 69 19 be
       0.6884426 -0.65603733 0.26466608 -0.14981595
000200 b7 46 63 3e c4 a0 af bd 42 3f c8 3e 83 96 c0 bd
       0.22194944 -0.085755855 0.39110762 -0.09403708
000210 49 a9 b4 be 5f 23 f8 be 29 58 f6 3d 23 3c f8 3e
       -0.35285404 -0.48464486 0.12028534 0.4848338
000220 bd 2e 8a be 40 0a 26 bf 26 8b 30 3e 98 b6 36 be
       -0.26988783 -0.6485939 0.17240581 -0.17843091
000230 0d 3d 7f bf 58 80 a4 3e 2b 18 0b 3f 22 7e 9a 3e
       -0.9970253 0.3212917 0.5433375 0.30174357
000240 87 ea 09 bf 9f ce 0f 3f fe c2 27 bf 35 86 3d 3f
       -0.53873485 0.56174654 -0.6553191 0.7403291
000250 46 04 1c bf 53 93 b1 bf 02 a7 42 3d 78 1a bb be
       -0.6094402 -1.3873085 0.047522552 -0.36543632
000260 84 be 03 3f fc 15 91 be ec 7d 47 be 51 69 cb be
       0.5146258 -0.28337085 -0.19481629 -0.39728788
000270 04 08 38 3e 15 26 11 bf 4f 2e 5e bf 38 57 21 3f
       0.17971808 -0.56698734 -0.8678941 0.6302371
000280 3b 43 7c 3e 2c 90 02 3f b1 fa 34 3f 75 d5 56 3e
       0.24635021 0.5100124 0.70695025 0.20979865
000290 dc 56 14 bd d0 80 ae be 09 2a b5 bf b6 66 04 3e
       -0.036215648 -0.3408265 -1.4153453 0.12929806
0002a0 fa 5f 97 be 41 c8 20 3f 21 43 47 be f4 ab bf 3e
       -0.29565412 0.62805563 -0.19459201 0.37435877
0002b0 7c d4 32 be a0 fb 02 be cb f3 0e bf 34 38 30 3f
       -0.17463869 -0.127913 -0.5584075 0.6883576
0002c0 50 54 ab bf 45 f6 9a 3e 4d 4e c1 be 65 a2 a5 3e
       -1.3385105 0.30266014 -0.3775505 0.3235046
0002d0 5c 51 70 3e e5 59 5a bf b2 67 2a 3f 9f 1c c0 3d
       0.23468536 -0.8529342 0.66564476 0.09380459
0002e0 d9 b9 45 3f 29 8f 09 bf 7f e2 36 bf bd bd bd 3e
       0.77236706 -0.5373407 -0.71439356 0.3705882
0002f0 a1 c3 29 3f 53 df 61 be 18 32 38 bf 80 b8 04 bf
       0.6631413 -0.22057848 -0.71951437 -0.51844025
000300 46 06 bb be 33 2a fc be 92 46 2c 3d b5 a5 24 be
       -0.36528224 -0.49250945 0.04205949 -0.16078837
000310 82 84 0d 3f 06 9a 27 be 7a 37 00 3f 3a 60 67 3e
       0.55280316 -0.16367349 0.5008465 0.22595301
000320 7e a4 4e 3d 82 60 1a 3f ca 29 0d 3f 7a a2 7c bf
       0.05044984 0.6030351 0.5514189 -0.9868542
000330 84 41 41 3f 3c 9b 94 bf 78 07 f2 be 6e d1 69 3e
       0.75490594 -1.1609874 -0.47271323 0.22833797
000340 99 8e 01 bf ec 53 21 3f e0 6c 7a bf 41 64 c0 3d
       -0.5060821 0.6301868 -0.9782238 0.09394122
000350 28 83 23 bf 48 fa 60 3e 6a c7 02 3f 47 28 36 3f
       -0.63872004 0.21970475 0.5108553 0.7115521
000360 d3 0f a6 be d6 16 22 3f eb 6d e8 be bc 7a 06 3e
       -0.32433948 0.63316095 -0.4539636 0.13132757
000370 97 8d 76 bf a0 7f 15 bf 69 8b 14 3e b9 67 3b 3f
       -0.963098 -0.58397865 0.14506306 0.73205143
000380 de 40 19 3f 5d cb 39 be d6 97 84 bf 96 69 37 bf
       0.59864604 -0.18143983 -1.0358837 -0.71645486
000390 d0 96 b1 3d c0 46 de 3d 0a b4 e1 3e 63 08 71 3f
       0.08671343 0.10853338 0.4408267 0.9415342
0003a0 e9 3b 99 bf 14 9f 99 bd 7e 11 db be c1 fc 09 3f
       -1.1971408 -0.07501045 -0.42786783 0.53901297
0003b0 af e1 4c 3f 3e 66 2d be 33 c5 2c bf 11 dd 54 3e
       0.80031866 -0.16933534 -0.674884 0.20787455
0003c0 04 34 b2 3e 78 d5 4e bf 28 79 9e be f9 ac 3c bd
       0.3480531 -0.8079448 -0.3095181 -0.046063397
0003d0 d8 f4 87 3e 84 b2 df be 6b 20 8a 3e 6f de cd 3e
       0.26553988 -0.43690884 0.26977858 0.40208766
0003e0 0c c9 c5 3c 6c ec a3 3e 63 d2 e5 3d 49 fd 7a 3f
       0.024143718 0.32016313 0.11221769 0.9804273
0003f0 88 0d a7 3e 01 7a 3a 3f c9 45 19 3e 74 11 7d 3e
       0.3262751 0.72842413 0.14968027 0.24713689

b2 f4 [10]
000000 e2 be ca be 0d 6d 47 3e 78 44 cf bd 62 31 81 be
       -0.39598757 0.19475193 -0.10120481 -0.2523299
000010 9c 18 b2 3c ca e1 59 3e 70 72 c7 3d 04 bf b6 3d
       0.02174025 0.21277538 0.09738624 0.08923152
000020 fb 14 34 bc a8 7a aa 3d
       -0.01099133 0.08324176
