neural_net/mnist_cnn_weights.npz (npz, 199906 bytes, 20 tensors)

conv1_kernel f4 [3, 3, 1, 4]
0.16488777 -0.53994495 -0.2802151 -1.0509562 0.008582197 -0.82425773 -0.012500823 0.828991
0.65387684 -0.59655607 -0.5567819 0.011849198 0.017756691 0.46587712 0.3795573 -0.43469647
0.40541652 0.7546557 -0.64896333 0.6107605 -0.107909076 -0.29445797 0.286008 0.22846013
0.06070485 0.07064827 -0.30582398 -0.06258695 0.8808159 0.25503084 -0.18266495 -0.3104598
-0.63999635 0.339996 0.25101867 0.10147988
00000000: 57d8 283e d539 0abf 5b78 8fbe bc85 86bf
00000010: 589c 0c3c 8e02 53bf 40d0 4cbc c138 543f
00000020: 7964 273f e6b7 18bf 4289 0ebf 2323 423c
00000030: 7b76 913c 7287 ee3e 5655 c23e 8990 debe
00000040: c192 cf3e 1e31 413f 7622 26bf cd5a 1c3f
00000050: 6fff dcbd 32c3 96be a46f 923e 74f1 693e
00000060: a6a5 783d 0ab0 903d f694 9cbe 962d 80bd
00000070: 277d 613f 6793 823e 850c 3bbe 96f4 9ebe
00000080: cdd6 23bf f513 ae3e 8585 803e afd4 cf3d

conv1_bias f4 [4]
-0.4333559 0.01598713 0.019160397 -0.030649096
00000000: d3e0 ddbe 71f7 823c 44f6 9c3c d013 fbbc

bn_conv1_gamma f4 [4]
0.90430367 1.1017904 1.1011763 0.8663734
00000000: 7280 673f 7807 8d3f 58f3 8c3f a6ca 5d3f

bn_conv1_beta f4 [4]
0.09614198 0.059286594 0.01945125 0.038061343
00000000: 16e6 c43d 80d6 723d 3a58 9f3c 36e6 1b3d

bn_conv1_mean f4 [4]
0.12476938 0.06455014 0.020220384 0.05654875
00000000: 1787 ff3d dd32 843d 38a5 a53c a99f 673d

bn_conv1_var f4 [4]
0.091756016 0.040681098 0.0014398855 0.03535616
00000000: 94ea bb3d 39a1 263d 8aba bc3a 9fd1 103d

dense1_kernel (column-major) f4 [64, 676]
0.0265122 0.060947523 0.017227897 0.019893132 -0.020107754 -0.047502108 -0.071113884 -0.013519188
-0.025862753 -0.061595537 0.06871009 0.21210614 -0.104254104 0.122602925 -0.013004955 0.022170093
-0.06478872 0.15292343 -0.10987064 0.030438691 -0.11284646 -0.0605323 -0.12495016 0.0011754174
0.038352977 -0.015011926 0.20232213 -0.06371178 -0.07420136 0.00071785727 -0.090982474 0.13072097
0.0813053 0.082723565 -0.0032443213 0.057064023 -0.076276846 -0.049403686 0.027848609 0.12744705
0.09865709 -0.052863114 -0.084169485 0.113774434 -0.0012581487 0.019193826 0.088150494 -0.099843904
-0.042093508 0.2309003 0.0574034 0.036000088 0.15921526 0.022063384 0.10854661 0.033962607
0.10488399 -0.022993391 0.11467976 -0.05658996 0.122626364 -0.13107245 0.10320708 -0.03541414
-0.09362717 0.099682346 0.038782258 -0.018422052 0.070843406 -0.14849606 0.051172607 0.13381918
-0.18073156 0.009042723 0.026182635 0.16950758 0.011717677 0.15552604 -0.04383434 0.040293198
-0.021512177 0.13385111 -0.11295327 0.04775471 -0.017553696 0.16846153 -0.1037729 0.014931325
0.12549268 -0.04683497 0.17311564 -0.084541686 0.020271664 -0.0031249155 -0.0322827 0.019354627
0.14268078 0.06227444 0.038803656 0.043300565 0.004051902 -0.010004897 0.003543867 -0.039798725
0.037429187 0.039091162 -0.024235368 0.2110856 0.041636884 -0.019974371 0.0035669387 -0.10037835
0.08358899 0.20368436 -0.054310005 -0.06137641 0.06167309 0.054156806 0.07166765 -0.02097617
0.12912367 -0.039679058 0.07765365 -0.09629549 -0.0049430006 0.003946359 0.067903325 -0.002132725
-0.18584509 -0.19559833 0.19859347 0.016259484 0.059518117 0.1741665 0.086967014 0.091913044
0.05749888 -0.14339143 0.14773865 -0.05740152 -0.029130362 0.039952505 -0.3179646 0.13935937
-0.014574992 0.2906163 -0.10990429 0.07603966 -0.19925171 0.17266957 0.0058310875 -0.08583148
0.039201092 -0.07447552 0.201242 -0.24163584 -0.02649104 0.003020484 -0.014689927 -0.23457195
0.19918923 0.08728219 0.15918401 -0.045180812 -0.020944875 -0.14722319 -0.22719419 -0.089052305
0.039702315 0.12479224 -0.09061377 0.14155152 -0.15639 -0.117612466 -0.050077543 0.15557903
-0.09470416 0.06886451 0.10195889 0.084948935 0.105752125 0.09138223 0.21170093 -0.32607004
-0.056059882 0.036653865 0.046537336 -0.06968267 0.028395964 0.11267894 0.017621284 -0.06273931
-0.083788395 0.021812093 0.08553107 0.039249923 0.07632996 0.003077451 0.0130018685 0.033753157
-0.12913875 -0.023485657 0.0688676 0.20798941 0.051149443 0.029226622 -0.012292943 0.014060113
-0.010954196 0.18480074 -0.123831145 -0.02017269 0.010429108 0.08734499 -0.09332055 0.020937258
0.027747655 -0.12634808 0.166624 -0.025348667 0.07007828 -0.02199407 0.08426058 0.039696626
0.08992784 -0.015537683 -0.016719604 0.10078591 0.049219877 -0.021686863 0.107314184 -0.0076650577
0.07906865 -0.05386615 0.03350188 0.04880745 0.059941217 0.072099 0.076658055 -0.018930182
0.11868231 0.17923622 0.07419491 -0.054423288 0.18588673 -0.017569546 0.0056793657 -0.042970773
0.11121272 -0.08043826 0.072444014 0.019634776 0.10365174 -0.03531485 0.015575148 0.011816007
00000000: 1d30 d93c 1ca4 793d 8521 8d3c ecf6 a23c
00000010: 04b9 a4bc 9291 42bd 28a4 91bd 967f 5dbc
00000020: 20de d3bc 9a4b 7cbd e0b7 8c3d 5a32 593e
00000030: 2d83 d5bd 3e17 fb3d bc12 55bc 0e9e b53c
00000040: f3af 84bd f697 1c3e dc03 e1bd 905a f93c
00000050: 0b1c e7bd b8f0 77bd dfe5 ffbd 7710 9a3a
00000060: 0318 1d3d 95f4 75bc 882d 4f3e 527b 82bd
00000070: e2f6 97bd 962e 3c3a 0555 babd b8db 053e
00000080: 6583 a63d f96a a93d ae9e 54bb f7bb 693d
00000090: 0937 9cbd 855b 4abd c422 e43c 7b81 023e
000000a0: ba0c ca3d fe86 58bd 0d61 acbd 9202 e93d
000000b0: 77e8 a4ba 5f3c 9d3c 3f88 b43d f67a ccbd
000000c0: 3e6a 2cbd 2171 6c3e d41f 6b3d d474 133d
000000d0: 5309 233e 45be b43c af4d de3d 601c 0b3d
000000e0: 6bcd d63d a35c bcbc 39dd ea3d e0ca 67bd
000000f0: 8823 fb3d db37 06be 3c5e d33d 6b0e 11bd
00000100: 9abf bfbd 4226 cc3d 25da 1e3d d8e9 96bc
00000110: 5916 913d 5a0f 18be 5e9a 513d e507 093e
00000120: b211 39be ee27 143c f77c d63c 6593 2d3e
00000130: 80fb 3f3c 3842 1f3e a38b 33bd 7b0a 253d
00000140: 4e3a b0bc 4410 093e 0b54 e7bd 719a 433d
00000150: c5cc 8fbc 2e81 2c3e e386 d4bd 84a2 743c
00000160: 2781 003e 07d6 3fbd 3a45 313e 3124 adbd
00000170: c310 a63c 62cb 4cbb dd3a 04bd 988d 9e3c
00000180: e91a 123e 7c13 7f3d 95f0 1e3d ef5b 313d
00000190: d1c5 843b 94eb 23bc 3940 683b fd03 23bd
000001a0: 594f 193d 0e1e 203d 4089 c6bc d326 583e
000001b0: 708b 2a3d 4ba1 a3bc 4dc3 693b 2a93 cdbd
000001c0: b430 ab3d a292 503e 2b74 5ebd d565 7bbd
000001d0: ec9c 7c3d 87d3 5d3d 7dc6 923d 38d6 abbc
000001e0: ff38 043e 8286 22bd e008 9f3d 9236 c5bd
000001f0: e5f8 a1bb 7550 813b e610 8b3d 30c5 0bbb
00000200: 2d4e 3ebe ee4a 48be 165c 4b3e 9c32 853c
00000210: 45c9 733d b458 323e c31b b23d e83c bc3d
00000220: f283 6b3d 34d5 12be cd48 173e db1d 6bbd
00000230: cca2 eebc 3da5 233d 42cc a2be 39b4 0e3e
00000240: f2cb 6ebc a9cb 943e 8015 e1bd aeba 9b3d
00000250: a408 4cbe 4bd0 303e b512 bf3b 6ac8 afbd
00000260: 5391 203d 9f86 98bd 6212 4e3e 636f 77be
00000270: bd03 d9bc 50f3 453b 05ae 70bc a133 70be
00000280: 43f8 4b3e 01c1 b23d 2201 233e 840f 39bd
00000290: 9694 abbc adc1 16be 98a5 68be 0e61 b6bd
000002a0: e59e 223d 1393 ff3d b693 b9bd e2f2 103e
000002b0: b324 20be cede f0bd 1c1e 4dbd 1c50 1f3e
000002c0: 41f4 c1bd d608 8d3d d3cf d03d b5f9 ad3d
000002d0: 9294 d83d 9b26 bb3d 21c8 583e a7f2 a6be
000002e0: 0c9f 65bd 5d22 163d ef9d 3e3d cab5 8ebd
000002f0: a79e e83c 37c4 e63d 835a 903c 787d 80bd
00000300: 4099 abbd 46af b23c ea2a af3d 87c4 203d
00000310: e252 9c3d 0faf 493b ca05 553c c040 0a3d
00000320: f33c 04be fe64 c0bc 750a 8d3d 2dfb 543e
00000330: 1482 513d ab6c ef3c 5768 49bc 635c 663c
00000340: 3a79 33bc 683c 3d3e 2f9b fdbd 3241 a5bc
00000350: d9de 2a3c eee1 b23d d81e bfbd 9d84 ab3c
00000360: 0d4f e33c 6461 01be 7b9f 2a3e 02a8 cfbc
00000370: 3485 8f3d e82c b4bc d090 ac3d ee98 223d
00000380: 162c b83d c491 7ebc 8df7 88bc d868 ce3d
00000390: c89a 493d a6a8 b1bc 8ac7 db3d 2a2b fbbb
000003a0: bfee a13d c1a2 5cbd 4439 093d 52ea 473d
000003b0: ec84 753d a4a8 933d e6fe 9c3d 7813 9bbc
000003c0: b60f f33d b389 373e 80f3 973d f4ea 5ebd
000003d0: 1759 3e3e 02ee 8fbc f919 ba3b 1f02 30bd
000003e0: 7fc3 e33d d1bc a4bd 875d 943d 1cd9 a03c
000003f0: 5d47 d43d 4ea6 10bd e82e 7f3c ed97 413c

dense1_bias f4 [64]
-0.03560574 -0.018732682 -0.053481076 -0.0766181 -0.014617866 0.041376624 -0.037808757 -0.07587118
0.13750194 0.03635597 -0.05275712 -0.14651355 -0.001902373 -0.057335414 0.018615771 -0.0051417346
0.07222751 -0.21453793 0.07176168 0.039196588 0.015599496 -0.051000074 0.088302314 0.01514591
-0.103320114 0.018110704 -0.17086352 0.0696901 -0.02584096 0.062320996 0.04294373 -0.01603518
-0.04192921 -0.037771538 -0.018958783 -0.045233633 -0.022804933 -0.036642566 -0.016066333 -0.053397074
-0.045271117 0.033805985 0.026165832 -0.12535352 -0.025961872 -0.062418383 -0.05115891 0.021540761
-0.08693222 -0.13359909 0.006348485 0.058153022 -0.19899666 -0.073616505 0.0022843736 0.059489775
-0.056036677 0.03830536 -0.124423094 0.043815337 -0.0019320123 0.08920239 -0.022566497 -0.04572145
00000000: 53d7 11bd 4875 99bc f90e 5bbd f3e9 9cbd
00000010: c67f 6fbc 897a 293d 5bdd 1abd 5962 9bbd
00000020: 4fcd 0c3e ffe9 143d da17 58bd a607 16be
00000030: 0c59 f9ba 8ad8 6abd 1a80 983c ff7b a8bb
00000040: 04ec 933d d5af 5bbe caf7 923d 9a8c 203d
00000050: 0795 7f3c 74e5 50bd d8d7 b43d 8d26 783c
00000060: 7f99 d3bd e65c 943c d9f6 2ebe afb9 8e3d
00000070: 6cb0 d3bc 4d44 7f3d c4e5 2f3d 365c 83bc
00000080: f7bd 2bbd 54b6 1abd 734f 9bbc e746 39bd
00000090: 69d1 babc 8416 16bd 8b9d 83bc e4b6 5abd
000000a0: 356e 39bd 2578 0a3d ba59 d63c ac5c 00be
000000b0: fead d4bc 6baa 7fbd 018c 51bd 4076 b03c
000000c0: 8509 b2bd 33ce 08be f406 d03b dd31 6e3d
000000d0: c8c5 4bbe 40c4 96bd 6eb5 153b 8dab 733d
000000e0: b786 65bd 15e6 1c3d 89d1 febd b677 333d
000000f0: 933b fdba beaf b63d 60dd b8bc 6a46 3bbd

bn1_gamma f4 [64]
1.0373912 1.1306956 0.98770016 1.0335963 1.1077737 1.015242 0.9031038 0.9215598
0.841229 1.0013108 1.116229 0.9981743 0.889868 0.99171686 1.0961422 0.7938266
0.928096 0.939515 0.96852493 0.92569244 1.076835 0.91291606 0.98848695 1.0443474
1.0635226 0.99041927 0.8997747 1.0072954 1.1290277 0.95106536 1.0424755 1.0389847
0.9828052 1.0769118 1.0987408 0.8884707 1.0480981 0.9510871 1.0330608 1.1012752
1.0246612 0.9915654 0.91753316 0.96331 0.8871978 0.9765773 0.97081757 1.0299432
0.916468 0.80024785 1.1105853 1.0822636 1.0037669 0.86256856 1.0033158 1.0795671
0.9574104 1.0648003 0.8951911 1.1241926 1.0017982 0.8609823 1.0515945 0.9566015
00000000: 3cc9 843f a2ba 903f ebd9 7c3f e24c 843f
00000010: 87cb 8d3f 73f3 813f d031 673f 58eb 6b3f
00000020: c95a 573f f42a 803f 98e0 8e3f 5a88 7f3f
00000030: 64ce 633f 28e1 7d3f 634e 8c3f 3838 4b3f
00000040: b397 6d3f 0e84 703f 40f1 773f 2efa 6c3f
00000050: bbd5 893f deb4 693f 7b0d 7d3f 2dad 853f
00000060: 8221 883f 1e8c 7d3f a257 663f 0eef 803f
00000070: fb83 903f 0579 733f d66f 853f 73fd 843f
00000080: 1f99 7b3f 3fd8 893f 8aa3 8c3f d172 633f
00000090: 1428 863f 727a 733f 563b 843f 96f6 8c3f
000000a0: 1928 833f 3bd7 7d3f 74e3 6a3f 7c9b 763f
000000b0: 651f 633f f800 7a3f 8087 783f 2ed5 833f
000000c0: a69d 6a3f 0bdd 4c3f a927 8e3f 9d87 8a3f
000000d0: 6f7b 803f 4bd1 5c3f a76c 803f 412f 8a3f
000000e0: d918 753f 604b 883f 3e2b 653f 8be5 8f3f
000000f0: ec3a 803f 5669 5c3f a69a 863f d6e3 743f

bn1_beta f4 [64]
0.27714857 -0.069627106 -0.010206116 0.030771056 0.091003135 0.1204448 -0.16047734 -0.052515484
-0.09351587 0.06533414 0.06090752 0.14713363 0.13275257 0.05441178 0.04511983 0.092038445
0.02969556 0.122095995 0.019907223 0.09190978 0.059180364 0.121499814 0.0070304223 0.26107192
0.115396515 0.026403343 0.10397075 -0.012823978 0.11767907 0.04535045 0.14334302 -0.015278482
0.09135441 0.1453225 0.16990794 0.121509 0.23274319 0.06747523 -0.004137283 0.15152025
0.0018030874 0.08337453 0.028911594 0.10897442 0.038244415 0.106409945 0.10298674 0.08308381
0.04150204 -0.12690942 0.08928338 0.20654207 -0.13996588 -0.1120374 0.20093545 0.11002004
0.16402474 0.11916053 0.13064514 0.006646209 -0.07848773 0.09987306 -0.054666847 -0.047759928
00000000: 6be6 8d3e a898 8ebd 8e37 27bc 9513 fc3c
00000010: da5f ba3d c3ab f63d 2c54 24be 7a1a 57bd
00000020: 4085 bfbd e8cd 853d 2a7a 793d 33aa 163e
00000030: 4af0 073e e3de 5e3d 92cf 383d a77e bc3d
00000040: 1a44 f33c 770d fa3d 7914 a33c 323b bc3d
00000050: 1c67 723d e5d4 f83d 755f e63b 38ab 853e
00000060: 0255 ec3d d34b d83c 9eee d43d aa1b 52bc
00000070: b901 f13d 65c1 393d 83c8 123e 9952 7abc
00000080: 0518 bb3d 6ccf 143e 59fc 2d3e b6d9 f83d
00000090: 3b54 6e3e 7430 8a3d 0c92 87bb 2028 1b3e
000000a0: 9355 ec3a 44c0 aa3d 02d8 ec3c fb2d df3d
000000b0: 2da6 1c3d 75ed d93d b6ea d23d d827 aa3d
000000c0: 0bfe 293d 8bf4 01be 34da b63d c47f 533e
000000d0: 3753 0fbe dd73 e5bd 06c2 4d3e 3052 e13d
000000e0: 1af6 273e 700a f43d d7c7 053e 71c8 d93b
000000f0: 2dbe a0bd 3f8a cc3d 58ea 5fbd ea9f 43bd

bn1_mean f4 [64]
5.144274 1.7555412 0.6280045 0.66484463 0.65532756 1.0590999 0.32678804 0.47011423
6.9085135 0.8837309 0.7516866 2.1485486 1.0740232 0.425984 0.92306614 0.51705873
0.8388047 2.293739 0.45874372 0.5324444 0.68829376 1.0908533 0.732442 0.96564513
0.67606914 0.4771034 2.0465717 2.9616628 0.67596114 0.52676153 1.0534432 0.8309806
2.906509 1.1630504 0.96986115 0.96032226 1.7125622 3.4051583 0.42257684 1.6668901
0.40594795 1.4736658 0.3728571 0.965634 1.7827878 2.9546092 1.0813105 2.4836428
2.394218 2.583472e-07 0.89537215 1.5442599 1.212436 3.3805256e-06 2.3402035 1.3360407
2.0187647 0.33179444 1.3610501 0.54055643 0.35797867 9.547687 0.94065875 0.29169646
00000000: e59d a440 93b5 e03f e7c4 203f 4233 2a3f
00000010: 8cc3 273f 9690 873f c350 a73e d0b2 f03e
00000020: 8b12 dd40 303c 623f 886e 403f d281 0940
00000030: 9879 893f 931a da3e 104e 6c3f f65d 043f
00000040: e8bb 563f 9fcc 1240 75e0 ea3e 474e 083f
00000050: 0534 303f 15a1 8b3f 5281 3b3f 8534 773f
00000060: de12 2d3f e646 f43e 08fb 0240 e28b 3d40
00000070: ca0b 2d3f d8d9 063f 3ad7 863f 25bb 543f
00000080: 3e04 3a40 d6de 943f d248 783f aed7 753f
00000090: 3d35 db3f 1dee 5940 fe5b d83e a85c d53f
000000a0: 69d8 cf3e 15a1 bc3f 20e7 be3e ca33 773f
000000b0: 6432 e43f 5118 3d40 6268 8a3f 01f4 1e40
000000c0: de3a 1940 f8b2 8a34 1c37 653f 4faa c53f
000000d0: 1a31 9b3f fddc 6236 e5c5 1540 6203 ab3f
000000e0: 7133 0140 f6e0 a93e e436 ae3f e861 0a3f
000000f0: fb48 b73e 53c3 1841 03cf 703f 3d59 953e

bn1_var f4 [64]
15.396542 7.7550955 2.3314335 3.6492057 2.5244172 5.1137457 0.96915114 2.5189762
10.859106 3.2645555 3.8042333 8.328873 4.0053496 1.2155634 3.1568344 1.5085353
3.0365255 7.074783 1.5428115 1.6065608 3.0524182 4.861416 2.418714 3.2670531
2.5552227 2.3717895 6.6489177 12.062423 3.1484764 1.7000988 4.035024 3.2689607
9.014299 4.6100216 4.9278345 4.886366 6.8301263 10.995988 1.6087542 8.7232685
1.4245188 6.1429048 1.5159365 3.85456 6.274469 10.273146 3.9594254 11.856333
8.997269 2.408181e-08 3.665835 6.551295 4.795891 2.4259377e-06 7.7789774 4.2903175
7.368585 0.99845904 4.434464 2.0451472 1.22503 16.54355 4.1869516 1.234909
00000000: 3c58 7641 be29 f840 3536 1540 968c 6940
00000010: 0d90 2140 cea3 a340 4a1a 783f e836 2140
00000020: e6be 2d41 7aee 5040 8f78 7340 1043 0541
00000030: d32b 8040 9597 9b3f 9309 4a40 af17 c13f
00000040: 6f56 4240 9f64 e240 d97a c53f c9a3 cd3f
00000050: d25a 4340 b890 9b40 36cc 1a40 6617 5140
00000060: c588 2340 66cb 1740 efc3 d440 afff 4041
00000070: a380 4940 d69c d93f eb1e 8140 a736 5140
00000080: 923a 1041 4c85 9340 d2b0 9d40 1c5d 9c40
00000090: 6590 da40 91ef 2f41 a8eb cd3f 8292 0b41
000000a0: a256 b63f ad92 c440 350a c23f 1cb1 7640
000000b0: 73c8 c840 ce5e 2441 3a67 7d40 8ab3 3d41
000000c0: d0f4 0f41 76dc ce32 0a9d 6a40 35a4 d140
000000d0: f077 9940 4bcd 2236 62ed f840 484a 8940
000000e0: 73cb eb40 039b 7f3f 21e7 8d40 b1e3 0240
000000f0: c8cd 9c3f 3159 8441 82fb 8540 8011 9e3f

dense2_kernel (column-major) f4 [64, 64]
0.028178878 -0.3976268 -0.16531289 -0.09247896 0.034882322 -0.07726559 0.08598157 0.19355142
0.061939668 -0.06347469 -0.0215945 0.15252905 -0.008377955 -0.7138037 -0.26517573 -0.094165094
-0.12516336 0.11636292 0.17489311 0.08973413 -0.23246586 0.4813404 -0.24259223 0.0051388466
0.29553246 -0.06344327 -0.37131014 0.1267623 -0.2669244 0.034244392 0.11588373 -0.020807829
0.030759614 -0.016357303 0.13586693 -0.24376293 -0.058908593 0.10087359 -0.04879873 0.16388504
0.18170524 0.11648464 -0.14222188 -0.07387109 -0.24839292 -0.068622604 0.2080919 -0.34112298
0.15770712 -0.027631596 0.17458533 0.16884296 0.019399663 -0.22690201 -0.034723427 -0.069577806
0.3584778 -0.10946035 0.15198965 0.15284899 0.047780287 -0.42393613 0.029042158 0.1319411
-0.18978128 0.025048777 0.043328695 -0.23319837 0.14486417 -0.09313048 -0.008756349 0.10431438
0.056949917 -0.036456756 -0.03383767 -0.04674411 0.107350245 -0.044291057 0.29168582 -0.099475294
0.16095603 -0.15772945 -0.117883414 0.108698994 0.14291766 0.24296135 0.20312361 0.06572632
0.36976 -0.30068782 -0.08184219 -0.083903864 -0.11122512 -0.22513632 0.09711635 -0.3928998
0.25713715 -0.24299562 -0.1052773 -0.34051993 -0.27067742 0.09061865 -0.39590502 -0.14886445
0.100155555 0.09425528 -0.25769225 0.15249334 0.06883726 -0.10796595 0.32671076 -0.21928334
-0.03209013 0.18118833 0.17928414 -0.03912147 0.16251044 -0.069621265 -0.05696974 -0.36517033
0.04900244 0.12503165 -0.31234145 0.1491299 0.42280817 -0.08663675 0.17317252 -0.56648254
-0.08154199 -0.24196734 0.08693493 0.10489148 -0.25469896 0.30454168 0.014447854 0.21778372
0.09689952 -0.05509904 -0.22650515 -0.07781961 0.16209231 -0.1995459 -0.57542187 -0.08741881
-0.3715958 0.025228543 0.0946784 0.16907255 -0.06693813 0.018677318 -0.29516456 -0.029713605
-0.43503085 0.16283351 0.13429594 0.027752575 -0.17640537 0.29025543 -0.12794101 -0.026479218
-0.387617 0.16568443 0.024777804 -0.1868044 0.22501974 0.028420398 0.15481265 0.2660516
0.21404053 0.004687243 -0.1693156 -0.20162858 -0.3410057 0.117322594 -0.1826577 -0.102722876
0.12689023 -0.42574257 0.07512118 0.24432687 0.026437933 -0.1267132 0.004694575 -0.06507733
0.2236086 -0.06198336 0.15098794 0.11301113 -0.35740778 -0.35621122 -0.0495731 0.10928766
0.03618233 -0.076124534 -0.050764225 -0.3518702 -0.12710105 0.045730107 -0.0050710826 -0.0156282
-0.0048933113 0.04522561 -0.13060723 -0.07504877 0.096162975 0.029423349 -0.2312253 0.003944855
-0.10601623 -0.40229964 0.12964119 0.038169682 -0.41026106 -0.41291773 0.034940172 -0.35491353
-0.23428728 0.05255376 -0.0059254137 -0.27876502 0.21507442 0.03305147 -0.15916847 -0.010841746
0.03158223 0.009037022 -0.5263299 0.09745936 -0.5779325 -0.017091837 -0.0722744 -0.363242
-0.026163282 -0.18488045 0.29996693 0.051541857 -0.22648907 0.32393384 -0.1966588 0.030862994
-0.17710121 -0.35503098 -0.09715235 -0.06604061 -0.19324511 0.09124942 0.18203107 -0.045930132
-0.2885725 -0.16750711 -0.14557575 -0.28556076 -0.073426455 0.105180554 -0.28316376 0.20571494
00000000: 64d7 e63c bd95 cbbe c847 29be 9c65 bdbd
00000010: c4e0 0e3d 6c3d 9ebd 1b17 b03d 5832 463e
00000020: 73b4 7d3d 05ff 81bd f3e6 b0bc 9330 1c3e
00000030: b143 09bc d7bb 36bf 1dc5 87be a1d9 c0bd
00000040: d32a 00be af4f ee3d 2e17 333e 87c6 b73d
00000050: 880b 6ebe 4072 f63e 196a 78be c563 a83b
00000060: 0850 973e 8cee 81bd 5d1c bebe facd 013e
00000070: 51aa 88be d943 0c3d 7354 ed3d 2e75 aabc
00000080: 96fb fb3c c0ff 85bc b320 0b3e fd9c 79be
00000090: 234a 71bd d096 ce3d 2de1 47bd 7bd1 273e
000000a0: f010 3a3e 808f ee3d 9da2 11be ba49 97bd
000000b0: b75a 7ebe 028a 8cbd 0b16 553e aca7 aebe
000000c0: fa7d 213e a85b e2bc 7fc6 323e 2be5 2c3e
000000d0: 0bec 9e3c 0059 68be 273a 0ebd cf7e 8ebd
000000e0: 678a b73e bf2c e0bd 2da3 1b3e 7284 1c3e
000000f0: 43b5 433d 280e d9be d2e9 ed3c 911b 073e
00000100: 0656 42be 1833 cd3c 6e79 313d 8ecb 6ebe
00000110: 4657 143e 31bb bebd ca76 0fbc c7a2 d53d
00000120: 5144 693d ae53 15bd 5e99 0abd c076 3fbd
00000130: 72da db3d 8a6a 35bd d857 953e b4b9 cbbd
00000140: a8d1 243e d483 21be dc6c f1bd 949d de3d
00000150: 0259 123e dcca 783e a3ff 4f3e 859b 863d
00000160: 2f51 bd3e c1f3 99be e19c a7bd cad5 abbd
00000170: ffc9 e3bd 238a 66be f0e4 c63d 2a2a c9be
00000180: 7ba7 833e d8d3 78be a09b d7bd a158 aebe
00000190: 3b96 8abe 4596 b93d 10b4 cabe ec6f 18be
000001a0: 5b1e cd3d ea08 c13d 3df0 83be 3727 1c3e
000001b0: 8dfa 8c3d 411d ddbd a246 a73e d08b 60be
000001c0: f170 03bd 6f89 393e 4396 373e d63d 20bd
000001d0: 2369 263e 9895 8ebd 1a59 69bd 9bf7 babe
000001e0: c8b6 483d 4c08 003e 38eb 9fbe 82b5 183e
000001f0: 507a d83e 9c6e b1bd 2354 313e 0005 11bf
00000200: 7dff a6bd 49c6 77be f10a b23d 58d1 d63d
00000210: e767 82be e3ec 9b3e b1b6 6c3c b202 5f3e
00000220: 4173 c63d 88af 61bd f7f0 67be e35f 9fbd
00000230: 87fb 253e c355 4cbe d94e 13bf a208 b3bd
00000240: ce41 bebe 17ac ce3c c0e6 c13d 5b21 2d3e
00000250: dc16 89bd 2d01 993c cf1f 97be f269 f3bc
00000260: 5dbc debe d4bd 263e e084 093e 5e59 e33c
00000270: 9ca3 34be 5c9c 943e f802 03be f2ea d8bc
00000280: bc75 c6be 2ea9 293e d2fa ca3c a749 3fbe
00000290: 936b 663e e5d1 e83c 3587 1e3e ea37 883e
000002a0: 712d 5b3e 7297 993b 1261 2dbe b977 4ebe
000002b0: 4d98 aebe d446 f03d 9f0a 3bbe 5f60 d2bd
000002c0: 83ef 013e eefa d9be 22d9 993d d330 7a3e
000002d0: 5d94 d83c 1bc1 01be f3d4 993b 4347 85bd
000002e0: a7f9 643e 44e2 7dbd 959c 1a3e 6172 e73d
000002f0: 27fe b6be 5161 b6be 2a0d 4bbd 35d2 df3d
00000300: ec33 143d 2ee7 9bbd 26ee 4fbd 5528 b4be
00000310: c726 02be 7e4f 3b3d 532b a6bb b606 80bc
00000320: 1258 a0bb 7d3e 393d e7bd 05be 2bb3 99bd
00000330: 18f1 c43d 3c09 f13c 53c6 6cbe d843 813b
00000340: 0a1f d9bd 38fa cdbe a9c0 043e d057 1c3d
00000350: bd0d d2be f469 d3be 6d1d 0f3d 3ab7 b5be
00000360: 01e9 6fbe 9d42 573d f929 c2bb 4aba 8ebe
00000370: 783c 5c3e fa60 073d 0ffd 22be 94a1 31bc
00000380: 5e5c 013d 0410 143c 8ebd 06bf c698 c73d
00000390: 62f3 13bf 2e04 8cbc 9a04 94bd dbfa b9be
000003a0: 6154 d6bc 4d51 3dbe 4495 993e 8e1d 533d
000003b0: c0ec 67be a8da a53e ed60 49be 64d4 fc3c
000003c0: 055a 35be 9fc6 b5be d0f7 c6bd 4d40 87bd
000003d0: 0ce2 45be fae0 ba3d 5a66 3a3e 3c21 3cbd
000003e0: c6bf 93be fc86 2bbe cf11 15be 0535 92be
000003f0: 9c60 96bd e768 d73d d7fa 90be f0a6 523e

dense2_bias f4 [64]
0.21336913 0.39670587 0.25583234 0.2855128 0.4303175 0.068318896 0.34062362 0.13427202
0.30356455 0.16635789 0.30359834 0.28139117 0.16780475 0.33329657 0.27925026 0.079304695
0.34986386 0.10954095 0.47791928 -0.11725749 0.36332983 0.28532317 0.3698033 0.23700693
0.31641355 0.24349792 0.40068612 0.054815773 0.2205347 0.22225454 0.40382922 0.38257
0.25331518 0.15080534 0.11457701 0.34074348 0.21855327 0.13210547 0.35417217 0.32884374
0.30007476 0.09958173 0.28689045 0.49508247 0.16196835 0.18254565 0.24861236 0.025195966
0.24928148 0.43455824 0.3275159 0.5026702 0.27562302 0.2804471 -0.014427956 0.47772157
0.05401817 0.19108373 0.3118626 0.38562444 0.30747503 0.27409962 0.21942419 0.33203444
00000000: 707d 5a3e 081d cb3e 75fc 823e bc2e 923e
00000010: 9352 dc3e c7ea 8b3d 3866 ae3e 9b7e 093e
00000020: d06c 9b3e b959 2a3e 3e71 9b3e 8112 903e
00000030: 02d5 2b3e d9a5 aa3e e4f9 8e3e 806a a23d
00000040: 5b21 b33e 0157 e03d d6b1 f43e b224 f0bd
00000050: 5e06 ba3e e115 923e dc56 bd3e f2b1 723e
00000060: f500 a23e 8557 793e bb26 cd3e 8186 603d
00000070: d9d3 613e b296 633e b4c2 ce3e 37e0 c33e
00000080: 87b2 813e b76c 1a3e 5aa7 ea3d ee75 ae3e
00000090: 6ecc 5f3e a846 073e 0e56 b53e 355e a83e
000000a0: 66a3 993e 82f1 cb3d 4ee3 923e 737b fd3e
000000b0: 08db 253e 3fed 3a3e 3d94 7e3e c567 ce3c
000000c0: a543 7f3e 6b7e de3e 2ab0 a73e ffae 003f
000000d0: 761e 8d3e c396 8f3e 3c63 6cbc ec97 f43e
000000e0: 2842 5d3d 74ab 433e 74ac 9f3e 9170 c53e
000000f0: 5e6d 9d3e c956 8c3e bcb0 603e 6b00 aa3e

bn2_gamma f4 [64]
1.291672 1.3526293 1.2418014 1.2819378 1.2616595 1.1469706 1.1739446 1.2006124
1.3373835 1.2940027 1.0546519 1.407645 1.1113636 1.2387272 1.2928163 1.2384276
1.4248694 1.1729288 1.424654 1.4069242 1.3380154 1.3172743 1.4272617 1.2599472
1.2677325 1.4450943 1.2374015 1.2357882 1.318293 1.2295599 1.2178414 1.1523634
1.3472363 1.3172364 1.332231 1.4510959 1.149152 1.2461647 1.2522321 1.2931949
1.1072096 1.3310972 1.4261847 1.2729563 1.1088516 1.2058465 1.0719637 1.1592826
1.3228109 1.199929 1.3308349 1.3646371 1.1947503 1.2427843 1.280368 1.2900337
1.210031 1.064223 1.1783527 1.21508 1.4620088 1.2427354 1.3281592 1.364378
00000000: 8255 a53f f522 ad3f 59f3 9e3f 8a16 a43f
00000010: 0f7e a13f efcf 923f d143 963f abad 993f
00000020: 622f ab3f e1a1 a53f d5fe 863f b62d b43f
00000030: 2a41 8e3f 9d8e 9e3f 017b a53f cc84 9e3f
00000040: 1f62 b63f 8822 963f 105b b63f 1816 b43f
00000050: 1744 ab3f 729c a83f 83b0 b63f f345 a13f
00000060: 0f45 a23f daf8 b83f 2c63 9e3f 4f2e 9e3f
00000070: d3bd a83f 3862 9d3f 3ae2 9b3f a580 933f
00000080: 3d72 ac3f 349b a83f 8c86 aa3f 83bd b93f
00000090: 6a17 933f 5382 9f3f 2449 a03f 6987 a53f
000000a0: 0bb9 8d3f 6561 aa3f 388d b63f 3bf0 a23f
000000b0: d9ee 8d3f 2e59 9a3f 1b36 893f 5f63 943f
000000c0: de51 a93f 4697 993f cc58 aa3f 6eac ae3f
000000d0: 94ed 983f 8e13 9f3f 19e3 a33f d31f a53f
000000e0: 4ce2 9a3f 7638 883f 43d4 963f be87 9b3f
000000f0: 1b23 bb3f f411 9f3f 1f01 aa3f f0a3 ae3f

bn2_beta f4 [64]
0.05860237 0.085304976 -0.078026064 0.16023168 0.014541484 0.00509635 -0.07255191 -0.03144615
0.17064157 -0.041319855 -0.008962076 0.10743745 0.18694992 -0.028029462 -0.13555796 0.05395911
-0.052231193 -0.109140106 0.05000612 -0.16119047 0.054005135 -0.036105454 0.022932434 0.09083909
-0.12417265 0.012747894 -0.1181295 0.16929032 0.0655105 0.06303547 0.1241233 -0.003257595
-0.052810583 0.13419087 0.086200505 0.14976405 -0.06164384 -0.14785285 0.09051922 -0.036235243
0.20664786 -0.046311926 0.18202773 0.21065232 -0.039956454 0.065346174 0.042047348 0.17895362
0.034738604 0.06784854 0.011855195 0.094395004 0.041357435 -0.07370071 -0.030736214 0.035978436
-0.013074024 0.06843712 -0.059127897 -0.07177089 -0.14211833 -0.02950259 0.00896652 0.0064769867
00000000: 0a09 703d 60b4 ae3d 21cc 9fbd c613 243e
00000010: 683f 6e3c 48ff a63b 1996 94bd aecd 00bd
00000020: aabc 2e3e 023f 29bd acd5 12bc 2a08 dc3d
00000030: cd6f 3f3e 0b9e e5bc b5cf 0abe 3a04 5d3d
00000040: 60f0 55bd d984 dfbd 38d3 4c3d 1d0f 25be
00000050: 7d34 5d3d 50e3 13bd cddc bb3c d809 ba3d
00000060: 3b4e febd 8bdc 503c e1ed f1bd 715a 2d3e
00000070: 5e2a 863d be18 813d 5b34 fe3d 607d 55bb
00000080: e94f 58bd 5569 093e e489 b03d bf5b 193e
00000090: 407e 7cbd bd66 17be 2462 b93d 686b 14bd
000000a0: 7f9b 533e 93b1 3dbd 7a65 3a3e 3eb5 573e
000000b0: 61a9 23bd 37d4 853d d739 2c3d 9e3f 373e
000000c0: 114a 0e3d 2df4 8a3d 4b3c 423c 2b52 c13d
000000d0: 6a66 293d 66f0 96bd 83ca fbbc 205e 133d
000000e0: 6e34 56bc c328 8c3d 1830 72bd 9efc 92bd
000000f0: 7887 11be 6aaf f1bc 50e8 123c e73c d43b

bn2_mean f4 [64]
1.2526108 1.2161453 1.2827963 1.3088993 1.4328761 0.9253642 1.3358444 1.4696789
1.4207375 1.1540885 1.1522052 1.3399845 1.1224201 1.1296415 1.4423496 1.20548
1.4034492 1.0292948 1.7759476 1.0281053 1.2638831 1.5763253 1.4611624 1.2464837
1.4902515 1.1224406 1.3285826 1.2399423 1.2744629 1.436806 1.4135991 1.3549858
1.4730247 1.4198573 1.4080172 1.5385531 1.2052542 1.289951 1.2333131 1.3897281
1.2663935 1.0595093 1.3377434 1.3722388 1.2197056 0.97186756 1.139851 1.0307615
1.2411274 1.4962602 1.4453399 1.5313476 1.2440959 1.0923014 1.0437464 1.4861425
1.2946256 1.0080553 1.6562877 1.3403534 1.4042515 1.1953318 1.1811914 1.6386065
00000000: 8d55 a03f a6aa 9b3f ab32 a43f 038a a73f
00000010: 7c68 b73f abe4 6c3f f3fc aa3f 701e bc3f
00000020: bada b53f 2cb9 933f 767b 933f 9d84 ab3f
00000030: 76ab 8f3f 1898 903f e99e b83f 2b4d 9a3f
00000040: 39a4 b33f efbf 833f 4052 e33f f498 833f
00000050: ecc6 a13f 07c5 c93f 5f07 bb3f c78c 9f3f
00000060: 90c0 be3f 22ac 8f3f ff0e aa3f 6eb6 9e3f
00000070: 9a21 a33f 42e9 b73f d1f0 b43f 2d70 ad3f
00000080: 138c bc3f e2bd b53f e839 b43f 4fef c43f
00000090: c545 9a3f 1d1d a53f 34dd 9d3f 9ce2 b13f
000000a0: 2f19 a23f 009e 873f 2d3b ab3f 85a5 af3f
000000b0: 501f 9c3f 50cc 783f a3e6 913f feef 833f
000000c0: 43dd 9e3f 7485 bf3f e600 b93f 3303 c43f
000000d0: 893e 9f3f 88d0 8b3f 7b99 853f eb39 be3f
000000e0: 4bb6 a53f f507 813f 3c01 d43f b390 ab3f
000000f0: 83be b33f a200 993f 4831 973f dcbd d13f

bn2_var f4 [64]
3.4459796 2.933597 2.805579 3.0400643 3.498698 2.3746796 2.9952865 5.271838
3.6971028 2.359982 2.7338278 3.669483 2.0646195 2.7263699 4.63486 3.3897972
4.0593123 2.5419548 4.5881624 2.5002341 2.3550994 4.51966 4.0944557 4.083853
4.9635153 2.3158975 2.598966 3.7729788 3.723439 4.021456 2.7791076 3.2854972
4.5835037 5.0254436 3.22369 5.2244263 2.212578 3.420473 2.40599 3.0265715
3.0979261 2.1807277 3.293407 3.417279 3.6430593 2.1653652 2.9804146 2.6831305
2.808271 4.444253 2.6568844 3.7144482 2.4011827 2.1400967 2.1886387 3.4165063
3.7126613 2.3198335 4.762877 2.8224301 4.0168533 3.4957378 3.7218661 5.607388
00000000: ee8a 5c40 0ec0 3b40 9b8e 3340 6a90 4240
00000010: abea 5f40 c0fa 1740 c6b2 3f40 e6b2 a840
00000020: 559d 6c40 f209 1740 09f7 2e40 cfd8 6a40
00000030: ba22 0440 d87c 2e40 c650 9440 70f2 5840
00000040: e3e5 8140 63af 2240 3ad2 9240 d603 2040
00000050: f3b9 1640 0ea1 9040 c805 8340 ecae 8240
00000060: 1ed5 9e40 aa37 1440 7555 2640 7c78 7140
00000070: d34c 6e40 c4af 8040 e6dc 3140 9645 5240
00000080: 10ac 9240 6fd0 a040 f050 4e40 802e a740
00000090: e19a 0d40 08e9 5a40 bdfb 1940 59b3 4140
000000a0: 6c44 4640 0b91 0b40 2ec7 5240 b3b4 5a40
000000b0: e227 6940 5895 0a40 1dbf 3e40 69b8 2b40
000000c0: b6ba 3340 5237 8e40 650a 2a40 85b9 6d40
000000d0: faac 1940 58f7 0840 a812 0c40 0aa8 5a40
000000e0: 3e9c 6d40 2778 1440 7d69 9840 b2a2 3440
000000f0: 108a 8040 2bba 5f40 0e33 6e40 b96f b340

output_kernel (column-major) f4 [10, 64]
-0.32023343 -0.08983159 0.30574843 -0.06798097 -0.29414308 0.34148678 0.3254763 -0.28063282
-0.11790465 -0.18582553 0.330139 0.21412905 0.3013163 -0.2747898 -0.12629236 -0.16886881
-0.12346457 0.39939973 -0.17049886 -0.1824397 0.29356715 -0.29277033 0.3989733 -0.16011658
-0.23166685 -0.1525945 0.33889878 -0.19043233 0.37765816 -0.17230259 -0.1928257 0.26508164
-0.36691 -0.22510731 0.12375276 0.3114984 -0.14886728 -0.12978053 0.37111717 0.3084627
0.4308164 -0.17717487 0.19270751 0.009960286 -0.22102928 -0.16887617 0.36652592 0.05840658
-0.20824057 -0.23013489 -0.14872894 -0.17970796 0.32687676 -0.17194374 -0.015381374 0.026648747
-0.016430615 -0.1556581 -0.22324409 0.03309538 -0.17863095 0.29356632 -0.21729876 0.119395465
0.34762436 -0.26245242 -0.2594367 -0.120026596 0.35237527 -0.19207703 -0.2529953 -0.13080154
-0.21010424 0.30358022 -0.33050343 0.20370457 -0.14677392 0.31838918 -0.26783335 -0.3026766
-0.27776578 0.31321245 -0.2133355 -0.19706048 -0.06547592 0.30827728 0.36510363 -0.19787812
0.14680703 -0.2433281 0.19189268 -0.35817632 0.20128147 -0.002326655 -0.20951231 -0.07612447
-0.080708645 0.14986365 0.3276906 -0.29564285 0.06898055 -0.16407917 -0.24673526 0.15814854
-0.22691093 -0.071909145 0.008112549 0.26492357 -0.30358866 -0.3325028 -0.34513786 0.03261128
-0.16542642 -0.06371033 0.23510984 -0.3512055 -0.20858052 0.23327242 -0.17790061 0.20459546
0.27559268 -0.2534347 0.2017821 -0.22215 0.24921776 -0.24531157 -0.358912 -0.30996254
0.26131144 0.14874673 0.4736802 0.1408752 0.24655563 -0.17166331 -0.1931488 0.120202996
-0.14028423 -0.2024396 -0.1786029 -0.2176337 0.4141391 -0.15354969 -0.26040798 -0.2138324
0.20611577 -0.15542419 -0.20393506 0.32139495 -0.15342987 -0.22270335 -0.2116683 -0.02313542
-0.26565474 -0.048123267 0.04826195 -0.14894982 -0.13076828 0.29775572 0.038622677 0.2624866
-0.01015574 -0.43254438 0.099499226 -0.33868137 0.20964928 -0.16778198 0.08228314 -0.39206558
-0.30724445 -0.38471696 -0.026432004 -0.077742375 -0.020250304 0.0038298692 -0.23498176 0.47223607
0.120038375 0.3495941 -0.11102404 -0.067173705 0.18125601 -0.25336304 -0.22504596 0.2909496
-0.34485444 0.24860615 0.11913609 -0.3516122 0.1882104 -0.36855736 -0.22531158 -0.22834697
0.3150694 0.43274978 -0.15243413 -0.3789942 -0.1514036 -0.11495973 0.3697741 -0.23834436
0.29733953 0.3258704 -0.22253814 -0.17882024 0.20066035 -0.11847261 -0.22045289 -0.07300746
0.3623484 -0.1348444 -0.09794693 -0.3732245 -0.33040377 -0.26800352 0.26374713 -0.08904664
0.23152484 -0.36289757 -0.21452719 0.22779958 0.4455163 -0.2504172 0.3630753 -0.14375621
0.22105482 -0.13164955 0.38739184 -0.10383313 -0.16968234 -0.012890179 -0.15747635 0.10477967
-0.1308214 -0.2478329 0.35277754 -0.11986599 -0.12696601 0.33642185 -0.23668538 0.26525125
-0.22359735 0.09852595 -0.141037 -0.045379642 0.4640476 -0.22072804 0.41140726 -0.17845662
-0.05174918 -0.22032398 -0.43377498 -0.0040969225 0.32691443 0.3825733 -0.26513988 0.18888998
00000000: a3f5 a3be a0f9 b7bd 0f8b 9c3e 9b39 8bbd
00000010: ec99 96be 5bd7 ae3e d4a4 a63e 1baf 8fbe
00000020: fe77 f1bd 0c49 3ebe fb07 a93e a544 5b3e
00000030: 2146 9a3e 40b1 8cbe c952 01be f2eb 2cbe
00000040: feda fcbd 1f7e cc3e 4197 2ebe 79d1 3abe
00000050: 6f4e 963e fee5 95be 3a46 cc3e 9af5 23be
00000060: 133a 6dbe bc41 1cbe 2484 ad3e b100 43be
00000070: 695c c13e 1770 30be 1a74 45be c8b8 873e
00000080: a1db bbbe 8882 66be 1672 fd3d b87c 9f3e
00000090: aa70 18be 30e5 04be 1203 be3e d3ee 9d3e
000000a0: f893 dc3e 546d 35be 1e55 453e 7830 233c
000000b0: 8055 62be e0ed 2cbe 49a9 bb3e bd3b 6f3d
000000c0: 043d 55be 7ba8 6bbe 664c 18be 5d05 38be
000000d0: 645c a73e 0512 30be 2902 7cbc 794e da3c
000000e0: 7f99 86bc d664 1fbe 199a 64be 058f 073d
000000f0: 08eb 36be 534e 963e 9183 5ebe 9c85 f43d
00000100: d2fb b13e 2a60 86be e3d4 84be 81d0 f5bd
00000110: 886a b43e d7af 44be 9a88 81be d7f0 05be
00000120: 9125 57be de6e 9b3e bf37 a9be ee97 503e
00000130: e74b 16be e803 a33e 7421 89be 6df8 9abe
00000140: 5137 8ebe 625d a03e 9f74 5abe 39ca 49be
00000150: 3d18 86bd 85d6 9d3e ddee ba3e 90a0 4abe
00000160: 9554 163e 002b 79be 847f 443e e362 b7be
00000170: bb1c 4e3e cb7a 18bb 658a 56be 25e7 9bbd
00000180: 934a a5bd db75 193e 10c7 a73e 805e 97be
00000190: ad45 8d3d 5f04 28be 2ba8 7cbe b1f1 213e
000001a0: 575b 68be 1a45 93bd 7fea 043c 10a4 873e
000001b0: f96f 9bbe cf3d aabe e9b5 b0be 6893 053d
000001c0: 8b65 29be 907a 82bd a2c0 703e 35d1 b3be
000001d0: 2296 55be f7de 6e3e 942b 36be 7981 513e
000001e0: 7c1a 8d3e 31c2 81be f89f 4e3e 4a7b 63be
000001f0: f132 7f3e f532 7bbe 50c3 b7be 69b3 9ebe
00000200: 9dca 853e 1051 183e 3686 f23e 9741 103e
00000210: 1479 7c3e 82c8 2fbe cdc8 45be fd2c f63d
00000220: aba6 0fbe 544c 4fbe aee3 36be 5edb 5ebe
00000230: 0a0a d43e 213c 1dbe 3254 85be e1f6 5abe
00000240: 0310 533e 8527 1fbe 5ad4 50be e18d a43e
00000250: b81c 1dbe 590c 64be 93bf 58be 7e86 bdbc
00000260: e603 88be e71c 45bd 53ae 453d 4d86 18be
00000270: 1fe8 05be 7073 983e d032 1e3d a564 863e
00000280: 4364 26bc 7576 ddbe 40c6 cb3d a567 adbe
00000290: 4dae 563e 0acf 2bbe 1084 a83d d2bc c8be
000002a0: 254f 9dbe 9ff9 c4be ee87 d8bc 6537 9fbd
000002b0: f7e3 a5bc 8bfe 7a3b 0f9f 70be edc8 f13e
000002c0: aed6 f53d fffd b23e 9260 e3bd 5e92 89bd
000002d0: 2d9b 393e cdb8 81be 7372 66be 59f7 943e
000002e0: c390 b0be 9c92 7e3e 9ffd f33d 8406 b4be
000002f0: 3aba 403e 8db3 bcbe 14b8 66be cad3 69be
00000300: c750 a13e 6191 dd3e b117 1cbe 870b c2be
00000310: 8c09 1bbe 0270 ebbd 0853 bd3e 8b10 74be
00000320: e33c 983e 7cd8 a63e 0ae1 63be a71c 37be
00000330: e879 4d3e c5a1 f2bd 67be 61be ef84 95bd
00000340: bb85 b93e a714 0abe 6698 c8bd 4817 bfbe
00000350: af2a a9be c237 89be dd09 873e 165e b6bd
00000360: d914 6d3e b6cd b9be 04ad 5bbe 4b44 693e
00000370: b61a e43e af36 80be 01e5 b93e d434 13be
00000380: 325c 623e 24cf 06be 3958 c63e 77a6 d4bd
00000390: 35c1 2dbe 5431 53bc 7b41 21be b996 d63d
000003a0: 0cf6 05be e8c7 7dbe 429f b43e 4d7c f5bd
000003b0: 6103 02be 7c3f ac3e a75d 72be 03cf 873e
000003c0: b4f6 64be f9c7 c93d 016c 10be 01e0 39bd
000003d0: a697 ed3e 8806 62be f9a3 d23e 55bd 36be
000003e0: f3f6 53bd 9c9c 61be c117 debe 7a3f 86bb
000003f0: 5461 a73e a6e0 c33e 6ac0 87be 606c 413e

output_bias f4 [10]
-0.20561492 -0.031560656 0.056360185 -0.083124876 -0.11396556 0.075278476 -0.07463093 0.03719923
0.15784591 0.112515695
00000000: b88c 52be bf45 01bd f0d9 663d 603d aabd
00000010: c766 e9bd 9a2b 9a3d 1ad8 98bd 385e 183d
00000020: 5ca2 213e a16e e63d
