neural_net/mnist_mlp_weights.npz (npz, 221638 bytes, 6 tensors)

W1 (column-major) f4 [64, 784]
000000 1e b5 7e bd 5b 80 90 bd 00 32 01 3d 17 c8 c9 bd
       -0.062184446 -0.07055732 0.031541824 -0.09852617
000010 f5 3d cb 3d b0 73 ed 3c c9 8d 0c bd 72 eb 33 3d
       0.09923927 0.028985828 -0.034314904 0.04392571
000020 d8 eb ce bb 71 3d 1f 3d 55 23 c0 3d 0a df 71 3d
       -0.006314736 0.038876954 0.09381739 0.059050597
000030 ab 63 bb 39 a3 1d e3 bc 8c 89 36 3d b0 61 5e 3d
       0.00035741678 -0.027724093 0.04456477 0.05429238
000040 55 3e 79 3c 60 b5 4b bd 22 24 c3 bc 88 39 32 bc
       0.015212615 -0.04973352 -0.02382094 -0.010877974
000050 37 71 84 bd 98 8b e2 3a 19 fe e7 3b 58 29 d4 3c
       -0.064669065 0.0017284034 0.0070798513 0.02589862
000060 4c 7f 05 bd 60 cf 8b 3d fb bc 8c 3c af 2c 09 bd
       -0.032592103 0.06826663 0.017179957 -0.03348988
000070 40 1d 0a bd b9 12 c0 bc cb 66 25 bc e3 6c 93 3d
       -0.0337193 -0.023446428 -0.010095309 0.07198503
000080 e3 bf 11 bd 4e f2 3e 3d 78 11 fd bc 05 a8 be 3a
       -0.035583388 0.0466178 -0.030892119 0.0014545923
000090 a7 15 95 ba bf b1 a4 3c 7c fe 17 3a 8d 59 81 3d
       -0.0011374251 0.020104287 0.0005798114 0.063159086
0000a0 dd f0 9d bc f2 93 c3 bd 03 41 e3 3d 7f 31 ba 3d
       -0.019279892 -0.09549703 0.110963844 0.09091472
0000b0 8f 47 94 bb 65 19 ae bd a6 ac 9b bc 66 e4 2a 3d
       -0.004525132 -0.08500937 -0.019003224 0.041721724
0000c0 d7 8e 3e 3d d5 ae e2 3c ea ac 23 3d b3 c0 bc bc
       0.04652294 0.027671257 0.039959826 -0.023041105
0000d0 55 d8 d9 3d de db 2a 3c 6f 81 01 3d e2 64 78 3c
       0.10636965 0.010428397 0.031617578 0.015160771
0000e0 f1 42 0a bc ff 37 40 3d 48 f1 ba bd 9e f4 13 3d
       -0.008438812 0.046928402 -0.09128052 0.036121957
0000f0 fd 81 2f 3d f4 19 77 3c c3 b7 8c bc e1 1a 0b bc
       0.042848576 0.015081871 -0.017177468 -0.008490295
000100 b5 f4 41 bd 50 cd 55 3d 85 ae 9f 3c a6 d2 0b bc
       -0.04735251 0.052197754 0.019492397 -0.008534109
000110 bd 43 53 bd a9 61 f2 3c 15 66 d2 3d 0d 6e 62 3d
       -0.051578272 0.029587584 0.10273377 0.055280734
000120 5a 7b b3 bd d6 4d f8 bc 1c 26 56 3d 0e 97 4e bd
       -0.08763762 -0.030310553 0.052282438 -0.050437026
000130 ae 8d 7b bc 15 de 51 3b 45 83 0d 3c 7c d6 5c 3d
       -0.015353603 0.003202324 0.008637254 0.053915486
000140 d7 92 33 bd 41 c2 a5 3d 2c 51 a4 bd 79 d0 d2 39
       -0.04384121 0.080936916 -0.08023295 0.00040209646
000150 d9 63 a8 bd ce 94 34 bc 05 5f 01 bb 29 6a 16 bd
       -0.082221694 -0.011021806 -0.0019740474 -0.036722336
000160 26 12 a2 3c 47 94 9e bd a9 47 e3 3d 78 b3 47 3d
       0.019784044 -0.077431254 0.110976525 0.04875514
000170 76 63 db 3c b9 ed ac bb b8 ac 11 bd 8a ec 8f 3d
       0.026780825 -0.005277362 -0.035565108 0.07027538
000180 7e 94 65 3d 8b ac 54 bc 0d 15 74 bd 7f 32 d2 bc
       0.056049816 -0.012980591 -0.059590388 -0.025658844
000190 64 18 d3 bc 6c ba 7c bb 51 3b 45 bd 63 3e 8f bd
       -0.025768466 -0.0038563265 -0.04815227 -0.06994321
0001a0 e8 70 6c 3d 49 65 84 bc 97 f4 82 3d 08 a6 67 3c
       0.057724863 -0.016161578 0.06394308 0.014138706
0001b0 bc f9 b8 bd a8 32 7d 3c cd 91 35 bc 8e bb 34 3c
       -0.09032008 0.015453972 -0.011082125 0.011031045
0001c0 7e 90 66 bc 63 34 4d 3c 08 e3 2d 3d d7 59 56 bd
       -0.014072536 0.012524697 0.042452842 -0.05233177
0001d0 8e 33 bc bd ce d4 cc 3c 7a 69 62 bc ac 42 23 3d
       -0.09189521 0.025003817 -0.013819093 0.039858505
0001e0 b1 21 a8 bd 23 61 cb bc c6 f0 fd bc 8c 93 14 bd
       -0.08209551 -0.024826592 -0.030998599 -0.036273524
0001f0 c3 e0 9d bd e8 a9 e7 3d b5 1b 42 bc 5c b7 33 bd
       -0.077088855 0.11311704 -0.011847426 -0.043876037
000200 52 4c 69 bd 4c 3f e1 3c 5b f2 36 ba 42 8e 0d 3d
       -0.05695755 0.027496003 -0.0006978863 0.034559496
000210 d0 69 83 bd 9d 27 92 3b 8b 27 d0 bb 6f 4a 03 bc
       -0.064166665 0.0044602887 -0.00635237 -0.008013352
000220 33 bc bc bd 5f 37 be 3d e1 e2 b2 3d 04 43 5a 3c
       -0.09215584 0.09287905 0.0873468 0.013321642
000230 11 b2 1a bd c4 89 1e bd 3b aa 2e bd 8a 2e d0 bc
       -0.037767474 -0.038705602 -0.042642813 -0.025412817
000240 d5 99 4d 3d d2 0e 41 bd c3 87 7c bc 14 39 cb 3b
       0.050195534 -0.047133274 -0.0154132275 0.0062018726
000250 47 ca 73 bc af f2 e9 bc f9 ec a8 bc bb 48 6e 3c
       -0.01487977 -0.028558103 -0.02062081 0.0145437075
000260 08 c6 90 3c b6 f7 64 bd 10 42 de bd 33 d5 a9 bc
       0.017672554 -0.055900298 -0.10852444 -0.020731544
000270 0a 19 dd 3b a6 02 91 bd 7e be 9b bd 54 e4 c7 bc
       0.0067473697 -0.07080583 -0.07604693 -0.024400868
000280 46 59 46 bd 9e 93 20 bc b4 c3 59 3d d5 b8 c7 bd
       -0.04842498 -0.00980082 0.053165153 -0.09752051
000290 e7 bd 0c bd 65 e4 84 3d 3b 39 ba bc 77 5f 3b 3d
       -0.034360792 0.06488875 -0.022732368 0.04574534
0002a0 55 1f 47 bc 58 d8 ee 3c fc c7 e8 bc dc a6 4c bd
       -0.012153466 0.029155895 -0.028415672 -0.049963817
0002b0 be fa 39 3c ec 00 55 3c 25 61 6f bd fc 6b d2 3d
       0.0113512855 0.013000708 -0.058442254 0.10274503
0002c0 1c bd ac 3c 9a 68 a2 3b a1 40 90 3d 9b 19 d4 3c
       0.021086268 0.004956317 0.07043577 0.025891116
0002d0 b0 af 9d bd 0b 70 72 bd 59 0c 32 bd 3f be 18 3d
       -0.07699525 -0.059188884 -0.043468807 0.037290808
0002e0 71 d8 7f 3d 18 47 51 39 a2 4b d5 3c d5 42 1d bd
       0.062462274 0.00019958278 0.026037041 -0.038393814
0002f0 cd c5 e2 bc 14 1e 18 bb e5 e2 db 3b 02 15 92 bd
       -0.02768221 -0.0023211287 0.0067103975 -0.07132913
000300 cd 88 d7 bc 46 09 13 3d 2a 01 93 bc e6 92 8d 3b
       -0.026310349 0.035897516 -0.017944891 0.00432049
000310 3b d2 b3 3c 27 47 73 bd 06 31 04 3d 4b 48 6e 3b
       0.021950832 -0.059394028 0.032273315 0.0036359008
000320 71 5a 92 bc ba d7 79 bd 24 76 12 39 2d 80 ff 3c
       -0.017865391 -0.06099675 0.00013967656 0.031189049
000330 6c ca 65 bd c8 85 8f bc ac 1d 4a 3d 6f 35 cf bc
       -0.056101248 -0.017519847 0.049344704 -0.025294034
000340 95 7b 8a 3d 28 4d f4 bc 37 5d 63 3d b2 86 31 3d
       0.06761853 -0.029821947 0.05550882 0.043341346
000350 7e 2a 07 bd 81 2f 14 bb b0 db 3a 3c 3a ad 4a 3d
       -0.032999508 -0.0022611322 0.011404917 0.049481608
000360 d8 ec 0d bd 25 1b 7f ba 78 33 6c 3d 92 d5 8a 3d
       -0.0346497 -0.0009731523 0.057666272 0.067790166
000370 c8 43 b0 3d 51 55 7d 3d 4b a7 64 bd 2d e5 bc bd
       0.08606678 0.061848942 -0.055823606 -0.09223399
000380 9c 5a 84 bd 09 54 13 bc 33 58 b0 bd 58 7e 7d bd
       -0.06462595 -0.0089922035 -0.08610573 -0.06188807
000390 be 0d 80 3a 5d be 64 bc d7 bc 0b 3d e5 8b c1 3d
       0.000976972 -0.013961402 0.03411564 0.09450511
0003a0 ce bb 33 bd cc 85 e7 bd 7c 3b 35 3d 28 08 61 3b
       -0.043880276 -0.113048166 0.04424618 0.0034337137
0003b0 b8 a8 09 3d a1 23 b3 3d db bd 93 3c 95 7a d6 bc
       0.03360817 0.0874703 0.018034866 -0.026181499
0003c0 21 d0 0e bc 01 9f 33 bd f8 68 8f bd f0 fe 11 3c
       -0.008716614 -0.04385281 -0.07002443 0.0089108795
0003d0 92 17 6e 3c 0f 68 2d bd 64 10 c4 bb ff 04 83 3d
       0.014531987 -0.042335566 -0.005983399 0.06397437
0003e0 68 18 95 bb fe 98 ac 3c 3b 4e 91 bd 1e 69 18 3d
       -0.0045500286 0.021069046 -0.070949994 0.037209623
0003f0 a2 1a 3b bb 18 67 4c bd 49 1e 90 bd 17 d7 66 bd
       -0.002854981 -0.049903005 -0.070370264 -0.05635747

b1 f4 [64]
000000 0b 70 b3 3c eb a3 43 3c c2 6a 34 be 19 58 c4 3d
       0.021904012 0.011940937 -0.1761885 0.09587116
000010 55 a9 4a be 52 18 77 3c 17 49 73 3d 5e a9 c1 3c
       -0.19791158 0.015081482 0.059395876 0.02364033
000020 14 ac 10 be fd 5e 84 3d 7e 05 c9 3d 88 00 11 bc
       -0.14128143 0.0646343 0.09815501 -0.008850224
000030 93 04 df 3d e2 d4 85 bd af e2 1e be b0 9d 5c 3e
       0.10889544 -0.06534745 -0.1551616 0.21544528
000040 20 8e 97 3d a0 66 58 be cf 95 81 bc 26 4f de 3c
       0.07400155 -0.21132898 -0.015818505 0.02713735
000050 e1 f3 3e 3e 6e 96 81 3e 86 9f 1f 3e 34 e0 1a be
       0.1864772 0.2531008 0.15588197 -0.15124589
000060 17 2a 15 3e 61 5e 22 bd 9c 7b b7 bd ec d9 cc 3b
       0.14566837 -0.039640788 -0.089591235 0.0062515642
000070 35 1e a4 bd cc 25 f9 bc e6 22 a4 3d d7 5b ad 3d
       -0.08013574 -0.03041353 0.08014469 0.08464783
000080 cf 9b 51 3e 49 0a fe bd e5 69 ea bc 0c 15 80 bd
       0.20469593 -0.124043055 -0.028614948 -0.062540144
000090 7b 3a 96 3d 8d 0f 24 bc d2 12 b5 bc 23 5e df 3d
       0.07335373 -0.010013473 -0.0221037 0.10906627
0000a0 c1 3d c1 3d e9 4b c0 bd 2c 67 11 3d ee e6 4f bc
       0.09435607 -0.09389479 0.035498783 -0.012689335
0000b0 b6 28 a2 3e 14 23 a6 3e a1 20 3d be 5e fd ed bc
       0.31671685 0.32448637 -0.18469478 -0.029051479
0000c0 76 92 cb bd a0 b8 1c bd a0 48 6e 3c 4d 25 c4 3d
       -0.099400446 -0.03826201 0.014543682 0.09577427
0000d0 7e 61 0c 3e ae 5a f8 3d ab 06 17 3e c4 7a 2b bc
       0.13709065 0.12126671 0.14748637 -0.010466281
0000e0 e8 e7 30 3e 18 ba ed 3d 25 c0 48 be 8d 52 84 be
       0.17275965 0.1160776 -0.19604547 -0.2584423
0000f0 10 d8 40 3e cf a4 f0 bd 00 2f 07 3e 89 47 00 3e
       0.18832421 -0.11750185 0.13201523 0.12527288

W2 (column-major) f4 [64, 64]
000000 ac 69 95 be a0 53 4c 3e cb 37 e5 3d 84 71 b4 be
       -0.29182184 0.19953775 0.11192282 -0.35242856
000010 66 99 88 bd cb 50 a1 3c d7 c4 85 3e df 4a 67 3e
       -0.066698834 0.019691845 0.2612674 0.22587155
000020 b7 26 e4 bc 34 dd df 3d 6b f1 47 3c 2f 4c 03 bc
       -0.027850492 0.10930863 0.012203555 -0.008013769
000030 98 ce 74 be cd eb 1c bf b4 ae ab be 00 a0 82 be
       -0.23906934 -0.61297303 -0.33531725 -0.25512695
000040 4b c2 8c bc d1 e4 8c bd f9 b5 02 bd 6a 55 90 3e
       -0.01718249 -0.06879581 -0.031911824 0.28190166
000050 e8 8f b3 3c be d1 13 3d ad a0 10 3e 87 07 b9 3d
       0.021919206 0.036088698 0.14123793 0.09034639
000060 e2 ee 8a bc c0 cd 0e bf 30 60 86 bd 9a 18 16 be
       -0.016959611 -0.557827 -0.06561315 -0.14657822
000070 99 c9 98 be 6a 8c a1 3d 9d ed 90 ba b7 5a 9b be
       -0.29841307 0.0788811 -0.0011057142 -0.30342647
000080 6a b7 00 3e dc 0d 09 bd a2 b3 f3 be c4 bb 72 3e
       0.12569967 -0.033460483 -0.47597986 0.2370444
000090 d1 81 f1 bd f3 d0 47 3d 0c 64 c3 bd 92 61 1f be
       -0.11792339 0.048783254 -0.09540567 -0.15564564
0000a0 d0 de 18 3d b5 ff 6f be b9 cf 7e be 31 cf d6 3d
       0.037321866 -0.23437388 -0.24883927 0.104887374
0000b0 7a 62 6c be e7 dc d7 be 06 f6 ce bc 7e 3e 54 3b
       -0.23084441 -0.42160723 -0.025263797 0.003238588
0000c0 f3 c1 ac be bd fd 7f 3e fa 85 b0 3e a4 ce 62 3d
       -0.33741722 0.24999137 0.34477216 0.05537285
0000d0 bc 10 13 3d 76 bd d9 be f0 35 22 3e fd 4f 2a bf
       0.03590463 -0.4252736 0.15840888 -0.665283
0000e0 32 78 70 be 9d 58 1d be d7 e9 e8 be 72 11 97 bd
       -0.23483351 -0.15365835 -0.45490906 -0.07376374
0000f0 42 f6 b4 3d 42 59 ec 3d 58 61 35 3e 40 dc 02 bf
       0.088360325 0.11540462 0.17712915 -0.51117325
000100 ca 20 94 bd 0e fa ac bd 22 a7 31 be 85 7e b2 be
       -0.072328165 -0.08446132 -0.17348912 -0.34862152
000110 5e 5e c0 3c 8a f6 46 3d 4b 00 cd 3d 40 8c af 3c
       0.023482498 0.04857496 0.100098215 0.021429181
000120 54 98 dd be fb 86 82 bd 30 90 02 bf 21 50 c0 3e
       -0.4328028 -0.06373402 -0.5100126 0.37561134
000130 12 4c 75 3e 57 22 36 be 9b 8d 0d 3c a1 19 d2 be
       0.239548 -0.17786537 0.008639718 -0.41035178
000140 2b fe 87 3d ba b9 a5 bd da cf 7f be 70 52 6c 3b
       0.066402756 -0.08092065 -0.24981633 0.0036059879
000150 f1 73 34 be db 9a 11 3e 76 4c c5 be 4b d5 f9 bd
       -0.17622353 0.14219229 -0.38534898 -0.121988855
000160 4e c0 20 be 34 4e 81 3e 47 6b b7 be 5e d1 20 3e
       -0.15698358 0.25254977 -0.35824034 0.15704867
000170 88 a1 e1 bd 39 53 06 3f d2 73 40 be af 2c 5d 3c
       -0.11017138 0.5247074 -0.18794182 0.013499423
000180 1f 7d 12 be 54 20 bd bd 90 d8 f0 bc b0 b7 48 3e
       -0.14305542 -0.09234682 -0.02940014 0.19601321
000190 6d f5 00 bf 27 94 77 3e 8e 9b 84 3d 2e b0 88 3c
       -0.5037449 0.2417761 0.06474982 0.016685572
0001a0 92 ea 39 3e 00 a5 9b be de a6 e9 bc ff b8 f9 bd
       0.18155888 -0.30399323 -0.028521951 -0.12193488
0001b0 cc 57 a3 3d 20 6a ec bd 5a c4 60 3e e8 0e 82 3d
       0.0797573 -0.11543679 0.21949902 0.063504994
0001c0 83 1c 0c be 8d 73 7d be f6 a6 34 3c ee 67 39 3e
       -0.13682751 -0.2475111 0.011026135 0.18106052
0001d0 b6 c2 5d be 25 d7 ff 3d e1 39 9e 3e 9c 59 19 3e
       -0.21656308 0.124922074 0.30903533 0.1497559
0001e0 30 80 09 be a2 54 33 3c f0 05 b6 be 9f 41 4c bc
       -0.13427806 0.010945471 -0.35551405 -0.012466817
0001f0 a7 95 5a be c9 3a af 3e 7d 4a 00 be b0 7e e9 bd
       -0.2134615 0.34224537 -0.12528415 -0.11401117
000200 47 40 5a bc 66 5f 93 3d c0 44 35 be 34 09 a3 3b
       -0.013320989 0.0719593 -0.17702007 0.0049754623
000210 81 04 dc be c3 86 a7 be 9a 1f db be 17 8b cb 3c
       -0.42972186 -0.32720003 -0.42797548 0.024846597
000220 4f 35 d2 3b 52 48 af be 12 da 3a be 58 b7 98 be
       0.0064150463 -0.34234864 -0.1824725 -0.2982738
000230 a9 ee 3c 3e 18 8f 82 bc 57 65 8b 3d 73 f6 1a be
       0.18450417 -0.015937373 0.068064384 -0.15133075
000240 51 a0 7e 3d eb bf 89 bd 6f 4b a8 bd 0d b3 02 bf
       0.06216461 -0.067260586 -0.08217513 -0.5105446
000250 80 01 1f 3e 2f 29 f5 3d 8c df e6 3c f7 f7 d0 be
       0.15527916 0.11970746 0.028182767 -0.40814182
000260 e6 3d cc be 9f 0d 8f be 82 12 7d be 4f 59 58 bd
       -0.39890975 -0.2794008 -0.24714091 -0.052819546
000270 7f 39 95 be de a8 09 be 88 da 93 bd fb 89 87 3d
       -0.2914543 -0.13443324 -0.07219416 0.066181146
000280 f5 64 71 bc fd ae bb be 66 28 03 3e a1 b3 a7 be
       -0.014733543 -0.36656943 0.1280838 -0.32754233
000290 2b 2b 32 bd b8 f0 73 3e 84 8b 83 bc 1a 6f 56 be
       -0.0434982 0.23822296 -0.016057737 -0.2094082
0002a0 14 d0 d6 3d 72 00 c7 3e dc 11 9f 3d 52 c8 19 3e
       0.104889065 0.38867527 0.07767078 0.15017822
0002b0 51 96 da bb 71 1a 9d be 49 07 a5 be aa a2 f5 3c
       -0.006670751 -0.30684236 -0.3223212 0.02998479
0002c0 1c fc 80 be 2c bc 05 be 41 ae ab 3c 5a a5 b0 ba
       -0.25192344 -0.13060063 0.020957114 -0.0013477013
0002d0 27 a9 db 3c ee ce 01 3e 92 aa 8a be e4 45 26 3e
       0.026814057 0.12676594 -0.2708326 0.16237599
0002e0 d0 d3 0f bd f3 7f d2 be 6d e5 c0 be cc 64 d5 bd
       -0.03511411 -0.41113243 -0.37675038 -0.10419616
0002f0 6b 6f 77 3e af ee cc bd 3a a6 20 bf c8 10 b8 bd
       0.24163596 -0.10006463 -0.6275364 -0.08987576
000300 38 52 7c bd 5c 98 6a 3d 4b ff f8 bc ea 39 13 3e
       -0.061601847 0.057274207 -0.03039517 0.14377561
000310 ff f5 cc 3c 82 fa cc 3d 13 23 25 bc 5f 86 88 3e
       0.025019644 0.10008718 -0.010079163 0.26665017
000320 f2 7c 19 bd 97 e3 03 be 62 a7 24 be 72 f2 e0 bc
       -0.037472673 -0.12879787 -0.16079476 -0.027459357
000330 46 80 5e 3c 4a 7c 66 3e 33 e7 c6 bc 6a 49 2d 3e
       0.013580387 0.2250835 -0.024280166 0.16922536
000340 f9 7f c3 be 41 ce 02 bd c3 2f f0 bd a4 29 2f 3e
       -0.38183573 -0.03193498 -0.1172786 0.17105728
000350 8c 55 dd bc de cc 53 bc 6d cf e2 bd 36 df f6 3d
       -0.027018331 -0.012927262 -0.110747196 0.12054293
000360 3b e1 50 be aa 7d 11 3e 67 9e c1 bd 14 16 14 3d
       -0.20398419 0.14208093 -0.09454041 0.036153868
000370 b1 ba 0e 3e b1 73 71 3e fc 59 aa be 21 df 35 3e
       0.13938405 0.23579289 -0.33271778 0.17760898
000380 99 ac 84 bd 03 41 81 3d 02 c8 cd 3c d7 33 61 be
       -0.06478233 0.06311228 0.025119785 -0.21992432
000390 a1 04 30 bd 06 1c b9 be 93 96 ba 3c ab 72 84 3e
       -0.042973164 -0.36154193 0.022776878 0.25868735
0003a0 38 f1 30 be f0 9c 88 3c 73 c6 bb bb 8c 72 e5 bd
       -0.17279518 0.016676396 -0.005730444 -0.11203489
0003b0 0b 95 a2 3c 8f 4a e9 3d 4e 46 52 ba cf e3 16 3e
       0.01984646 0.11391174 -0.00080213405 0.1473534
0003c0 8d d9 fd 3d 93 18 8d be 32 de 1b bf 05 65 3c 3d
       0.1239501 -0.2755781 -0.6088592 0.045994777
0003d0 f0 5c 2a be 73 00 69 3e fe e0 07 bd 2a 63 ad 3e
       -0.16637015 0.22754078 -0.033173554 0.3386472
0003e0 16 87 7e be 72 b0 d9 bd 04 d5 7c bc f7 d9 e7 be
       -0.24856219 -0.106293574 -0.015431646 -0.4528348
0003f0 6c 48 17 be 3c e8 c2 be ed 1a 8b be 1c a2 39 3d
       -0.1477372 -0.38067806 -0.2716898 0.045320615

b2 f4 [64]
000000 a2 d1 c4 3d 41 55 95 bd 97 31 83 3d 03 a0 fb 3e
       0.09610297 -0.072916515 0.06405943 0.49145517
000010 21 3e d0 3d b2 e0 dc 3e 7b 6a 24 3e c9 13 3d 3d
       0.101681 0.4314018 0.16056244 0.046161447
000020 e8 ac 54 b9 26 22 82 3e 57 f7 9d 3e 49 61 8d 3e
       -0.00020282308 0.25416678 0.30852768 0.27613285
000030 6f a8 d8 3d 62 90 ba 3e 36 79 80 3e e0 98 fe 3b
       0.10579001 0.3643828 0.25092477 0.007769689
000040 bf 5d 1e 3e 66 e9 62 3e 92 d7 cd 3e a2 a1 c4 3e
       0.15465449 0.22159347 0.4020353 0.38404566
000050 c8 c7 a2 3e a6 a2 c3 3e 26 63 4f 3e 7a 90 89 3c
       0.31793046 0.38210028 0.20252666 0.016792525
000060 eb 89 29 3e ac a4 89 3e 13 18 b1 3e d9 75 1e 3e
       0.16556518 0.26883447 0.3458868 0.15474643
000070 cf a9 af 3e 45 cd 46 3e f4 a0 2d bc 21 f2 e4 3c
       0.3430924 0.19414242 -0.010597456 0.027947487
000080 06 fd 82 3d c7 2c 74 3e 71 5a 8f 3e d4 ed 12 3e
       0.06395917 0.23845206 0.2799869 0.14348537
000090 4b 8e 86 3e 5e 1f f3 3a 15 2c 19 3e b1 8a 5d 3e
       0.26280436 0.0018548777 0.14958222 0.21634938
0000a0 c0 d1 ba 3e e0 de 69 3e 6b 74 64 3e b2 52 9b 3e
       0.36488152 0.22838926 0.22310035 0.3033653
0000b0 9a 1b 6e 3e e2 ac 99 3e 11 4c 18 3f 1b 4e 1b be
       0.23252717 0.30014712 0.5949107 -0.15166514
0000c0 0d 6b 93 3e fa bf 60 bb b6 36 6a 3e 51 18 c3 3e
       0.2879261 -0.0034294114 0.22872433 0.3810449
0000d0 4e ae 86 bd 8d b9 11 3e 0c 45 36 3e 04 32 5a 3e
       -0.06576215 0.14230938 0.17799777 0.21308142
0000e0 74 d5 27 3e 0e 3b 3b 3e 1c 20 20 3e b9 cd bd bc
       0.1639002 0.18284246 0.15637249 -0.023169385
0000f0 23 53 28 3c 7b ef 88 3e 5e c4 17 3d 68 26 c4 3e
       0.010273728 0.2674521 0.037052505 0.38310552

W3 (column-major) f4 [10, 64]
000000 20 81 b1 be f6 8a b5 be d8 a9 25 be 7b 19 1a be
       -0.34668827 -0.3545758 -0.16178071 -0.15048783
000010 38 b5 3a 3e df 80 ef 3d 6a 67 93 3e 67 b0 3f 3e
       0.18233192 0.11694502 0.28789836 0.18719636
000020 6c 56 9e be 18 de 32 3e e4 82 84 3e f2 af a5 3e
       -0.3092531 0.17467535 0.25881112 0.32360798
000030 ab 0a 08 3e 50 f5 9f 3b aa 81 41 be ca 56 f8 3c
       0.1328532 0.0048815385 -0.18897119 0.030314822
000040 52 34 2e be ce 1a ef bd af e4 ec be 74 4e 2f be
       -0.17012146 -0.116750345 -0.46268222 -0.17119771
000050 d3 23 2f bd 19 e4 a5 be 82 98 98 3e 9b 54 79 3e
       -0.042758774 -0.32400587 0.29803854 0.2434868
000060 19 ec 4e 3e 9c 09 be be 68 4c 7f be 36 35 54 be
       0.20207252 -0.37116706 -0.2493149 -0.20723423
000070 91 80 8f 3e 0d 91 67 3e 5d c9 b7 3e 43 ec 82 be
       0.28027776 0.22613926 0.35895815 -0.25570878
000080 1c 5e a7 be e0 a6 a0 be e2 07 61 be 35 3f 94 3e
       -0.32688987 -0.31377316 -0.21975663 0.28954473
000090 45 c5 bb 3e d3 0d ca bd 8b 3e 61 3e 47 da af bc
       0.36673942 -0.09865918 0.21996514 -0.021466387
0000a0 c7 92 2f be 93 21 e8 3e ac fa b3 3e 22 15 19 be
       -0.17145835 0.45338115 0.35152185 -0.14949468
0000b0 45 2a e0 3d 32 de d1 bd 40 93 9a 3e 84 d6 3e be
       0.10945562 -0.102474585 0.30190468 -0.18636519
0000c0 ce d5 34 be 7e 8d 97 bd e6 08 0a bc 1c 2b 86 3c
       -0.17659685 -0.07400034 -0.008424973 0.016377978
0000d0 66 ea 54 3e e3 d8 6d 3e ed 4e b3 be 35 b3 6c 3e
       0.20792541 0.23227267 -0.35021153 0.23115237
0000e0 28 ed 6f 3e b7 a4 ad be 60 7f 5d 3e 0c 9e ce be
       0.23430312 -0.3391473 0.21630621 -0.40354955
0000f0 bc 79 a8 be 73 20 33 3e 72 13 96 3e 90 8e 8c 3e
       -0.32905376 0.17492847 0.2931171 0.27452517
000100 fc 62 a5 be c1 20 c8 be b0 79 8a be 47 10 86 3e
       -0.32302082 -0.3908749 -0.27045965 0.26184294
000110 44 61 81 3e 65 77 ef be 05 fd a9 be 29 dc 02 bf
       0.2526952 -0.46770778 -0.3320085 -0.5111719
000120 e4 31 c9 3d 68 92 ff bd d1 11 aa bc de 52 f0 3d
       0.09823969 -0.12479097 -0.020760449 0.11734556
000130 bd 68 b1 be fe 7c 2a 3e ac 7f eb 3d 38 5b 83 be
       -0.3465022 0.16649243 0.11498961 -0.25655532
000140 52 d2 d8 3d 09 9d b2 bd db 11 16 be 2b e6 91 3e
       0.105869904 -0.08721358 -0.14655249 0.28495917
000150 a7 b9 1a be bc 54 9a 3e 50 5a 74 be 80 36 9f be
       -0.15109883 0.30142772 -0.23862576 -0.31096268
000160 a5 2c 73 bd 1f 93 ea 3d ae e2 88 bd 59 84 4c 3e
       -0.05936875 0.11453842 -0.06683861 0.19972362
000170 16 e8 63 3e 0b b2 40 3e 08 ba 77 be 7b d6 b1 be
       0.22256503 0.18817918 -0.24192059 -0.34733948
000180 71 51 1e 3e ef 54 21 3e 65 78 42 3e 2d 28 5c 3e
       0.15460755 0.15755056 0.1899124 0.21499701
000190 18 14 6e be e8 47 2a be e0 45 76 be 7d 90 99 3e
       -0.23249853 -0.16628993 -0.24050093 0.29993048
0001a0 cc a3 89 be 35 a2 9a 3e 5d c3 1e be ae a8 c0 be
       -0.2688278 0.3020188 -0.15504213 -0.37628692
0001b0 99 ee 7f 3e 9c 3b 97 3e 59 22 e3 be e9 13 28 3e
       0.24993362 0.29537666 -0.44362143 0.16413845
0001c0 43 00 47 3e 21 25 b6 3c 26 fd 72 be 5b e7 f9 3d
       0.19433694 0.022234501 -0.23729381 0.12202331
0001d0 0b 18 3c be 9d 0a ca be ee 3d 51 be 57 ff 85 be
       -0.18368547 -0.39461222 -0.2043378 -0.2617137
0001e0 8e 8c 20 be fa ad 76 3e f8 2a 67 be b0 ba 5a bd
       -0.15678617 0.24089804 -0.22574985 -0.053400695
0001f0 6e e5 ed bd 4c 19 72 3e 48 5b f8 bd 72 e5 c7 3e
       -0.11616026 0.23642462 -0.121267855 0.3904224
000200 bc ea 93 bc 11 e4 84 3e 03 6d 03 bd 49 ff a4 3e
       -0.018056266 0.2595525 -0.032086384 0.32226017
000210 20 1c 8f bc 87 1d 8c be e7 28 94 3e aa 83 60 be
       -0.017469466 -0.27366278 0.28937456 -0.21925226
000220 aa 5b 78 3e 65 3c 51 be db 5a 82 3e 0a ff 54 be
       0.24253717 -0.20433195 0.25459942 -0.20800415
000230 53 3b c9 3e 8e 3d 2c be f1 48 85 be 43 1b 44 be
       0.39303073 -0.16820356 -0.26032212 -0.19151025
000240 2a 8d 21 be 5c f3 b7 3e db e7 a6 3e 8e 64 46 be
       -0.15776506 0.35927856 0.32598767 -0.19374296
000250 64 88 fd 3d c7 d9 a5 bd 48 f7 13 be 54 d5 62 be
       0.1237953 -0.08098178 -0.14449799 -0.2215169
000260 ba 44 60 be 7c e6 d4 bd f1 f2 b3 3e b5 a0 9e bd
       -0.21901217 -0.10395524 0.35146287 -0.07745496
000270 2a 04 65 bd 2e 1c 8e be 86 af ab 3e d9 8b a7 3e
       -0.055912174 -0.27755874 0.3353235 0.32723883
000280 00 ab c5 be 4c 2e 28 be df f4 cb 3d a2 f1 5b be
       -0.38607025 -0.16423911 0.09958815 -0.21478894
000290 e7 f5 7f 3e 23 8d 83 be 33 b1 19 bc 98 49 89 3e
       0.24996148 -0.25693616 -0.0093806265 0.2681396
0002a0 87 f9 98 be 69 47 6d 3e d2 3e 78 3e f5 fc 13 be
       -0.29877874 0.23171772 0.24242714 -0.14451964
0002b0 d5 4c ff bb d3 71 99 3d 9a ed f6 be b5 3d 39 3e
       -0.0077911415 0.07492413 -0.4822815 0.18089946
0002c0 f1 d8 35 be b6 e5 6d 3e 97 05 37 3e 12 76 8d be
       -0.17758538 0.23232159 0.17873226 -0.27629143
0002d0 2c 73 e5 bc 01 4b 81 3e ac 5d 7e be ea 80 8f 3e
       -0.02800902 0.25252536 -0.2484042 0.2802804
0002e0 92 90 08 3e ff f8 b4 bc 2a 5f 64 be 77 b4 4e be
       0.13336399 -0.022091387 -0.22301927 -0.2018603
0002f0 9b e0 7a 3e 8d 6b 93 3e ce 8b 19 be c2 74 58 3e
       0.24499743 0.28792992 -0.14994738 0.2113829
000300 02 31 96 3e 93 1d 3d 3e a5 23 37 be 53 34 a2 be
       0.29334265 0.18468313 -0.17884691 -0.31680545
000310 d8 4d 8d be 30 1f d5 3c 3c af 84 3e e5 d6 4d be
       -0.27598453 0.026015848 0.25914943 -0.20101507
000320 c9 da c2 3e b3 b9 93 be f9 c4 7b be d9 f7 ae 3d
       0.38057545 -0.28852615 -0.24586858 0.08543367
000330 42 11 10 3e bd af bd 3d 06 5c 18 3e 3e 02 20 be
       0.14069083 0.09262035 0.14878854 -0.15625855
000340 d1 37 86 be f6 b4 28 be 3f 13 d7 3e 42 c1 56 be
       -0.2621446 -0.16475281 0.4200687 -0.2097216
000350 40 0f df 3e fa 3e 4e be e8 d1 b4 3d 9a 6e 05 be
       0.43566322 -0.20141211 0.08829099 -0.13030472
000360 e0 c0 ba 3e 7a d3 2f be 78 95 72 be fe b1 d2 bc
       0.36475277 -0.17170516 -0.2368983 -0.025719639
000370 ed 91 6d be 9a 99 04 3e 22 19 b0 bd c8 f5 97 3e
       -0.23200198 0.1294922 -0.08598544 0.29679704
000380 59 89 ad 3e 77 2d 1e be 0b 74 51 3e 77 27 87 3e
       0.3389385 -0.15447031 0.20454423 0.26397297
000390 21 8b e3 bd 1d 96 77 be a4 55 d8 be 38 bc c8 be
       -0.11110521 -0.24178357 -0.4225284 -0.392061
0003a0 51 ff 29 3e 38 5e 26 3e 98 28 aa be 21 41 e5 bd
       0.16601302 0.16246879 -0.33234096 -0.11194063
0003b0 37 0a cc be b9 ed 46 3e fc 77 f9 3d 64 c6 c8 be
       -0.39851543 0.19426621 0.12181088 -0.3921386
0003c0 7d 9b c6 bd 93 23 8d 3e 43 c2 43 be e0 64 a7 3e
       -0.09697626 0.27566203 -0.19117074 0.3269415
0003d0 f3 82 df bc be b9 9a be b4 8b f9 bd 9a e9 78 bd
       -0.027284121 -0.30219835 -0.121848494 -0.060769655
0003e0 27 88 b9 3c 47 71 4f 3e 7d 74 64 be 59 b1 82 bb
       0.02264793 0.20258056 -0.22310062 -0.0039884266
0003f0 90 ea 35 be 4b 34 14 be 86 bb 69 3e 87 e9 a1 3e
       -0.1776526 -0.14473073 0.22825441 0.3162348

b3 f4 [10]
000000 f9 42 9d be 76 ea e0 bd 90 3b 0e 3e 95 81 a0 3d
       -0.3071516 -0.1098222 0.13889909 0.07837216
000010 e5 ab 75 bd b9 2a 58 3e 4d c7 92 be 7f be 03 bd
       -0.059978385 0.21110047 -0.2866768 -0.032164093
000020 d0 f1 1d 3e 8b ae d5 3c
       0.15424275 0.026084205
